rk_ckpts_v4/model_N100_L6_g1p1_lr0p05_seed1.pt (torch, 209369 bytes, 13 tensors)

hid.0.weight f4 [100, 2]
0	0xbf13cde4	-0.5773604
1	0xbf24799f	-0.6424808
2	0xbb9a18b9	-0.004702654
3	0xbf3d3fd5	-0.73925525
4	0xbe997450	-0.29971552
5	0xbccbbdca	-0.024870772
6	0x3f7816f9	0.96910053
7	0x3f03f22e	0.5154141
8	0x3ec3cee8	0.38243794
9	0xbf469781	-0.77574927
10	0x3fd80d6e	1.6879098
11	0x3fbabae8	1.4588289
12	0xbfa76aaa	-1.3079426
13	0xbf12154d	-0.5706375
14	0x3f30561d	0.688814
15	0x3efb927f	0.49135205
16	0xbf107510	-0.56428623
17	0xbf1f44f1	-0.6221457
18	0x3b1480b0	0.0022659712
19	0x3fdd865b	1.7306627
20	0x3f01cc03	0.5070192
21	0x3efc087d	0.49225226
22	0xbf4087ea	-0.7520739
23	0xbf15a744	-0.5845835
24	0x3f2b5527	0.6692681
25	0x3f99472d	1.1974846
26	0xbe875938	-0.26435256
27	0x3e51e565	0.20497663
28	0x3e3a1a60	0.18174124
29	0x3e7739d7	0.24143158
30	0x3ec7e1b8	0.39039397
31	0x3f29e1a4	0.66359925
32	0x3f2d87a2	0.67785084
33	0xbee60e4f	-0.44932792
34	0xbee79ccd	-0.45236817
35	0x3f6f2790	0.9341974
36	0x3ecad6c7	0.39616987
37	0xbf69233c	-0.9106939
38	0xbf89e24e	-1.0772188
39	0x3e34f0f0	0.17670035
40	0xbf5f8d22	-0.87324727
41	0xbf0e5bfd	-0.5560911
42	0x3da51680	0.08060932
43	0x3dfce895	0.12349049
44	0xbdefc970	-0.11708343
45	0x3d9e4e96	0.07729833
46	0x3f5aa97c	0.8541486
47	0x3f569b9e	0.83831203
48	0x3e0fc8fd	0.14041515
49	0xbf275dcc	-0.653775
50	0x3e32ca84	0.17460066
51	0x3fce317c	1.6108851
52	0x3fde6db7	1.7377232
53	0xbf392427	-0.7232079
54	0x3f1d29f6	0.6139215
55	0xbf6a043f	-0.9141273
56	0xbee91a12	-0.45527703
57	0x3f2681f9	0.6504207
58	0xbe49c6f2	-0.19704798
59	0xbf47f495	-0.7810758
60	0xbeff055e	-0.49808782
61	0x3d5a9f8f	0.053374823
62	0xbf2ff777	-0.68736976
63	0x3fd6ca50	1.6780491
64	0xbf2d0f36	-0.67601335
65	0x3e9e01e8	0.3086083
66	0xbd8140df	-0.06311201
67	0x3e5a54e8	0.21321452
68	0x3f9e6595	1.237475
69	0xbe9dbdfe	-0.30809015
70	0xbf121261	-0.57059294
71	0xbe51391e	-0.20431945
72	0xbde65fe7	-0.11248761
73	0x3ea0f93a	0.31440145
74	0xbea729d6	-0.32649106
75	0xbf242362	-0.6411649
76	0xbedc23d5	-0.42996088
77	0xbd943bec	-0.07237992
78	0x3f72370f	0.9461526
79	0x40085e05	2.1307385
80	0xbf50a9e3	-0.81509227
81	0x3ea13b52	0.3149057
82	0xbf2faf5e	-0.68626964
83	0x3f5fc1a3	0.8740484
84	0x3e6cf524	0.23140389
85	0xbced8a1a	-0.028996516
86	0xbefeee0c	-0.4979099
87	0x3f02333b	0.5085942
88	0xbe21add7	-0.15788971
89	0xbf13924c	-0.57645106
90	0xbf9f9371	-1.246687
91	0x3ff176e9	1.8864413
92	0x3f396ab3	0.72428435
93	0xbf21b328	-0.63163996
94	0x3f185c5c	0.5951593
95	0xbf0f2278	-0.5591197
96	0xba7a2575	-0.00095423247
97	0xbf5c64d0	-0.8609133
98	0xbf23b067	-0.63941044
99	0xbf9262a3	-1.1436352
100	0x3e934834	0.28766024
101	0xbe34e5e7	-0.17665826
102	0xbf1a957b	-0.6038434
103	0xbf220c27	-0.63299793
104	0x3fa7c3d2	1.3106635
105	0x3e3d1f62	0.18469003
106	0xbfa53977	-1.2908162
107	0xbf1cc978	-0.61244917
108	0xbea8eee3	-0.32994756
109	0x3e928d39	0.2862337
110	0x3f15d218	0.585237
111	0xbd7a3210	-0.0610829
112	0x3f921a81	1.1414338
113	0xbd67847a	-0.056522824
114	0xbf35e1e5	-0.7104781
115	0xbf1dca3c	-0.6163671
116	0xbed80f19	-0.4219902
117	0x3f88c827	1.0686082
118	0x3f36a46c	0.7134464
119	0x3f902d94	1.1263909
120	0x3e9b8e1e	0.30381864
121	0x3da32def	0.079677455
122	0x3f636ef0	0.8884115
123	0xbeb3a1f7	-0.35084507
124	0xbf4e3118	-0.8054366
125	0xbf80d8dc	-1.006618
126	0x3ef2040a	0.47268707
127	0x3f27f663	0.6561033
128	0xbf1f5d54	-0.6225178
129	0xbe6ee6cc	-0.2333023
130	0x3dcca630	0.09992635
131	0x3f3b4def	0.7316579
132	0x3fe36285	1.7764441
133	0x3eb44db8	0.35215545
134	0xbe0cb95a	-0.13742581
135	0x3ef916fe	0.48650354
136	0x3ec0c8c6	0.37653178
137	0xbfbab386	-1.4586036
138	0xbe58e78e	-0.21182081
139	0x3fb8c0cd	1.4433838
140	0xbea68f5c	-0.3253125
141	0xbfbe8898	-1.4885435
142	0x3fa4644e	1.284311
143	0xbbf252ac	-0.007395109
144	0xbfccc371	-1.5997144
145	0x3cb41b43	0.021985656
146	0xbe501bde	-0.2032313
147	0xbdd5170a	-0.10404785
148	0xbf08f678	-0.5350108
149	0xbfc1f889	-1.5153972
150	0xbfad89e6	-1.3557708
151	0x3ef628a7	0.4807789
152	0xbe3c65d9	-0.18398227
153	0xbfb36a8d	-1.4016892
154	0x3ed54ac9	0.4165862
155	0xbf0d3ad4	-0.5516789
156	0x3fb86998	1.4407225
157	0x3f2c37a5	0.67272407
158	0x3fa04ca6	1.2523391
159	0x3c0d5cd6	0.008628091
160	0xbfd74122	-1.6816752
161	0x3e4f4cf3	0.20244198
162	0x3fd2b910	1.6462727
163	0x3f15b944	0.5848582
164	0xbcd435ab	-0.025904497
165	0x3ecf03eb	0.40432677
166	0x3e67eb14	0.22648269
167	0xbec01448	-0.37515473
168	0xbf8953a4	-1.072865
169	0x3ee529da	0.44758493
170	0x3ef0c5b1	0.47025827
171	0xbf533f80	-0.8251877
172	0xbe06fec8	-0.13183129
173	0xbf0dd69f	-0.5540561
174	0x3ede2e0c	0.43394506
175	0x3ebbec0e	0.36703533
176	0xbe5fab0b	-0.21842591
177	0xbdd5d682	-0.10441305
178	0x3d04b742	0.03240133
179	0x3dc25376	0.09488575
180	0xbf30addb	-0.6901528
181	0x3ec88daf	0.39170596
182	0xbf30dd69	-0.69087845
183	0x3e1b885a	0.15188733
184	0xbe7e1f7c	-0.24816698
185	0x3eb26c57	0.34848282
186	0x3dbd896f	0.09254729
187	0x3f602880	0.875618
188	0x3ece420c	0.40284765
189	0x3b954ffc	0.004556654
190	0x3e180547	0.14845763
191	0x3d025a68	0.0318245
192	0x3f01f797	0.5076842
193	0x3db5bd30	0.08873975
194	0xbf1fdca5	-0.6244605
195	0xbe7e7fa2	-0.24853376
196	0xbddb2877	-0.107010774
197	0xbe92bdc6	-0.2866041
198	0x3ef24e3d	0.47325316
199	0xbf1cb318	-0.61210775

hid.0.bias f4 [100]
0	0xbe519800	-0.2046814
1	0x3e88219e	0.26588148
2	0x3eb49653	0.35270938
3	0x3d76ad9c	0.06022416
4	0x3e10e31f	0.1414914
5	0xbe219e56	-0.15783057
6	0xbe894e61	-0.2681761
7	0xbe827126	-0.2547695
8	0xbe18ecca	-0.14934078
9	0x3f3afc39	0.7304111
10	0x3e54ef2a	0.20794359
11	0x3dce089c	0.10060236
12	0xbebd99c1	-0.37031367
13	0xbcbd0837	-0.023075206
14	0x3ee66318	0.44997478
15	0xbc9e43ad	-0.01931938
16	0xbdce5db2	-0.10076465
17	0x3d2cdcf8	0.04220292
18	0xbdd7d92d	-0.1053947
19	0xbadf8e89	-0.0017056029
20	0xbddc912d	-0.107698776
21	0xbe90a0e3	-0.28247747
22	0xbd77fa52	-0.06054146
23	0xbd9d872a	-0.07691796
24	0xbe1389c4	-0.14408022
25	0x3e9ad1f1	0.30238298
26	0xbca7f063	-0.020500368
27	0xbe609ff4	-0.21936017
28	0xbd404873	-0.046944093
29	0x3e2c00e9	0.16797222
30	0xbdf4f157	-0.119600944
31	0x3ec764ae	0.38944
32	0xbe51a0f7	-0.2047156
33	0xbd07a413	-0.033115458
34	0xbec87d44	-0.3915807
35	0x3ca7b8ee	0.020473924
36	0x3e3b9d7c	0.18321794
37	0x3dffa4d2	0.12482609
38	0xbea5d1c5	-0.32386604
39	0x3d7e9d86	0.062161945
40	0xbe001b47	-0.12510405
41	0x3e7d7bfa	0.24754325
42	0xbe51f464	-0.20503384
43	0x3d59897d	0.053109635
44	0x3e96dda6	0.2946598
45	0x3eb1a6ee	0.3469767
46	0xbc0a0fc1	-0.008426608
47	0xbd9bd108	-0.07608229
48	0x3eb1e103	0.34741983
49	0x3c32fa59	0.010923945
50	0xbe336ad1	-0.17521216
51	0x3ca6f305	0.020379553
52	0x3dd3dff1	0.10345448
53	0xbefb0518	-0.49027324
54	0x3e3d14d7	0.18464981
55	0xbda514b8	-0.080605924
56	0xbd0fa2b7	-0.035067286
57	0x3e6032e5	0.21894415
58	0xbdcb74d7	-0.09934395
59	0x3de942cd	0.11389694
60	0x3e00a745	0.12563808
61	0xbcb7bc34	-0.02242861
62	0x3d12ac6b	0.03580896
63	0x3da35a56	0.079762146
64	0x3e4f7a02	0.20261386
65	0x3dd8f177	0.10592931
66	0x3d95038d	0.07276068
67	0x3d17856c	0.036992475
68	0x3f09e5f9	0.53866535
69	0xbe8b6c2d	-0.2723097
70	0x3ebb74a4	0.36612427
71	0x3e14b578	0.1452235
72	0xbf015db7	-0.5053362
73	0x3e16b048	0.14715683
74	0xbe0749e0	-0.13211775
75	0xbd53d09b	-0.051712614
76	0xbd657ce9	-0.056027327
77	0x3dee2d48	0.116297305
78	0xbcf0a2dc	-0.029374532
79	0xbea15eb4	-0.31517565
80	0xbef977d4	-0.48724234
81	0x3ef9841a	0.48733598
82	0x3e934fa2	0.28771693
83	0x3d90cd57	0.070704155
84	0x3efe21d6	0.4963519
85	0xbe29d093	-0.16583471
86	0xbe76e7a0	-0.24111795
87	0x3d41a769	0.047278795
88	0x3e464dac	0.19365567
89	0x3e36da06	0.17856607
90	0x3ddde8b0	0.10835397
91	0xbd49af4e	-0.04923945
92	0x3ec4242c	0.38308847
93	0xbe7706fd	-0.2412376
94	0x3cf820d5	0.030289093
95	0xbf299324	-0.66240144
96	0x3e0d2683	0.13784222
97	0xbe0a57b8	-0.13510025
98	0x3e3e433c	0.18580335
99	0x3db3557f	0.087565415

hid.1.weight f4 [100, 100]
0	0xbd251e4f	-0.040312108
1	0xbd4009c7	-0.046884324
2	0xbe187117	-0.1488689
3	0x3bfcf83e	0.0077200225
4	0xbd5618b3	-0.05226965
5	0x3c14f7d1	0.009092287
6	0x3ca8540f	0.020547895
7	0xbda50c54	-0.08058992
8	0x3b092009	0.0020923635
9	0x3dd9abc2	0.10628463
10	0x3e02cd64	0.12773663
11	0x3dbf33e8	0.09336072
12	0x3e292e4b	0.16521566
13	0xbde5da92	-0.112233296
14	0x3d42c245	0.04754855
15	0x3d55b1ed	0.052171636
16	0xbdec168b	-0.11527737
17	0xbd36e46a	-0.044651426
18	0x3de335f0	0.11094272
19	0x3baf00d3	0.0053406744
20	0xbda5e0af	-0.080994956
21	0xbc06493c	-0.008196171
22	0x3c5db1de	0.013531176
23	0x3dc2a6f6	0.095045015
24	0x3d4beb88	0.049785167
25	0x3dd80486	0.10547738
26	0x3e3bfbaa	0.18357721
27	0xbeb3ccdd	-0.35117236
28	0x3ab19c84	0.0013550674
29	0xbb933cbb	-0.0044933236
30	0x3d9a142d	0.075233795
31	0xbda48926	-0.080339715
32	0xbc959ba1	-0.018262686
33	0xbda07b1b	-0.078359805
34	0xbe52e9a2	-0.20596936
35	0x3da98335	0.08276979
36	0xbe0493a4	-0.12946945
37	0xbda21aef	-0.079152934
38	0xbd9e6672	-0.07734384
39	0xbd8c2e17	-0.068447284
40	0x3e3b87a6	0.18313465
41	0xbd7fe7c2	-0.06247688
42	0x3d83c99e	0.0643494
43	0x3c653d13	0.013991612
44	0x3db9c153	0.09070077
45	0x3d8f8f37	0.07009738
46	0xbd87a6d2	-0.06623615
47	0xbcdcad0f	-0.02693799
48	0xbd3629f2	-0.044473596
49	0x3d745c8e	0.05965858
50	0x3e465b85	0.1937085
51	0x3d490862	0.04908026
52	0x3bb95531	0.0056559076
53	0xbd8e0de7	-0.069362454
54	0xbd23aa4e	-0.039957337
55	0xbcd69259	-0.02619283
56	0x3c6ef334	0.014584351
57	0xbcd0e584	-0.025500067
58	0x3e047314	0.12934524
59	0xbd47a992	-0.0487457
60	0x3e465e6d	0.19371958
61	0x3d49fc8e	0.04931312
62	0xbe328fdb	-0.17437689
63	0xbd3597fb	-0.044334393
64	0xbe276e59	-0.16350688
65	0xbd6f7c24	-0.058468
66	0xbe1d4ec3	-0.15362076
67	0xbd96f0c0	-0.07370138
68	0x3df84a62	0.121235624
69	0x3d9e5b18	0.077322185
70	0x3dd90ff1	0.10598744
71	0x3dcb72aa	0.0993398
72	0xbe14d6a9	-0.14535011
73	0x3d7c64af	0.061619457
74	0xbe3179d9	-0.17331637
75	0x3dda1c03	0.10649874
76	0x3e3c9e9b	0.18419878
77	0x3d74e790	0.059791148
78	0x3d2ebced	0.042660642
79	0x3ce85fe6	0.02836604
80	0x3d6c283f	0.05765557
81	0x3bd2e881	0.006436408
82	0x3e07d499	0.13264693
83	0xbdd4277e	-0.10359095
84	0x3c896a2a	0.016774256
85	0xbd826f31	-0.06368864
86	0xbbb182af	-0.00541719
87	0xbda48ff0	-0.080352664
88	0x3c8ad9d5	0.016949574
89	0xbbc2beb8	-0.0059431456
90	0x3e21c8be	0.15799233
91	0xbdec9b40	-0.11553049
92	0x3dbcce7e	0.09219073
93	0xbdd000b2	-0.101563826
94	0xbd4a9ef4	-0.049467996
95	0xbde1293b	-0.10994192
96	0x3d3e3dd6	0.04644569
97	0xbd1aabed	-0.037761617
98	0x3d85e9b0	0.06538713
99	0xbc08ca19	-0.008348965
100	0x3ddb2f0c	0.10702333
101	0x3c3b4b53	0.011431533
102	0xbd62714e	-0.055283837
103	0xbdb6ee91	-0.08932222
104	0xbd16bc51	-0.036800686
105	0xbd9ead42	-0.0774789
106	0xbd95dbb2	-0.07317294
107	0xbda4ded3	-0.08050313
108	0xbe32c189	-0.1745664
109	0xbd08b534	-0.033375934
110	0xbc2b228f	-0.010445251
111	0xbde0f71e	-0.10984634
112	0xbdbb58e5	-0.09147815
113	0x3d058d25	0.03260531
114	0x3e354608	0.17702496
115	0xbe0760bf	-0.132205
116	0x3dca7059	0.0988471
117	0xbe16ca75	-0.14725669
118	0x3e3b2b14	0.18278152
119	0xbebd0e2f	-0.36924884
120	0x3c32faf4	0.01092409
121	0xbd45d43c	-0.048298106
122	0xbcd36047	-0.025802745
123	0xbcd004f0	-0.02539298
124	0xbe71b70b	-0.23604982
125	0x3e9d8470	0.30765104
126	0x3dc784bf	0.09742116
127	0xbd04b7b9	-0.032401774
128	0xbda38e14	-0.079860836
129	0x3cea0b69	0.028569894
130	0xbcff8432	-0.031190965
131	0xbe111a27	-0.14170133
132	0x3d88605f	0.06659006
133	0xbe4702d5	-0.19434674
134	0xbe14ecda	-0.14543477
135	0x3dc1d92a	0.09465249
136	0x3d5bbec7	0.053648736
137	0xbd942c01	-0.072349556
138	0xbd06c2be	-0.032900564
139	0xbcbbc29f	-0.022919951
140	0xbe1a340f	-0.15058921
141	0xbcdeda22	-0.027203623
142	0xbde57b24	-0.11205128
143	0xbe10fc9f	-0.14158867
144	0x3b6f74f6	0.003653822
145	0x3e5e2730	0.21694636
146	0xbdc6a8ad	-0.09700141
147	0x3df6ef65	0.1205738
148	0x3df75613	0.12076964
149	0xbe454a5e	-0.1926665
150	0x3d5e6fa5	0.05430569
151	0x3e950649	0.29106358
152	0xbb99c112	-0.004692205
153	0xbdffc038	-0.12487835
154	0xbe3860cb	-0.18005674
155	0xbc56141b	-0.013066317
156	0xbc86403f	-0.016388057
157	0x3e3ed353	0.18635301
158	0x3d005459	0.03133044
159	0x3da23df6	0.07921974
160	0x3d917118	0.07101649
161	0x3e5b760f	0.21431755
162	0xbd78c53e	-0.06073498
163	0xbda26260	-0.0792892
164	0x3dc91669	0.098187275
165	0xbe2a3ee7	-0.16625558
166	0x3df088e7	0.11744862
167	0xbe7c90ea	-0.24664655
168	0xbddbe83e	-0.10737656
169	0xbe3e51a8	-0.18585837
170	0x3c3fda83	0.011709812
171	0x3dd60134	0.10449448
172	0xbd4eea4c	-0.05051641
173	0x3e10d9ec	0.1414563
174	0x3e660f97	0.22466885
175	0xbc1ef28d	-0.009701383
176	0x3d07feaa	0.03320185
177	0xbd4ce965	-0.05002727
178	0x3e11cf20	0.14239168
179	0xbe78ee5e	-0.2430968
180	0xbe268d36	-0.16264805
181	0xb7a20eac	-1.9318737e-05
182	0xbe048e78	-0.12944973
183	0xbd0b744d	-0.03404646
184	0xbdfa13ff	-0.12210845
185	0xbe0fabea	-0.14030424
186	0xbc382cf9	-0.011241191
187	0xbe2f19cb	-0.17099683
188	0xbe94d4d4	-0.29068625
189	0x3dea0836	0.11427347
190	0x3d6d53c3	0.05794121
191	0xbe57b136	-0.21063694
192	0xbdac08f2	-0.08400144
193	0xbd7a6d9b	-0.061139684
194	0xbdceda0f	-0.10100185
195	0x3d89cb9e	0.0672829
196	0xbdeaeff5	-0.114715494
197	0x3bc70062	0.0060730437
198	0xbd953341	-0.072851665
199	0xbe55bd33	-0.20872955
200	0xbd805419	-0.0626604
201	0xbd1965fa	-0.037450768
202	0x3da362dd	0.07977841
203	0xbe3125cb	-0.17299573
204	0xbdc13078	-0.09433073
205	0xbdc9dcd6	-0.09856574
206	0x3e848066	0.2587921
207	0xbdd600d3	-0.10449376
208	0x3d762d8d	0.060102034
209	0x3d48df3d	0.04904102
210	0x3ceec61e	0.029147204
211	0xbd9d5a74	-0.07683268
212	0x3e57e2bd	0.21082588
213	0x3d0b3bdb	0.03399263
214	0x3da184ac	0.07886633
215	0xbc47b336	-0.012188723
216	0xbd989e54	-0.07452074
217	0x3e214f77	0.1575297
218	0x3e36fa14	0.17868835
219	0x3d72121f	0.059099313
220	0xbc22e542	-0.009942355
221	0x3daa4a30	0.083149314
222	0x3e0f22a3	0.13978057
223	0xbdc373b9	-0.09543557
224	0x3de886ba	0.11353822
225	0xbd46c5f2	-0.04852862
226	0x3e77c081	0.24194528
227	0xbda1ea80	-0.079060555
228	0xbdc81cbd	-0.097711064
229	0x3beca02c	0.0072212424
230	0xbd0b1ffd	-0.033966053
231	0xbe154b8a	-0.14579597
232	0xbd7bbfc2	-0.06146217
233	0x3b888711	0.004166492
234	0xbcfa1685	-0.030528316
235	0x3d17cb11	0.037058894
236	0x3e00d450	0.12580991
237	0x3d2aa3a0	0.04165995
238	0x3e0ab1c7	0.13544379
239	0x3de7b4f0	0.11313808
240	0xbdda3bcc	-0.106559366
241	0x3db54c92	0.08852495
242	0xbc87df76	-0.016586047
243	0x3d251c1a	0.040310003
244	0x3e27339a	0.16328278
245	0xbd8c5176	-0.06851475
246	0xbc970008	-0.018432632
247	0x3d3ae2c3	0.045626413
248	0xbb1e580b	-0.0024161364
249	0xbdb93ed1	-0.090451844
250	0xbe25645c	-0.16151565
251	0xbe248d11	-0.16069438
252	0x3caa2dd8	0.020773813
253	0xbda96ea0	-0.08273053
254	0x3b85b401	0.004080296
255	0xbcf12f28	-0.029441431

hid.1.bias f4 [100]
0	0xbb940b7c	-0.0045179706
1	0x3acbe346	0.0015555404
2	0x3acc298f	0.001557635
3	0xbc3c5851	-0.011495666
4	0x3ab9c455	0.0014172891
5	0x3c0ea8e3	0.008707258
6	0xbb2eea89	-0.0026690087
7	0x3c4c2ae5	0.012461399
8	0x3bb2fc87	0.0054622325
9	0xbbad4b46	-0.0052885143
10	0x3bb4bbac	0.0055155363
11	0xbb8a306f	-0.0042171995
12	0xb9f9c9de	-0.00047643384
13	0xbc09c691	-0.008409158
14	0x39f679b8	0.00047011464
15	0x3b1a2514	0.0023520635
16	0xbc095abf	-0.008383452
17	0xbada77a3	-0.0016667735
18	0x3badfe9b	0.0053098924
19	0x393d4088	0.00018048484
20	0xbb23ad9d	-0.0024975308
21	0xbb820a9a	-0.003968549
22	0x3b1ed302	0.0024234657
23	0xbb34d6f5	-0.0027593945
24	0x3a1ffd1e	0.0006103086
25	0x3b260760	0.0025333986
26	0xbbcbf1f7	-0.006223913
27	0x3b0f512f	0.0021868458
28	0x3b2838a8	0.0025668535
29	0xbb4f012f	-0.00315864
30	0x3b4db000	0.0031385422
31	0xbc033918	-0.008009218
32	0x39c6b2cc	0.00037898717
33	0xbc5650ef	-0.0130808195
34	0x3ad5fe46	0.001632639
35	0xbc040f24	-0.00806025
36	0x3c1ff5c2	0.009763183
37	0xbbdf895d	-0.006821795
38	0xbb8b4c0c	-0.004251009
39	0x3b8165e1	0.0039489125
40	0x3bfbba80	0.0076821446
41	0x3ac7d403	0.001524568
42	0x3b123448	0.0022308994
43	0xbb9570ff	-0.0045605893
44	0x3c056cfa	0.008143658
45	0x3c47d97d	0.012197849
46	0xba934f97	-0.001123893
47	0x3c23b12c	0.009990972
48	0xbba76c68	-0.0051093586
49	0xbaad7587	-0.0013233878
50	0x3b591703	0.0033125288
51	0xbb231588	-0.002488466
52	0x3c6a9db4	0.014319826
53	0x3bb8ffb0	0.0056457147
54	0xbb255078	-0.0025224965
55	0x3b4e4042	0.0031471406
56	0xba95a263	-0.0011416193
57	0xbafaa203	-0.001912177
58	0x3b694c8e	0.0035598609
59	0x3b4adfa7	0.003095606
60	0x391802f5	0.00014496951
61	0xbb8a413f	-0.0042192037
62	0xbb2bd98d	-0.00262222
63	0x3ad2181c	0.0016028914
64	0xbabe4a46	-0.0014517985
65	0x3b09bb7b	0.0021016288
66	0x3a946bdf	0.0011323652
67	0xbb173b99	-0.0023076294
68	0x3b887aaf	0.0041650156
69	0x3a7d9823	0.0009673854
70	0xba9fb955	-0.001218597
71	0x3b91c8fd	0.0044490085
72	0xbb21397c	-0.0024600914
73	0xb93a8aad	-0.00017790003
74	0xbb5c681e	-0.0033631395
75	0xba2cc627	-0.00065908063
76	0x3a3f7079	0.00073028315
77	0xba5f831d	-0.00085263123
78	0xba22824a	-0.0006199224
79	0x3ab5dcdd	0.0013875026
80	0xbaa677a0	-0.0012700446
81	0xbb7cdcba	-0.0038583712
82	0x3c094985	0.008379345
83	0xbbddd915	-0.006770263
84	0xbc06be7c	-0.008224126
85	0xbb831f70	-0.0040015504
86	0x3a99953b	0.0011717448
87	0x3bfdcdf7	0.0077455
88	0xbb45831d	-0.0030137964
89	0x3b3255a7	0.0027211697
90	0xbb7e0fd6	-0.0038766763
91	0x3c008708	0.007844694
92	0x3a431c88	0.0007442911
93	0x3ad15852	0.0015971756
94	0xbacfaf92	-0.0015845171
95	0xba9b9c50	-0.0011872146
96	0x3c78f5ab	0.015195291
97	0x3bcdae24	0.0062768627
98	0x3b285344	0.0025684396
99	0xbb066b0c	-0.0020510582

hid.2.weight f4 [100, 100]
0	0x3d163ea3	0.03668083
1	0xbe1284d6	-0.14308485
2	0x3bf5ff96	0.007507275
3	0x3d488d2b	0.048962753
4	0xbd1a0ab9	-0.037607882
5	0xbd20bd24	-0.03924288
6	0xbdd6ff19	-0.10497875
7	0x3e06d2e4	0.13166386
8	0xbe261366	-0.16218337
9	0x3c025590	0.00795497
10	0xbdfd0ec7	-0.12356334
11	0xbdadb07d	-0.08480928
12	0xbe291a96	-0.16514048
13	0x3d356ca1	0.04429305
14	0x3dd829cc	0.10554847
15	0xbe0e96f6	-0.13924775
16	0xbda0e108	-0.07855421
17	0x3e38a63a	0.1803216
18	0x3e143187	0.14472018
19	0x3d513c7e	0.05108308
20	0x3e37eb8f	0.17960952
21	0x3d7d4145	0.061829824
22	0x3c7be676	0.01537477
23	0xbc1c7e4d	-0.009551597
24	0xbe1ca33a	-0.15296641
25	0x3dc9918e	0.098422155
26	0x3d8a4a80	0.06752491
27	0x3c9a6e94	0.018851556
28	0xbe2f3bca	-0.17112651
29	0xbd8e675b	-0.06953307
30	0xbc621bec	-0.013800602
31	0x3c6702f1	0.014099822
32	0x3de26930	0.11055219
33	0x3e4c2b30	0.1993835
34	0x3e48eb08	0.19620907
35	0x3d9613e9	0.07328016
36	0xbb17791c	-0.0023112958
37	0xbd1adcd7	-0.037808266
38	0x3deb03da	0.11475344
39	0x3b4f4b4d	0.0031630576
40	0x3e5ad709	0.21371092
41	0xbd8af9eb	-0.06785949
42	0xbd97c7ba	-0.07411142
43	0x3e19e167	0.1502739
44	0x3d828c02	0.063743606
45	0x3e7fec8a	0.24992576
46	0x3d5fdd86	0.05465462
47	0xbdf32494	-0.11872211
48	0xbd2d2b90	-0.042277873
49	0x3e3d91de	0.18512675
50	0xbc70cdf2	-0.014697539
51	0xbe427c91	-0.18992831
52	0x3d75c941	0.060006384
53	0x3dc47805	0.095932044
54	0xbb96a0db	-0.004596812
55	0x3d273bb6	0.04082843
56	0x3e4a0e36	0.19731984
57	0xbbe77c3a	-0.0070643695
58	0x3da7529a	0.08170052
59	0xbd1704d0	-0.036869824
60	0xbdac30f8	-0.084077775
61	0x3d202502	0.039097793
62	0xbe0a0559	-0.13478602
63	0xbb66a030	-0.0035190694
64	0x3e0f38b9	0.13986482
65	0xbd4877e9	-0.04894248
66	0x3d296199	0.041352842
67	0xbe0a099f	-0.13480233
68	0xbe100e06	-0.1406785
69	0x3d51f3ca	0.051257886
70	0x3be17e4a	0.00688151
71	0x3d5d2150	0.053986847
72	0x3ddc9127	0.10769873
73	0x3e29d6a8	0.16585791
74	0xbbfe0c93	-0.007752964
75	0x3d690894	0.056892946
76	0xbc8dac19	-0.017293977
77	0x3a93b79d	0.0011269931
78	0xbeb7b823	-0.35882673
79	0x3cc8f0c1	0.024528863
80	0xbcecc3c7	-0.028901948
81	0x3d02a10e	0.031891875
82	0xbc9dcfe4	-0.019264169
83	0xbd37f232	-0.04490871
84	0xbddd4467	-0.10804062
85	0xbd2b30e4	-0.041794673
86	0xbe077ee1	-0.13231994
87	0x3dd1ea93	0.102498196
88	0x3e22672b	0.15859668
89	0x3da36ecf	0.079801194
90	0xbe6bdc49	-0.23033251
91	0xbd9500d1	-0.07275546
92	0xbe3d9592	-0.18514088
93	0x3c95f801	0.018306734
94	0x3cdfb18b	0.027306339
95	0x3d7541da	0.059877254
96	0x3e30d0c4	0.17267138
97	0xbd6b38f0	-0.057427347
98	0xbd907034	-0.07052651
99	0xbdacabef	-0.08431231
100	0xbe929cd2	-0.2863527
101	0x3d832b03	0.06404688
102	0xbb194386	-0.0023386194
103	0xbd796881	-0.06089068
104	0x3df66460	0.12030864
105	0xbe001e7d	-0.1251163
106	0x3b891258	0.004183095
107	0xbd476fea	-0.048690714
108	0xbb92c469	-0.0044789803
109	0xbe713715	-0.23556168
110	0x3e73f3c4	0.23823458
111	0x3d208926	0.039193295
112	0xbd88435d	-0.066534735
113	0x3d17db8a	0.037074603
114	0xbc74df1e	-0.014945773
115	0x3cfe3813	0.031032598
116	0xbe97c5ae	-0.29643005
117	0x3bb0326a	0.0053771036
118	0xbc6b1d9a	-0.014350319
119	0x3e22f7fa	0.15914908
120	0x3e0ea2df	0.13929318
121	0x3e44dbd4	0.19224483
122	0x3c927f9e	0.017883118
123	0xbdf12afd	-0.117757775
124	0xbe128ed5	-0.14312299
125	0xbe416926	-0.18887767
126	0xbb2421a4	-0.0025044465
127	0xbdb84b72	-0.08998765
128	0x3e1a552a	0.1507155
129	0x3d9b613c	0.07586905
130	0xbe69bff8	-0.22827137
131	0xbe005b01	-0.12534715
132	0x3abf93a8	0.0014616149
133	0x3dabfd6a	0.08397944
134	0xbd7c36c1	-0.061575655
135	0xbd909696	-0.07059972
136	0xbe1289b2	-0.14310339
137	0x3dbb813b	0.09155508
138	0xbd26f625	-0.040762085
139	0x3e64870a	0.22317138
140	0xbca6e13a	-0.020371068
141	0xbc75e794	-0.015008826
142	0x3dfbf096	0.123017475
143	0x3de658de	0.11247419
144	0x3defb8f5	0.117052
145	0x3d50e359	0.050998066
146	0xbdb0696b	-0.08613857
147	0xbd65fe7f	-0.05615091
148	0xbbc98446	-0.0061498014
149	0x3e550795	0.20803674
150	0xbea3460f	-0.31889388
151	0x3e8d05ae	0.27543396
152	0x3db91056	0.09036319
153	0xbd875973	-0.06608858
154	0x3dba4e6c	0.09096989
155	0xbd0c28b1	-0.034218494
156	0x3e339dd1	0.17540671
157	0xbd3d681e	-0.046241872
158	0x3e18b636	0.14913258
159	0xbe223579	-0.1584071
160	0x3db8efb8	0.09030098
161	0xbe914f2d	-0.2838072
162	0x3cc23e8f	0.02371147
163	0xbd5a5623	-0.053304803
164	0xbc9a19ee	-0.018811192
165	0x3d65f2ec	0.05613987
166	0x3c13b879	0.00901615
167	0xbd04ac25	-0.032390732
168	0xbe558e36	-0.2085503
169	0x3dbaa883	0.09114172
170	0x3c9fe49a	0.019518185
171	0x3c873b56	0.016507786
172	0x3d376dda	0.044782497
173	0xbcb44f04	-0.022010334
174	0xbd51e2a5	-0.051241536
175	0x3de4502a	0.111481026
176	0xbc2b7fc9	-0.010467478
177	0x3da1faea	0.07909186
178	0x3b386d6a	0.0028141388
179	0xbd5f8037	-0.054565635
180	0xbda44ddc	-0.08022663
181	0xbda61923	-0.08110263
182	0xbc09b371	-0.008404599
183	0x3cd6cc7c	0.026220553
184	0x3c72f8a0	0.014829785
185	0xbb4c1d72	-0.003114548
186	0x3df7c8c4	0.1209884
187	0x3dd821bc	0.10553309
188	0xbce65bb2	-0.028119896
189	0x3e36df6e	0.17858669
190	0xbc298f9c	-0.010349181
191	0xbd113f5a	-0.035460807
192	0xbcb72a4f	-0.022359041
193	0x3e27f078	0.16400325
194	0x3d58ac61	0.05289877
195	0x3d51472b	0.05109326
196	0x3dd25c98	0.10271567
197	0x3d9cd321	0.07657457
198	0xbdcac4d4	-0.09900823
199	0xbd9a76a6	-0.07542162
200	0x3dd73a1b	0.105091296
201	0x3d71e007	0.05905154
202	0xbd171dee	-0.036893778
203	0x3e24b37d	0.16084094
204	0xbdd7d905	-0.1053944
205	0xbcc3013f	-0.023804305
206	0xbe6eeeb7	-0.2333325
207	0x3c02c616	0.007981798
208	0xbc954522	-0.018221442
209	0xbe33f3ad	-0.17573424
210	0xbca92d3e	-0.020651456
211	0x3cfe26e9	0.031024413
212	0x3e2d9640	0.16951847
213	0x3d1c2c65	0.038128275
214	0xbdefe542	-0.11713649
215	0x3da1c009	0.07897956
216	0xbd7286e8	-0.059210688
217	0xbcc50c38	-0.024053678
218	0x3d9f9e45	0.077938594
219	0x3e42e032	0.19030836
220	0x3c8dd1d6	0.017311972
221	0x3d8ef82b	0.06980928
222	0xbddb252a	-0.10700448
223	0x3c7f18d6	0.015569886
224	0xbcf43a03	-0.029812818
225	0x3d4c9dfb	0.04995535
226	0xbddb729d	-0.1071522
227	0x3daa06a1	0.083020456
228	0xbd7d4429	-0.06183258
229	0x3d6815ed	0.056661535
230	0xbd9e7f26	-0.077390954
231	0x3d5b357e	0.05351781
232	0xbde0c6e3	-0.10975435
233	0xbe02638d	-0.12733288
234	0x3cb937b0	0.022609562
235	0x3e28cb16	0.16483721
236	0xbd8577ed	-0.06517015
237	0xbdadc3a7	-0.08484583
238	0xbe04a33c	-0.12952894
239	0x3ca449b6	0.02005468
240	0xbdb0cc11	-0.086326726
241	0xbb003ab0	-0.001956623
242	0xbd6a910e	-0.05726724
243	0x3d8e72d1	0.06955493
244	0xbdc3d258	-0.09561604
245	0x3c04af3c	0.00809842
246	0xbdda7ca2	-0.10668303
247	0xbe310b64	-0.17289501
248	0xbdaad6f1	-0.08341778
249	0xbd2513ff	-0.040302273
250	0x3d27a382	0.040927418
251	0xbd22c5a7	-0.039739277
252	0x3ca7deb5	0.020491937
253	0xbabc0fcf	-0.0014347973
254	0x3d33e25a	0.043917038
255	0xbe063da4	-0.13109452

hid.2.bias f4 [100]
0	0x3a705563	0.0009167997
1	0xb94f918c	-0.00019795279
2	0xbc2799fa	-0.010229582
3	0xbb9c21a5	-0.004764753
4	0x3b8dbc84	0.0043254513
5	0xbaf62745	-0.0018780014
6	0x3acea732	0.0015766381
7	0xba964933	-0.0011465907
8	0xbc7135bd	-0.014722285
9	0xbaa92ceb	-0.0012907063
10	0xbbcc4e09	-0.0062348885
11	0xbbad9d3d	-0.0052982853
12	0x3c50bb30	0.0127399415
13	0xbb10d9cb	-0.002210247
14	0x3b7f987d	0.0039000802
15	0x3c4bfbc4	0.012450162
16	0xbb81a9d6	-0.0039570136
17	0x3ad719c8	0.0016410882
18	0xba7a9828	-0.0009559416
19	0xbb722a67	-0.0036951543
20	0xb999f901	-0.00029367956
21	0xbb7e286d	-0.003878142
22	0xbb667b9a	-0.0035168887
23	0xbb573a86	-0.003284128
24	0xbaa035f0	-0.0012223106
25	0x3b9176ca	0.0044392096
26	0x38e8f989	0.000111091016
27	0xbac7d767	-0.001524669
28	0xbbb2bcf0	-0.005454652
29	0x36280e0e	2.5042132e-06
30	0x3c5ea8e2	0.0135900695
31	0xbb4378f9	-0.0029826744
32	0x3c2c9a3c	0.010534819
33	0xbb9d9eea	-0.004810204
34	0x3c476dcf	0.0121721765
35	0xbc06a974	-0.008219112
36	0x3c511731	0.012761877
37	0x3c4bbdd3	0.012435394
38	0xba5e6112	-0.00084830925
39	0xbb235327	-0.0024921389
40	0xbb8da199	-0.0043222425
41	0x3b5a8cc4	0.0033348063
42	0xbba8a830	-0.0051470026
43	0x39d0b5b1	0.00039808222
44	0xbb2c4c13	-0.002629046
45	0xbc8090c8	-0.015694037
46	0xbb42ea81	-0.0029741826
47	0xba1c7e21	-0.00059697224
48	0x3a87e2df	0.0010367295
49	0x3b76f9c1	0.0037685486
50	0x3c0870a7	0.00832764
51	0x3ca183ab	0.019716104
52	0xbb5b862b	-0.0033496718
53	0xbb71ce7c	-0.0036896756
54	0x3a86b62e	0.0010277682
55	0x3bd24b36	0.0064176572
56	0x3bbe7f1e	0.0058134934
57	0x3bc22073	0.0059242784
58	0x3b1b222f	0.0023671498
59	0x3b8de423	0.0043301745
60	0x3a169391	0.0005744035
61	0x3a7d649f	0.0009666178
62	0x3b7ca8e3	0.0038552813
63	0xbc498f1d	-0.012302187
64	0xb9ee0e1c	-0.0004540541
65	0xbb7317b3	-0.0037092983
66	0xbaa86cbb	-0.0012849787
67	0x3b85808c	0.004074162
68	0x3b1aca6d	0.002361919
69	0x3c925d99	0.017866896
70	0x3b9aee83	0.00472814
71	0xbbaee6f6	-0.0053375913
72	0x3ae45250	0.001741955
73	0x3a965976	0.0011470753
74	0x3a622f95	0.0008628306
75	0x3bd52ac6	0.006505343
76	0x3b978628	0.004624147
77	0x3c16692f	0.009180351
78	0xbc295c18	-0.010336898
79	0x3bbe64ac	0.005810341
80	0x3c1e6422	0.009667428
81	0x3b55fa4a	0.0032650405
82	0x3a3f3517	0.0007293983
83	0xbc1d95f0	-0.009618267
84	0xbbc72c5d	-0.0060782866
85	0xbbd0f30f	-0.006376631
86	0x3c4cfcf4	0.012511481
87	0xbb08a158	-0.0020848121
88	0x3c38722d	0.01125769
89	0xbc342fed	-0.0109977545
90	0xbb1b22e3	-0.0023671917
91	0xbbc4bcea	-0.0060039656
92	0x39b6e757	0.00034886107
93	0x3c87e71a	0.01658969
94	0xb9fb8332	-0.000479722
95	0xbbf0a5b6	-0.007343973
96	0xbc334fdd	-0.010944334
97	0x3b9aa0c1	0.0047188704
98	0x3a394847	0.000706796
99	0x3b102ad5	0.0021998186

hid.3.weight f4 [100, 100]
0	0xbd43d42b	-0.04780976
1	0xbc0670bf	-0.008205592
2	0x3dacc832	0.08436622
3	0xbe4b236b	-0.1983773
4	0xbe044f2b	-0.12920825
5	0xbe46e57a	-0.19423476
6	0xbe7613b7	-0.24030958
7	0x3eac83ca	0.33694297
8	0x3e09339d	0.13398595
9	0xbd0a8691	-0.03381974
10	0xbdacbd96	-0.08434598
11	0x3c58d618	0.013234638
12	0xbe06883b	-0.13137905
13	0x3dc5a944	0.096514255
14	0xbdb65106	-0.08902173
15	0x3e3c3ceb	0.18382613
16	0x3c058736	0.008149913
17	0xbe1ea501	-0.15492631
18	0xbdda1a69	-0.106495686
19	0xbd1bd92e	-0.038048916
20	0x3dd31dd0	0.10308421
21	0x3debba60	0.115101576
22	0xbde5e6c5	-0.112256564
23	0xbd5ab591	-0.05339581
24	0x3dd27327	0.1027587
25	0x3d974b4b	0.07387408
26	0xbe2eda9b	-0.17075579
27	0x38fdbe1f	0.00012099393
28	0xbe65b53f	-0.22432421
29	0x3dc916a2	0.0981877
30	0x3d8b7f16	0.06811349
31	0xbdedee45	-0.11617712
32	0xbdeff1fe	-0.11716078
33	0xbbbf73e2	-0.0058426717
34	0xbd039a2d	-0.032129455
35	0xbc8b98c3	-0.017040616
36	0x3c9b39c4	0.018948443
37	0x3dcf96c6	0.101361796
38	0x3e0ae40b	0.13563554
39	0xb961c4b2	-0.00021530947
40	0xbdc85699	-0.09782142
41	0x3df12066	0.11773758
42	0xbd31ce7c	-0.04340981
43	0x3dd0bb4e	0.101919755
44	0xbe0b9134	-0.1362961
45	0x3d943101	0.07235909
46	0x3d5b37e7	0.05352011
47	0x3dfe5ac0	0.12419653
48	0x3e1719b9	0.14755906
49	0xbc754ff3	-0.014972675
50	0x3d1b2e80	0.037886143
51	0xbd9f48d3	-0.07777562
52	0x3c38c65e	0.011277763
53	0xbdf544b8	-0.11975998
54	0x3d683e89	0.056700263
55	0xbdfd102e	-0.12356602
56	0xbd479434	-0.048725322
57	0xbd7ed8ee	-0.0622186
58	0xbe12f5c6	-0.14351568
59	0x3dac385b	0.084091865
60	0x3d3efb59	0.046626423
61	0x3c605479	0.013692015
62	0x3dac87dc	0.084243506
63	0xbdbc4c67	-0.0919426
64	0x3d201e42	0.039091356
65	0xbd7d2b27	-0.06180873
66	0xbd8c3514	-0.06846061
67	0xbe46e1d4	-0.19422084
68	0xbe96188f	-0.29315612
69	0x3e5d6272	0.21619585
70	0x3e391973	0.18076114
71	0xbe299eeb	-0.16564529
72	0x3dda05a8	0.1064561
73	0x3df46914	0.119341046
74	0xbd0ad32a	-0.033892788
75	0xbe183fb7	-0.14868055
76	0xbe14835f	-0.14503239
77	0x3e6e157d	0.23250385
78	0x3d11bede	0.035582416
79	0x3de324a9	0.11090977
80	0xbd0db934	-0.03460045
81	0x3defd750	0.117109895
82	0xbe0c7248	-0.1371547
83	0xbc7177f7	-0.0147380745
84	0xbce0298f	-0.027363567
85	0x3df00441	0.11719561
86	0xbd9a4ac4	-0.07533792
87	0x3dec16f5	0.11527816
88	0xbe052ffa	-0.13006583
89	0xbda184e3	-0.07886674
90	0xbc1cb9c4	-0.009565774
91	0x3ea425a5	0.3205997
92	0xbe37201e	-0.17883345
93	0xbda61079	-0.08108611
94	0xbd72adfa	-0.05924795
95	0xbd42267e	-0.04739999
96	0x3dd93898	0.106064975
97	0x3ceb7357	0.028741522
98	0x3d4eff29	0.05053631
99	0xbd5e6d3b	-0.05430339
100	0xbb05e2ec	-0.0020429445
101	0xbdf28b6f	-0.11843001
102	0xbe3ba5f4	-0.18325025
103	0x3e054aab	0.13016765
104	0xbcb6f69e	-0.022334393
105	0xbdb340cb	-0.08752593
106	0x3e148982	0.1450558
107	0x3ce10b23	0.02747113
108	0xbc986f65	-0.018607805
109	0x3c491912	0.012274044
110	0xbd91d9f0	-0.071216464
111	0xbc88e43d	-0.016710395
112	0xbe33893f	-0.17532824
113	0xbd891166	-0.066927716
114	0xbd1695c0	-0.036763906
115	0xbcab7ff8	-0.020935044
116	0x3c13a960	0.00901255
117	0xbdad8be4	-0.08473948
118	0xbcf0cc6e	-0.029394355
119	0x3e4b9e48	0.19884598
120	0xbdbe352d	-0.09287486
121	0x3d10802b	0.03527848
122	0x3ddc2b39	0.107504316
123	0xbd83e2d4	-0.064397484
124	0xbdb66c0c	-0.08907327
125	0x3c960ea7	0.018317534
126	0xbd09497c	-0.033517346
127	0x3e0f5dea	0.14000669
128	0xbe3d6461	-0.18495323
129	0x3d8efc9c	0.06981775
130	0xbc184786	-0.009294396
131	0x3d838ef1	0.06423748
132	0x3cfdc0f3	0.030975794
133	0x3d1ba957	0.038003292
134	0xbd6ca343	-0.057772886
135	0xbc4ad94b	-0.012380908
136	0x3decd0fb	0.11563297
137	0xbc3efa46	-0.0116563495
138	0xbe400627	-0.18752347
139	0x3dd193c4	0.10233262
140	0x3d4577b7	0.048209872
141	0x3d8049a1	0.062640436
142	0x3cbd4efe	0.023108955
143	0x3dd085ca	0.10181768
144	0x3df5aaed	0.11995492
145	0xbc94f517	-0.018183274
146	0xbc9348c9	-0.017979043
147	0xbdbaae43	-0.09115269
148	0xbe3f1b64	-0.18662792
149	0x3dc40b15	0.09572426
150	0xbd04becf	-0.03240853
151	0xbc26f604	-0.010190491
152	0xbbea85a3	-0.007157044
153	0x3ddca778	0.1077413
154	0x3e734955	0.23758443
155	0xbddb1e1e	-0.10699104
156	0x3e1117e2	0.14169267
157	0x3dbe22fc	0.092840165
158	0xbe5a6189	-0.21326269
159	0x3d996271	0.07489479
160	0xbe1f5a49	-0.15561785
161	0xbd3ab03c	-0.045578226
162	0x3e804164	0.2504989
163	0x3df048a8	0.11732608
164	0xbd814864	-0.063126355
165	0xbdb7c3dc	-0.08972904
166	0x3d85dbeb	0.06536087
167	0x3d3e5327	0.04646602
168	0xbcb08e68	-0.02155228
169	0xbe4831aa	-0.19550195
170	0x3da9591c	0.082689494
171	0x3e51dbd0	0.20494008
172	0xbce0ba24	-0.027432509
173	0xbc861e9d	-0.01637202
174	0xbb823a67	-0.0039742473
175	0x3d5d64e6	0.054051302
176	0xbdeabd07	-0.11461835
177	0x3e0451e7	0.12921868
178	0xbd9de2cb	-0.07709273
179	0xbe032464	-0.1280685
180	0x3d904a10	0.07045376
181	0xbb15b15f	-0.0022841317
182	0x3db91424	0.09037045
183	0xbe0b3bad	-0.13596983
184	0xbd92cc26	-0.071678445
185	0xbd0d2263	-0.03445662
186	0xbe2312f2	-0.15925196
187	0xbe060d19	-0.13090934
188	0x3e7f199b	0.24912111
189	0x3c458bed	0.012057287
190	0x3dae2c27	0.08504515
191	0x3e577cfc	0.21043772
192	0x3e39c39c	0.18141025
193	0x3d188e0a	0.037244834
194	0xbc697322	-0.014248641
195	0xbe4f014a	-0.20215335
196	0xbdbe9a28	-0.09306747
197	0xbe2a990c	-0.16659945
198	0x3d0853cc	0.03328304
199	0xbe7fbb3e	-0.24973771
200	0xbd338f57	-0.04383787
201	0x3ccc5146	0.024941098
202	0xbdc8ec29	-0.09810669
203	0x3dddb2fb	0.108251534
204	0xbd8f3bdb	-0.069938384
205	0xbddaebae	-0.106894836
206	0x3df9abaf	0.12190949
207	0x3e8d1202	0.275528
208	0x3d292674	0.041296437
209	0x3cdaf64c	0.026728772
210	0x3e2dfd3f	0.16991137
211	0xbc53fb68	-0.012938358
212	0xbd70a327	-0.058749344
213	0x3d7306cc	0.059332654
214	0x3bad3ab6	0.00528654
215	0xbcea0908	-0.02856876
216	0xbd5fe880	-0.05466509
217	0x3de35170	0.11099517
218	0x3e07f02f	0.13275217
219	0x3d880b0f	0.06642734
220	0xbd8e56e6	-0.06950168
221	0x3c71b078	0.014751546
222	0x3d786f71	0.060653154
223	0x3e3fa8f3	0.18716793
224	0x3e89a974	0.26887095
225	0x3d3bc80e	0.045845084
226	0xbddf9dc1	-0.10918761
227	0x3eea733f	0.4579105
228	0x3d27e554	0.04099019
229	0x3b4a8c11	0.003090624
230	0x3e25680f	0.16152976
231	0xbd4113da	-0.047138073
232	0x3d23ce8c	0.0399919
233	0x3d53ecbf	0.05173945
234	0x3ded33d5	0.11582152
235	0x3e03b2e2	0.12861207
236	0xbe3fba77	-0.18723474
237	0xbe56475e	-0.20925662
238	0x3e2c84a1	0.16847469
239	0xbe5548e0	-0.20828581
240	0xbe66b0db	-0.22528403
241	0xbdbc9564	-0.092081815
242	0x3e0bd4db	0.13655417
243	0xbd0fb25b	-0.035082202
244	0x3d96826f	0.07349097
245	0xbd48c707	-0.049017932
246	0x3d25c77b	0.040473443
247	0x3d557641	0.05211473
248	0xbe372674	-0.17885762
249	0x3e0a9769	0.13534321
250	0xbe21dfbc	-0.15808004
251	0xbd8513d5	-0.06497923
252	0xbe0dd582	-0.13850978
253	0xbe06480c	-0.13113421
254	0xbd30571d	-0.043051828
255	0x3db2e3dd	0.08734868

hid.3.bias f4 [100]
0	0xbb8032cc	-0.0039123055
1	0xbb0a7523	-0.0021126948
2	0xbc366e10	-0.011134639
3	0x3b442d9a	0.0029934407
4	0xbbde987c	-0.00679308
5	0x3b817746	0.003950986
6	0x3bf05417	0.007334243
7	0x3bf4162c	0.007448932
8	0xba30ae94	-0.00067398814
9	0xbb01e84a	-0.0019822293
10	0xba9427fc	-0.001130342
11	0x3b953e76	0.004554565
12	0xbc4f2cbe	-0.012644945
13	0xbc062706	-0.008188015
14	0x3c0c9ae3	0.00858185
15	0xbacc3e93	-0.0015582613
16	0xbacd3e96	-0.0015658911
17	0xbaaa4405	-0.0012990242
18	0x391c0701	0.00014879928
19	0x3c10b100	0.008831263
20	0x39bf91fe	0.00036539132
21	0xbc3e5685	-0.011617308
22	0x3baa7bf7	0.005202766
23	0x3a234c5c	0.0006229335
24	0xbc3fff17	-0.011718533
25	0xbbdb18dc	-0.006686313
26	0x3c26b6e7	0.010175443
27	0x3b093b83	0.0020940013
28	0xb66eccd1	-3.5583982e-06
29	0xb784258e	-1.5753114e-05
30	0xb77324e7	-1.4492521e-05
31	0xbc6d1833	-0.014471102
32	0xba6a3387	-0.000893407
33	0xbc08fe40	-0.008361399
34	0xbc728913	-0.014803189
35	0x3a8286f1	0.0009958429
36	0x3a18cf7b	0.0005829257
37	0x3cca3f5a	0.024688412
38	0x3a72e533	0.0009265721
39	0x3bc5b478	0.0060334764
40	0x3c266768	0.01015649
41	0xba9eb07b	-0.0012107039
42	0xbc8c7cc2	-0.017149333
43	0x3bd563e7	0.0065121534
44	0x3c7290ce	0.014805032
45	0x3bf147d9	0.0073633012
46	0xb787dad8	-1.6195161e-05
47	0x3b6103f4	0.0034334632
48	0xba310889	-0.0006753286
49	0x3b063655	0.0020479162
50	0x3a7f5dd8	0.0009741462
51	0x3c473e55	0.012160857
52	0xbbcb40df	-0.0062028016
53	0xbb4d851e	-0.0031359862
54	0xba12cd80	-0.000560008
55	0xbbce6d71	-0.0062996675
56	0x3ae0a207	0.0017138132
57	0xbc247846	-0.010038441
58	0x3c074e48	0.00825841
59	0xbbe109fa	-0.0068676444
60	0x3c461bef	0.012091621
61	0x3b653969	0.0034976846
62	0x3b890267	0.0041811946
63	0xbb60cf40	-0.0034303218
64	0xbb966097	-0.004589151
65	0xbc0b24f1	-0.008492694
66	0xbb92818c	-0.0044710096
67	0x3c313d4b	0.010817836
68	0xbb995abd	-0.0046800063
69	0xba47379f	-0.0007599536
70	0x3b88b639	0.0041721133
71	0x3c52366d	0.012830359
72	0x3c2aa3f3	0.010415065
73	0xbc14f53b	-0.009091671
74	0xbc90d73b	-0.017680755
75	0x3bc05275	0.0058692046
76	0xbadb9907	-0.001675398
77	0xbb95e05c	-0.004573865
78	0x3c0a24be	0.008431612
79	0xba5020f7	-0.00079394825
80	0x3c805a56	0.015668076
81	0xbb510ccd	-0.00318985
82	0x3bc77894	0.006087372
83	0xbbc5b5bc	-0.0060336273
84	0x3ba61f97	0.005069684
85	0x38b572a8	8.652109e-05
86	0xbc7942a9	-0.015213647
87	0xbafb8aa3	-0.0019191097
88	0x3b47f440	0.0030510575
89	0xbac0b615	-0.0014702702
90	0x3c801cfd	0.015638823
91	0x3bef019b	0.0072938926
92	0xbb2f22af	-0.0026723554
93	0x3b6c4832	0.0036053774
94	0x3b86fbfd	0.004119395
95	0xbc28ecf0	-0.010310397
96	0x3b836c24	0.004010694
97	0xbb8a2199	-0.004215431
98	0x3b37fa7c	0.0028072884
99	0xbb928de9	-0.0044724834

hid.4.weight f4 [100, 100]
0	0x3d2a0a85	0.04151394
1	0xbd434064	-0.04766883
2	0x3bc5faf0	0.006041877
3	0x3dac21c6	0.08404879
4	0x3d3c3208	0.04594615
5	0x3dab6f9e	0.08370899
6	0xbda03d2d	-0.07824168
7	0x3d64e0ca	0.055878438
8	0xbe1b8f07	-0.1519128
9	0x3c92692b	0.017872414
10	0xbd1ac45f	-0.03778493
11	0x3d1dd5fe	0.038534157
12	0xbd89d820	-0.06730676
13	0xbe244597	-0.16042171
14	0x3dc36469	0.09540636
15	0x3ca68499	0.0203269
16	0x3d79577d	0.06087445
17	0xbdccfd84	-0.10009292
18	0xbbe11ec5	-0.006870123
19	0x3d28881e	0.041145436
20	0xbdc52d21	-0.09627748
21	0x3d49d814	0.049278334
22	0xbdd55ae0	-0.10417724
23	0xbd13c73c	-0.036078677
24	0x3e240e59	0.16021098
25	0x3d40940b	0.047016185
26	0x3e27e9a3	0.16397719
27	0x3da122b6	0.07867949
28	0xbe21f9c4	-0.15817934
29	0x3e5de54e	0.21669504
30	0xbe5c3b86	-0.21507081
31	0xbd02d421	-0.031940583
32	0x3e710803	0.23538212
33	0x3e6630b3	0.22479515
34	0x3d1b86cc	0.03797035
35	0xbe1ca2b7	-0.15296446
36	0x3dd7cee9	0.10537512
37	0xbdf056e4	-0.11735323
38	0x3d5f2b19	0.05448446
39	0x3cbbb836	0.022914987
40	0x3d9f812e	0.07788311
41	0xbe112c8d	-0.14177151
42	0x3e0a158c	0.13484782
43	0xbcf9a8de	-0.03047603
44	0x3da7ebaa	0.08199246
45	0xbda13877	-0.07872098
46	0xbe1cffd1	-0.15331961
47	0xbd812ecf	-0.06307756
48	0xbe33b26f	-0.17548536
49	0xbdcb99de	-0.09941457
50	0xbe28a011	-0.1646731
51	0xbdcc5f8f	-0.09979164
52	0x3e3b37a8	0.1828295
53	0xbcdd7fbd	-0.02703845
54	0x3da32a32	0.079670325
55	0xbde76be9	-0.11299879
56	0xbd5ee8f8	-0.054421395
57	0x3c7e049f	0.015504031
58	0xbdd75d64	-0.1051586
59	0xbc16f929	-0.009214678
60	0x3dbc42fc	0.09192464
61	0x3cfdef64	0.03099794
62	0x3d77ae59	0.060469005
63	0x3d4bb8b8	0.04973671
64	0xbd02cdc5	-0.03193452
65	0x3dd18e7d	0.102322556
66	0xbd02704d	-0.03184538
67	0x3d9567f6	0.072952196
68	0xbe060ced	-0.13090868
69	0x3e8014a4	0.25015748
70	0xba001fe6	-0.0004887566
71	0xbd49b33d	-0.0492432
72	0x3cd9e599	0.026598739
73	0x3dca2ab7	0.098714285
74	0xbd83a171	-0.06427277
75	0xbcfa3edb	-0.03054755
76	0xbe96cea7	-0.29454538
77	0xbd145f04	-0.036223426
78	0xbd82c1fe	-0.06384657
79	0x3c286c3c	0.010279711
80	0x3dd6c758	0.104872406
81	0xbd7956bd	-0.060873736
82	0xbea14d4a	-0.3150428
83	0xbca866a6	-0.02055676
84	0x3dd300d2	0.10302891
85	0x3e119091	0.14215304
86	0xbd995cdb	-0.07488414
87	0x3b9dd5be	0.00481674
88	0x3d266183	0.04062034
89	0xbdb0df78	-0.08636373
90	0xbcceaf9e	-0.025230225
91	0xba8d8919	-0.0010798305
92	0x3de67635	0.11253015
93	0x3d9425ca	0.0723377
94	0x3df3860f	0.11890804
95	0x3e91d670	0.28483915
96	0x3e32f1c3	0.17475037
97	0xbd8065b4	-0.06269398
98	0x3da9a7ed	0.082839824
99	0xbd61346d	-0.054981638
100	0xbe04b4fd	-0.12959667
101	0xbd888d95	-0.0666763
102	0xbb9bc166	-0.0047532795
103	0xbe54b70b	-0.2077295
104	0xbc86e3ae	-0.016465988
105	0x3d5e0b95	0.054210264
106	0xbd74330a	-0.059618987
107	0xbd885c2b	-0.06658205
108	0x3c7d5e01	0.015464307
109	0x3d032177	0.032014336
110	0xbd9899af	-0.07451188
111	0x3d6aee9d	0.057356466
112	0xbe5197d4	-0.20468074
113	0xbcd030a1	-0.025413813
114	0x3d192a9c	0.03739415
115	0xbdd19b5a	-0.10234709
116	0x3c07306e	0.008251293
117	0xbd596ecd	-0.053084183
118	0xbe6e6bc8	-0.23283303
119	0x3db7f581	0.08982373
120	0x3d037768	0.032096297
121	0xbd96bbe3	-0.07360055
122	0xbe1f8ce5	-0.15581091
123	0x3d367ae9	0.04455081
124	0xbde9d66e	-0.11417852
125	0xbdc44d77	-0.09585088
126	0xbe6905cd	-0.22756119
127	0x3d8fad0a	0.070154265
128	0x3b6e33de	0.0036346833
129	0x3baf1a14	0.005343685
130	0x3d2910e6	0.04127588
131	0xbe31e7c5	-0.1737357
132	0x3e0645eb	0.13112609
133	0x3b4c2553	0.0031150177
134	0x3c830aef	0.015996424
135	0x3da22201	0.07916642
136	0xbe26e0a5	-0.16296633
137	0x3e5eb4c3	0.21748643
138	0x3e0579f7	0.13034807
139	0xbd0645d9	-0.032781456
140	0xbd5bc9b0	-0.05365914
141	0x3daccfb1	0.084380515
142	0xbda34371	-0.07971848
143	0x3c4be4b5	0.012444665
144	0xbe60d2c9	-0.21955408
145	0x3d2a6d00	0.041607857
146	0x3c0b2754	0.008493263
147	0x3d8db996	0.06920163
148	0x3cd1b5d4	0.025599398
149	0x3d89be2a	0.06725724
150	0x3c20b5f8	0.00980901
151	0x3cfa3d11	0.030546697
152	0xbe160a9a	-0.14652482
153	0x3d29a655	0.041418392
154	0x3c8c9927	0.017162872
155	0xbdda6f70	-0.10665786
156	0x3e117078	0.1420306
157	0x3e049b6f	0.12949918
158	0xbd82b0be	-0.06381367
159	0xbe0c3be9	-0.13694729
160	0xbe6c1104	-0.23053366
161	0x3e595a05	0.21225746
162	0xbe3d110a	-0.18463531
163	0x3d15312c	0.036423847
164	0xbdf52f04	-0.11971858
165	0x3ce05083	0.027382141
166	0x3e99e8a6	0.3006031
167	0xbba68005	-0.005081179
168	0x3d9b224d	0.07574902
169	0x3d05f84d	0.0327075
170	0xbc82dc29	-0.015974121
171	0xbd85ec53	-0.06539216
172	0x3dc6f022	0.097137704
173	0xbdb834fe	-0.089944825
174	0x3de72250	0.112858415
175	0x3e487c45	0.19578655
176	0x3da2f2b9	0.07956452
177	0xbb69ed6f	-0.00356945
178	0x3dc56b02	0.09639551
179	0x3dac5946	0.08415465
180	0xbd22785a	-0.039665557
181	0xbd20fc50	-0.039303124
182	0x3d5c1d90	0.05373913
183	0xbd11a7e1	-0.035560492
184	0xbe0ae210	-0.13562799
185	0x3d0e5d16	0.034756742
186	0xbe04bf97	-0.1296371
187	0xbd6f589a	-0.058434106
188	0xbdb01cf8	-0.08599275
189	0xbe4e68df	-0.20157193
190	0xbda529df	-0.08064627
191	0xbdb52d1e	-0.08846496
192	0x3d918421	0.0710528
193	0x3c6b5118	0.014362596
194	0x3e90665b	0.2820309
195	0x3de90629	0.11378128
196	0x3d886297	0.066594295
197	0x3c826926	0.01591928
198	0xbd9b9ea8	-0.07598621
199	0x3e659f2f	0.22424005
200	0x3e784b44	0.24247462
201	0x3d9ce33a	0.076605275
202	0x3cbeb3d4	0.023279108
203	0xbd9a71e2	-0.07541253
204	0x3e162d2b	0.14665668
205	0xbd22ca5e	-0.039743774
206	0x3ccc396c	0.024929725
207	0xbdf2052c	-0.11817393
208	0xbd178032	-0.03698749
209	0x3c9f5ca3	0.019453352
210	0x3da70a0e	0.08156215
211	0x3deb3734	0.114851385
212	0xbdb1658d	-0.086619474
213	0x3bc1f5f1	0.005919211
214	0xbc6eed2a	-0.0145829115
215	0xbc8e2861	-0.017353239
216	0xbc250183	-0.010071161
217	0x3d80f967	0.0629757
218	0xbd335078	-0.043777913
219	0x3caadf9a	0.020858575
220	0xbde24eef	-0.11050212
221	0x3d97d52d	0.07413707
222	0x3ba2f5c7	0.0049731466
223	0xbcee2d95	-0.02907447
224	0xbdde8d8e	-0.10866843
225	0x3d9887bc	0.07447764
226	0xbd07dcf2	-0.033169694
227	0x3c04ccad	0.008105439
228	0xbdb5397e	-0.088488564
229	0xbd4074cc	-0.046986386
230	0xbe7aafc7	-0.24481116
231	0x3e050753	0.12991075
232	0x3cb69d1a	0.022291709
233	0x3b09689e	0.0020966898
234	0xbe0f5c7b	-0.14000122
235	0x3e451000	0.19244385
236	0xbd570c1e	-0.05250179
237	0x3bd26dcb	0.0064217797
238	0xbd7acaa9	-0.061228428
239	0xbe6246ba	-0.22097293
240	0xbc7993e4	-0.015233014
241	0xbe9bf176	-0.30457658
242	0x3d93f5cb	0.07224616
243	0xbdab69ce	-0.0836979
244	0xbd1e68da	-0.038674213
245	0xbe4b4a58	-0.19852579
246	0xbe3321d1	-0.17493369
247	0xbd014228	-0.031557232
248	0x3af903df	0.0018998346
249	0xbd8ce8e1	-0.068803556
250	0xbd15310d	-0.03642373
251	0x3e3b5479	0.18293943
252	0x3acce336	0.0015631679
253	0x3e197267	0.14985047
254	0x3d0586ac	0.032599136
255	0x3d82cb28	0.06386405

hid.4.bias f4 [100]
0	0xbc0f4f78	-0.008746974
1	0x3bb3c8b3	0.0054865717
2	0xbb8a9f87	-0.004230443
3	0xbb3e91fa	-0.0029078708
4	0xbcc5d9af	-0.024151651
5	0xbcca5fbb	-0.024703851
6	0xb984df5b	-0.00025343415
7	0xba1dcb35	-0.0006019355
8	0x3c9c240a	0.019060154
9	0x3af2f8b1	0.001853725
10	0xbbbb52ab	-0.005716642
11	0xbca5dd16	-0.020247024
12	0x3c1adaca	0.009451577
13	0xbaf82f08	-0.0018934915
14	0x3abaaeea	0.0014242802
15	0x3c1bdc2b	0.009512941
16	0xb985d7f2	-0.0002552863
17	0xbb8cd707	-0.004298094
18	0x3ca3197f	0.019909618
19	0xbc2191c0	-0.00986141
20	0xbabb8d53	-0.0014309086
21	0xbb60f971	-0.0034328366
22	0xbcb5300e	-0.02211764
23	0xbb24ea68	-0.002516413
24	0x3a5197ba	0.00079953263
25	0x3abc6060	0.0014371984
26	0x3b7251ce	0.003697503
27	0xbb7dcd23	-0.0038727007
28	0x3c422791	0.011850254
29	0x390d2bb7	0.00013463093
30	0x3a1db5eb	0.00060161826
31	0xbc328e45	-0.0108981775
32	0xbb29bed0	-0.0025901087
33	0xbc1b4c9a	-0.009478712
34	0x3bd8054d	0.006592429
35	0x3b88aa26	0.004170674
36	0x3b7a2619	0.003816968
37	0xba842d6b	-0.0010084336
38	0xbb9a9aa9	-0.004718144
39	0x3bb7ea91	0.0056126793
40	0xbb234179	-0.002491085
41	0x3b0d741f	0.0021584106
42	0x3bc54cca	0.006021117
43	0xbc654bd9	-0.013995134
44	0x3bb34fb6	0.005472149
45	0x3c1857fc	0.009298321
46	0x3c62dce7	0.013846613
47	0xbabdc1b7	-0.0014477287
48	0x3bd966ce	0.0066345697
49	0xbb20aa91	-0.0024515728
50	0xbb533cea	-0.0032232353
51	0x3b818f0d	0.0039538206
52	0xbb775434	-0.0037739398
53	0xbb9e6e75	-0.004834945
54	0x3c1122f9	0.008858436
55	0xbb68c3c9	-0.0035517088
56	0x3c3a46ad	0.0113693895
57	0xbc17a05c	-0.009254541
58	0x3c7a6f5f	0.015285342
59	0x3c3290ef	0.010898813
60	0x3ab251da	0.0013604716
61	0xba3c5b8a	-0.0007185271
62	0x3a327191	0.0006807084
63	0xbbc0223a	-0.005863455
64	0xbb2dc6c4	-0.0026516179
65	0x3bbb1bb8	0.0057100914
66	0x3b179700	0.0023130774
67	0x3b9ce86b	0.0047884486
68	0x3c9ea566	0.019365977
69	0x3c76cb40	0.015063107
70	0xbbd2ec60	-0.0064368695
71	0x3c2d0b3e	0.010561762
72	0xbad69bf0	-0.0016373377
73	0x3b4559cb	0.0030113335
74	0xbcd25b5b	-0.025678327
75	0xbb3c0b2f	-0.002869319
76	0xbb1c432f	-0.0023843755
77	0xbb5898a9	-0.0033049977
78	0xbc3806cc	-0.011232089
79	0xbb910873	-0.004426056
80	0x3a4b4759	0.0007754467
81	0x3b12da98	0.0022408124
82	0x3b94cb5a	0.004540843
83	0xbbfb05a0	-0.0076605827
84	0x3cab31f8	0.02089785
85	0x3c2e4238	0.010635905
86	0x3a8aa91c	0.0010578963
87	0x3b2b28ee	0.0026116925
88	0x3a61ab0c	0.0008608557
89	0x3bc8dd65	0.006129908
90	0xbae33b90	-0.0017336477
91	0xbb7cc015	-0.0038566638
92	0xbb88ac92	-0.0041709626
93	0xbb3ec79d	-0.0029110678
94	0xbb95d476	-0.0045724465
95	0xbc0335b4	-0.008008409
96	0x3ba23b82	0.0049509415
97	0xbc5ff806	-0.013669973
98	0x3be74d95	0.007058809
99	0xbab8f9fc	-0.0014112587
