rk_ckpts_v4/model_N50_L8_g0p8_lr0p025_seed0.pt (torch, 79149 bytes, 17 tensors)

hid.0.weight f4 [50, 2]
00000000: 8c61 893e 1369 77bf 8dab fc3e 7946 31bf
00000010: 1a16 143f a21c b8be db46 d23e a98d b6bd
00000020: 9b34 2fbf 5196 163f 0657 5d3b 6ee4 83bc
00000030: b68b 063e 5a87 b9bd 8f12 aebe e597 58bf
00000040: 0e56 d23e 101c 85be 8255 a3be 9205 6a3f
00000050: f216 bf3d b60a 24be a07c c5be 1b7a 8dbe
00000060: 2b18 1ebe f959 21bf 6898 91bf 864b b93e
00000070: aca7 e8bd 79a1 0cbf 1423 e43e 94ce 603f
00000080: c23a 46bf cb63 4e3e 96d8 adbe 4933 36bf
00000090: d0e8 afbe d761 24be 1b47 b43e fcaa 48be
000000a0: 5f96 ba3e 6396 8bbe 8102 34bf c624 893f
000000b0: e184 293e a24f f93e 121b b03e 2f2a 723e
000000c0: 5192 37bf 046b 843e ac7d ac3e 3718 103f
000000d0: 2ffd 47bf cf6c 27be ced7 5bbe 9c8b b23f
000000e0: 32e6 d2bd 08b1 a53e 9daf 0abe 3e32 2fbf
000000f0: 88e2 693e df9f fb3e fcd8 783f 20d3 1dbf
00000100: 9bd2 81bf 3829 87be 2374 c2bd 996c 22be
00000110: 9067 38bc 210f 69be 1f75 ce3e 1f10 2f3f
00000120: 51d8 4d3f 2b5f d53e e623 383f 6bd1 473f
00000130: 72fb 523f 9671 1dbf 2f2b 043e 941e 273e
00000140: 53fb 72bf 8d79 543f a304 4c3f 5db8 4d3e
00000150: 72c5 afbd 4ae7 7abf e5a1 603e 9294 e63d
00000160: e918 63bf 3c3b 40bf a3da 75bf c34c 693e
00000170: 99e4 0b3e 5f6e 37bd 7bcc b93c a1a3 4b3e
00000180: dd60 bfbd cb09 873f eb1b da3e 4c65 5ebf
0.26832235 -0.96644706 0.49349633 -0.6924816 0.57846224 -0.35959345 0.41069683 -0.08913738
-0.68439645 0.58823115 0.0033773794 -0.016100135 0.13139233 -0.090590194 -0.33998534 -0.8460677
0.4108128 -0.25997972 -0.31901175 0.9141475 0.09330548 -0.16019711 -0.38571644 -0.27632222
-0.15438907 -0.6302791 -1.1374636 0.36190432 -0.11360106 -0.5493389 0.44558012 0.87815213
-0.7743341 0.20155255 -0.33954304 -0.71172005 -0.3435731 -0.16052948 0.352105 -0.19596475
0.3644285 -0.27263173 -0.7031632 1.0714347 0.16554596 0.48693568 0.34395653 0.23648904
-0.71707636 0.25862896 0.3368963 0.5628695 -0.781207 -0.16350101 -0.21469042 1.3948855
-0.102978125 0.32361627 -0.13543554 -0.6843604 0.22840321 0.4914541 0.9720609 -0.61650276
-1.0142397 -0.26398635 -0.094948076 -0.15861739 -0.01125516 -0.22759677 0.4032373 0.68383974
0.804082 0.4167417 0.71929777 0.7805392 0.82414925 -0.61501443 0.12907098 0.16320258
-0.9491474 0.8299797 0.79694575 0.2008986 -0.085825816 -0.9800917 0.21936758 0.11258806
-0.88709885 -0.75090384 -0.9603674 0.22783189 0.13661422 -0.044782992 0.022680512 0.19886638
-0.09344647 1.0549864 0.42599425 -0.86873317

hid.0.bias f4 [50]
00000000: dbcb c73d e0cd a63e 0e2c 883e 5a69 073e
00000010: aed1 43be c2d0 55be 4387 04be 277a 963e
00000020: 4956 373e 55e4 cb3e a57a 95bc a734 f7bc
00000030: af6a e33d 32d9 1b3f 288a 483d b6a7 17bb
00000040: e0a4 863d b702 823d 2c82 37bd 22be 383e
00000050: fd52 16bd 18bb b33c 6d9f de3d 1d31 d8bc
00000060: 4964 bfbd a221 403d 07d4 28be cbcc c9be
00000070: b045 1abe 6340 34be 6289 2d3c ad52 c1be
00000080: 5d85 dfbe 4c27 2bbb 8a04 013d 52d7 db3c
00000090: 0d4b 20be 7017 1abe 77ce 2d3e 29ea bebc
000000a0: ac16 223e 057a f8bd c90c 923e 2667 a83d
000000b0: 6d9e b4be db7a ac3e b39b 3f3e c293 2cbc
000000c0: b0a0 d13e 3348 603e
0.09755679 0.32578945 0.2659611 0.13223782 -0.19122955 -0.20880416 -0.12942223 0.2939007
0.17904009 0.3982264 -0.018246958 -0.030176474 0.11104333 0.6087829 0.04895988 -0.0023140735
0.06574416 0.06348174 -0.044801876 0.1804128 -0.036700238 0.0219398 0.10870252 -0.026390607
-0.093453 0.046907075 -0.16487132 -0.39414057 -0.15065646 -0.17602687 0.010591837 -0.3775839
-0.43656436 -0.0026115952 0.03149847 0.026836071 -0.1565363 -0.15048003 0.16973291 -0.023305016
0.15828961 -0.121326484 0.2852538 0.08222799 -0.3527712 0.3368748 0.18711738 -0.010533275
0.40942907 0.21902542

hid.1.weight f4 [50, 50]
00000000: f668 c5bd 8268 27bd 62de 60bd eb79 3d3e
00000010: 5f56 86bc a577 29be 0c8c 4c3d da80 27be
00000020: b176 84bc e3c2 c3bd c528 2e3d 3336 a03d
00000030: 56c0 32be 44cb 92be c47d 3bbd 22ef 963a
00000040: 11f4 f5bd 5839 5d3e 9fcd 87bc edd6 55be
00000050: fb7b d03c b807 0b3e 619e 53be 5ba8 f1bd
00000060: a6b5 3ebd 5f52 fa3d 3369 b33d 9eb6 ccbd
00000070: 7ea7 47bd 40b7 93be a844 4e3e f833 503e
00000080: e7d9 6e3b 8d54 103d 66aa 1a3e 3cc5 22bd
00000090: a597 153d 4093 ba3d add3 28bd e24b 20bd
000000a0: 7f17 0c3d 2943 813d 3b93 083e 94db a03d
000000b0: 6657 babd 9abe 283e 7a90 bc3d d9b1 02be
000000c0: 8334 2bbc 9ab6 94bd ac20 68bd 7ffe 813d
000000d0: 70ee 74bd f433 643d 6bee 813d 1914 5dbd
000000e0: 105f 19be ded7 dd3d 36ea 813d da8a 0c3e
000000f0: f5b1 7cbc ab1f 84be aa34 8f3c 0a4d b83d
00000100: c3dd 0dbe ceca f13b 11e2 eb3d bc24 0cbe
00000110: de62 a7bc b964 fbbd 02d1 c33e 8c61 3f3e
00000120: 5812 163e ebf1 ad3d 4a29 10be 7c86 e6bd
00000130: a27f e7bd 9884 25bd cf13 d8bd fe6c cabc
00000140: 1f32 6c3a 33a2 b2bd 566c 21be 4949 38bd
00000150: ebae a7bd 97e8 9e3d 6b46 74bd d0d9 183d
00000160: e75d 1b3e fbf5 083e 35c4 8f3d 1af2 3bbe
00000170: bf87 40be 2c61 65bd 4e57 35be 0503 e03d
00000180: db23 373d 97ba bb3d 52c4 de3d eff0 633c
00000190: e919 b2bc 1ca1 afbd 4ba4 21be 0045 9cbd
000001a0: 0bf3 993e ff18 483e bbc0 0f3d 1b8b aa3d
000001b0: f0f9 35be 6f79 a4bd 866b 763d 1f70 983d
000001c0: c13c 433e 9595 6dbe 097d f4bd 53fe a4bd
000001d0: d886 cd3d 47e9 d63d b647 22bd 0867 59be
000001e0: 5bd0 aa3d 5474 c23d 1098 0db8 ebce f6bc
000001f0: 7f72 9cbd 98ac a9bc 5d74 b9bb 381a 713d
00000200: 01c6 313d 26b8 fabc 48c8 ce3b 8aaf 2cbe
00000210: 4a45 283e 326f 123d 82f4 21bd df2f c4bd
00000220: b12f 77bd 3096 90bd 278c 06be 65c0 7b3d
00000230: b12c 3dbc 0068 45bd 9c25 45be 83aa b93d
00000240: 8450 2f3e 2448 383d 04a5 a8bd 06c9 c23c
00000250: 62d9 ad3d 4235 76bd 1f4c 41bd bcdf ab3d
00000260: 92be 763c 5504 29bd 4af8 d9bd 2020 68bd
00000270: a3c2 9d3d fba6 323d 99f5 243e 610c 97bd
00000280: 0ced 233e 4f97 f8bd 6287 cc3d 5f74 ae3d
00000290: 07c0 03be 0e55 97bd c226 f53d cc41 1fbe
000002a0: eda3 e53d 944e f63c 72d1 c83d 9ab4 3b3d
000002b0: 2870 ffbd 2c9f db3d d3c0 50be accc 4fbe
000002c0: bf6d eabd e8cf d8bd 4d0d 703d 23e3 103e
000002d0: 2451 a13b 8d89 3b3d 7859 9c3c c77f 55bd
000002e0: 1535 20be 993b a73d ba5c 013d 4743 b93b
000002f0: 83e4 11be 1974 fd3b c351 4f3d d99f 1ebe
00000300: 5988 20be 5e0b 72bd 010b 2e3d a776 4abe
00000310: 3dd0 e63d b57c c83d 2d48 963d 38cb 47bd
00000320: eb47 083e 6bd3 13be 9e5b 56bd 7d8a 203e
00000330: f5bf f6bd 6067 f8bc e372 87bd 5570 03be
00000340: caa7 3cbe 33ff 36bc adab 04bd 502c 0e3e
00000350: e131 003d cdea d43d dea0 803d 9d97 6dbe
00000360: 134e a13e 728e 093e 4b20 b3bd 0095 183d
00000370: e381 7cbe b108 5fbe 4aaa b1bd efa5 86bd
00000380: f349 953d c232 a5bd 93c3 9d3d 181f f43c
00000390: 605f 633d 431e bd3d bff3 86be 029e 32bd
000003a0: 6bbd 49bd 8626 1f3e d64a 07be 6ecd 0d3e
000003b0: 172e 9c3e c5ae 38be ae18 90bd 5c57 3f3e
000003c0: 4eb5 39bc 1379 6f3d 54cb 71bd d97f bfbd
000003d0: fe1b 2b3b a060 9dbd f7d2 ae3c f0e5 173e
000003e0: 1441 59bd 9d21 8c3d 3bfd fbbc 0adc 213e
000003f0: e2b1 e93c d5da 523c 36e3 edbd 3273 c8bd
-0.0963916 -0.04087115 -0.05489958 0.1850354 -0.016398607 -0.16549547 0.049938247 -0.16357747
-0.016169878 -0.09558656 0.04251935 0.07822838 -0.17456183 -0.28670704 -0.045774236 0.0011515359
-0.120094426 0.21603906 -0.01657754 -0.20882769 0.025449743 0.13577163 -0.20665886 -0.117996894
-0.046559952 0.12222742 0.087602995 -0.09995769 -0.048743717 -0.28850746 0.20143378 0.20332325
0.0036445798 0.035236884 0.15104064 -0.03973888 0.036521573 0.09110117 -0.041217495 -0.039134867
0.034202095 0.06311638 0.13337414 0.07854381 -0.09098701 0.16478959 0.09207244 -0.12763156
-0.0104495315 -0.07261391 -0.056671783 0.063473694 -0.059797704 0.05571361 0.06344303 -0.053974245
-0.1497767 0.10832189 0.063435 0.13724843 -0.015423288 -0.2580541 0.017481167 0.08999069
-0.13854127 0.0073789125 0.11517728 -0.13685888 -0.020432886 -0.12275071 0.38245398 0.18689555
0.14655435 0.08493408 -0.1407825 -0.112561196 -0.11303641 -0.040409654 -0.10550653 -0.024710175
0.0009010154 -0.08722343 -0.15763983 -0.044991765 -0.0818766 0.07759207 -0.05963747 0.037317097
0.1517254 0.13375084 0.070198454 -0.18354073 -0.18801783 -0.056000873 -0.17709085 0.10938076
0.04471193 0.091664486 0.10877289 0.0139124235 -0.02174087 -0.08575651 -0.15785329 -0.07630348
0.3006824 0.19540785 0.03509591 0.083273135 -0.17771125 -0.08030974 0.060161136 0.074432604
0.19066145 -0.23201592 -0.11937911 -0.08056321 0.10035485 0.10493713 -0.03961917 -0.2123071
0.08340522 0.09494844 -3.375864e-05 -0.030127963 -0.07639026 -0.020712182 -0.0056596235 0.058862895
0.043401722 -0.030605387 0.0063104965 -0.16863838 0.16432682 0.035750575 -0.03953982 -0.09579443
-0.060348216 -0.07059896 -0.13139401 0.06146278 -0.0115463 -0.048194885 -0.19252628 0.09065726
0.17120558 0.044990674 -0.08234599 0.023777496 0.08488728 -0.060109384 -0.047191735 0.08392283
0.015060084 -0.041263897 -0.106430605 -0.05667126 0.0770314 0.043616276 0.16109313 -0.07375408
0.16008395 -0.12138235 0.0998676 0.0851829 -0.12866221 -0.0738927 0.11970283 -0.15552443
0.11212907 0.030066766 0.098055735 0.045826532 -0.12472564 0.10723719 -0.20386057 -0.2029292
-0.11446714 -0.1058653 0.058606435 0.14149146 0.004923003 0.045785476 0.01908563 -0.05212381
-0.15645249 0.08165664 0.03158257 0.005653772 -0.14247327 0.007734787 0.050615083 -0.15490665
-0.15677013 -0.05909287 0.042490963 -0.19771825 0.11270187 0.09789411 0.07337985 -0.04877779
0.13308685 -0.14436118 -0.052333467 0.15677829 -0.12048332 -0.03032273 -0.0661371 -0.1283582
-0.18423381 -0.011169243 -0.032390285 0.13884091 0.03129757 0.10396347 0.06280683 -0.23202367
0.31504878 0.13433245 -0.08746394 0.037251472 -0.24658923 -0.2178066 -0.08675058 -0.06574618
0.07289495 -0.08066322 0.077033184 0.029799983 0.05551088 0.092342876 -0.2635784 -0.04360772
-0.04925291 0.1554204 -0.13212141 0.13847896 0.30503914 -0.1803542 -0.07035957 0.18685669
-0.01133473 0.058465075 -0.0590318 -0.09350557 0.0026109214 -0.076844454 0.02134083 0.14833808
-0.05304058 0.06842349 -0.030760398 0.15806594 0.028527204 0.012869556 -0.11615603 -0.09787597

hid.1.bias f4 [50]
00000000: cf2c 063b 54bd 8dba 4fda bfbc f860 d439
00000010: 02cd f2b9 17a5 903a e7fb 8dbb c3af 14bb
00000020: 6a4c 94bb 36e0 503b 3442 103b 1ab5 693a
00000030: 3371 27ba 3c04 c5b9 8e06 c0bb 7d8e 07bb
00000040: 4750 8fbb fc7f cd3a 8cde 8f3a bf92 af3a
00000050: 117e b0ba 34dc b43a ed51 a83b 2a1f be3b
00000060: 7e0b a5ba 6fe3 01bb f9af 4e3b 51c1 b43b
00000070: 5163 3fbb ed04 473b 9f3a 2a3c 9926 deba
00000080: 626a 653a 3916 1cbc 2101 b4ba 179f 9b3b
00000090: f90b 843c 23b0 a93b cb31 613a b081 c9ba
000000a0: dd2a d4ba 5906 8e3b 627d 3d3c 274e 143b
000000b0: 0196 043b 220c 11bb 8374 a2ba b44f 11bb
000000c0: eb50 4f3b e6d1 4abb
0.0020473485 -0.001081387 -0.023419527 0.00040508038 -0.0004631058 0.0011035529 -0.0043330076 -0.002268777
-0.004525711 0.0031871921 0.0022012116 0.0008915231 -0.00063874124 -0.00037577923 -0.0058601564 -0.0020684295
-0.0043735835 0.0015678401 0.0010976358 0.0013395174 -0.0013465305 0.0013798536 0.0051367194 0.005802055
-0.0012591926 -0.00198194 0.0031537993 0.005516209 -0.0029203484 0.0030367926 0.010389953 -0.0016948759
0.0008751509 -0.009526783 -0.0013733247 0.0047491896 0.01611899 0.005178468 0.00085904886 -0.0015373733
-0.0016187091 0.004334253 0.011565538 0.002262959 0.002023101 -0.0022132476 -0.0012394342 -0.002217275
0.0031633924 -0.0030947863

hid.2.weight f4 [50, 50]
00000000: a3d7 ca3c e832 753d f58b b13d 9b8d 893c
00000010: cd17 273e 3b3a 693e f8fa 783d 617a 3a3e
00000020: 231b 8dbd b700 da3d c2d1 893d 0d19 8bbd
00000030: 32ea 873c 8420 cd3d 248a 33bd 4334 a33d
00000040: 85b9 65bd bc93 e7bd 2ee3 f43d 2da7 2f3e
00000050: 1de3 4a3e ad34 52be 7ce7 d23d 8d5d 96bd
00000060: 45dc 1abe 5cef 063d fadc 9d3d c304 c4bd
00000070: 2ad7 e03d d304 3abd ed80 193e f0a0 763d
00000080: 1624 cdbd c0ce 993d a5aa 293e a3f6 0ebe
00000090: 6f7a 043d e2da 393c 4956 16be 0585 94bd
000000a0: 1867 90bd fd3b e13d 38c9 b8bd 7b57 64be
000000b0: d720 a7bd a038 6e3e 81ee c4bd 17fb 8abc
000000c0: 53e8 9f3c 36e8 8d3d de6c 6bbd 6c13 9939
000000d0: acfd 6dbd e504 f03d c2dd 123d 1f27 a13d
000000e0: a639 023d 69eb 6dbd 56de 4c3e 2cc3 dd3d
000000f0: 0333 f53d 88bf d93c d996 073d e2da 3fbe
00000100: 79d0 f43c 030a 103c 9205 acbd 63fc 99bd
00000110: 1a21 d73c a31f 573c d48c 16bc 4a0e 213e
00000120: 41f5 b8bd 3ab1 f53d ac88 a0bd 2c10 ff3c
00000130: bec9 d23d 3128 8e3d 20f2 453d 760b 113e
00000140: ee3b 8fbd 6e7b 4f3b 313d 45be 2bb0 173d
00000150: b694 863d 055a fabd bfff 073e 063b 1dbd
00000160: 3541 c43c ff0b 22bc 32ef 0d3e eab9 133e
00000170: 3159 723c dea9 7d3d d901 8ebd 1b9c 283e
00000180: 6e6c 423e f21c 0b3c 5123 92bd d4af 57bc
00000190: 16ef 88bc c500 d83d acd2 843d 532a 883e
000001a0: ded2 58bd 6e08 3fbe 9c7b b13d 1b8c 6abe
000001b0: 02bb 193d 54e0 33be 3747 aa3d d1be 853c
000001c0: 0de0 363e 2796 81bd 4821 633d 0f91 653d
000001d0: e39e 0d3e 5ab0 833d 8949 0e3d 0388 b93d
000001e0: 773c 03be d14a 9f3d 89c0 243c ea80 0fbe
000001f0: 6745 86be 1729 98bd d4d1 c83d b496 40bd
00000200: 2904 3b3e 1bfc 2dbd 6579 39be d43e 08be
00000210: 3a57 003d a04a 8ebe 1976 ef3d bb19 123d
00000220: d136 003d 7ea2 e8bd 5a69 983d 6185 6a3e
00000230: 2fb6 9e3c af61 793d d9b1 42bc 85b1 edbb
00000240: b592 1b3e 47dd 913e 1124 fc3d 5b08 9cbb
00000250: f3ea 153e 3d07 19be 9519 c43b 48d9 d5bd
00000260: ebfc b1bd 4378 433e c74e fabc 2726 19be
00000270: 0f78 5b3e 649c aa3d 54d5 b13d f94f 89be
00000280: 2bbc 54ba 3b37 dabd 67a4 903d 7316 253c
00000290: e23f 14bd a037 7fbd 5fe9 0d3e 1e25 81bc
000002a0: 2d86 d93d 7324 80bd 6d26 15bd f8e7 39be
000002b0: 3ee2 2f3c c26b 973d 827d cb3d d605 82ba
000002c0: 023d 663e d3df f43d d835 14bd c9cf ccbd
000002d0: 426c c13d c956 5e3c dab0 143d fe3c 17bd
000002e0: 85a1 91bd 8f95 6b3d 150e ad3d 1ab2 ff3c
000002f0: 991e 0abe e5fc c13c 3f6d b73d f911 233e
00000300: 5734 c93b e6db d93d c082 2abe 5bf7 333e
00000310: 1a74 f1bc 1b32 28be 5a6c 13be 4fec 32bd
00000320: c460 cc3d 44b4 3cbe 1ef0 2a3e feeb b6bd
00000330: 571f 583e 4e9f 71bd 2d82 07bd 7bdc 51be
00000340: 5e2b 1fbe 9e38 093e 7066 b63d 78db 343e
00000350: 5373 50be b9e9 1a3e b8d8 0bbe 4e0e 403e
00000360: 8cfb 07be 331a ae3c 45eb 003d 4af2 bdbc
00000370: c63c f93c a210 6a3c b81c 893d 91f9 ce3d
00000380: b2f7 4ebe 3520 cdbd 8850 68bd 02a7 8d3b
00000390: b1a3 a33d 25b1 8abd f61c fabd db16 c6bd
000003a0: f60c 1fbe 0766 69be 38f8 04be 1fbf 353e
000003b0: 3593 4abd 594d a63c 1fa2 3f3d bed7 4a3e
000003c0: a7d4 89bd 25fd 89bd 46d9 e03d 0757 51be
000003d0: 7f32 7cbe e23b d6bd a2ff 9f3c 6205 0a3e
000003e0: 285c e93c 07b1 1e3e 3dad bebd cc5c bb3c
000003f0: 9ae7 a13d 59d5 b4bd bb45 17be c900 9abd
0.024761027 0.059863 0.08669273 0.016791156 0.16317673 0.2277612 0.060786217 0.18210746
-0.068899415 0.106446676 0.06729461 -0.067918874 0.016591165 0.100159675 -0.043832913 0.079689525
-0.05608513 -0.11307475 0.119573936 0.17153616 0.198132 -0.20527907 0.102980584 -0.07342062
-0.15123089 0.032943115 0.077081636 -0.09571221 0.10978539 -0.045414757 0.14990588 0.060212076
-0.100166485 0.075101376 0.16569002 -0.13961272 0.032343324 0.01134369 -0.14681353 -0.07251934
-0.070509136 0.1099777 -0.090227544 -0.22298996 -0.081605606 0.23263788 -0.096158035 -0.016965432
0.01951996 0.06929056 -0.05747687 0.00029196905 -0.05810325 0.117196836 0.035856016 0.0786879
0.03179326 -0.058085833 0.2000669 0.10828242 0.1197262 0.026580587 0.033102844 -0.18735841
0.029884564 0.0087914495 -0.083995 -0.07518842 0.026260901 0.013130101 -0.0091888495 0.15728107
-0.090311535 0.11996694 -0.07838568 0.031135641 0.102923855 0.0694126 0.04832661 0.14164528
-0.069938526 0.0031659263 -0.19261624 0.03703324 0.06571333 -0.12224201 0.13281153 -0.038386367
0.023956874 -0.009890555 0.13860777 0.1442639 0.014791773 0.061929576 -0.06933946 0.164658
0.18986675 0.008490788 -0.07135642 -0.013164479 -0.016715568 0.10547022 0.06485495 0.2659479
-0.052935474 -0.1865556 0.08666155 -0.22905008 0.03753186 -0.17566043 0.083143644 0.01632634
0.17858906 -0.063274674 0.05545166 0.05604654 0.13830142 0.06430121 0.034738097 0.09059145
-0.12816034 0.07777942 0.01005567 -0.1401402 -0.26224825 -0.07429712 0.098056465 -0.04701872
0.18263306 -0.042476755 -0.18112715 -0.13305217 0.031333186 -0.2779131 0.11692447 0.03566907
0.031302277 -0.11359118 0.07441969 0.22902443 0.019373981 0.060884174 -0.0118832225 -0.007253828
0.15192683 0.28489134 0.123115666 -0.0047617382 0.14640407 -0.14944167 0.005984495 -0.10441834
-0.086908184 0.19088845 -0.030555142 -0.1495596 0.21432517 0.083306104 0.08683267 -0.26818827
-0.00081151974 -0.106550656 0.07062607 0.010076153 -0.036193736 -0.062308908 0.13858555 -0.01576477
0.10621295 -0.06256952 -0.0364136 -0.18154895 0.010735093 0.073936 0.09936048 -0.0009919952
0.2248421 0.119567536 -0.036184162 -0.100005694 0.09444477 0.013570496 0.03630147 -0.0369234
-0.071108855 0.057515677 0.084499516 0.031212855 -0.13488235 0.02368016 0.08956384 0.15924825
0.0061402726 0.106376454 -0.1665144 0.17574827 -0.029474307 -0.16425364 -0.14396802 -0.043682393
0.09979394 -0.18428141 0.1669316 -0.08931731 0.21105705 -0.058989815 -0.03308313 -0.20494263
-0.15543887 0.13400504 0.08906257 0.17661846 -0.20356493 0.1512822 -0.1365689 0.18755457
-0.13279551 0.021252727 0.03147437 -0.023186821 0.030424487 0.014286192 0.06694931 0.10106195
-0.20211676 -0.10015909 -0.056717426 0.0043228874 0.07990206 -0.06772069 -0.12212555 -0.09672328
-0.15532288 -0.22792827 -0.12985313 0.17748688 -0.049456794 0.020300554 0.04678547 0.19808862
-0.06730013 -0.067377366 0.109789416 -0.20443355 -0.24628638 -0.104606405 0.019531075 0.13478616
0.028486326 0.15497218 -0.09310386 0.022871397 0.079055026 -0.08829755 -0.14772694 -0.07519681

hid.2.bias f4 [50]
00000000: 090c 93bb 9bdb 4f3a ee85 3b3b cfc0 d13b
00000010: 3987 e63a f9a2 ff3b 952c 2fbb a10e 213c
00000020: 2d78 cb3b 434d c1b9 0d85 a93b 0017 bd3c
00000030: b334 033c ee3f d03a e288 53bc 2a08 603a
00000040: 8261 383b 54d2 c23b 82b3 583c c8df 933b
00000050: fa89 8d3c 056c cc3a a2e4 a53b b1c8 063b
00000060: 56e0 1b3c d780 2cbb d39d 0dbb f815 6c3c
00000070: 0f91 9cbb cf0e e23a ce9c aabb 75d4 6d3a
00000080: 7d8e d73a 82ce 40bc 888b 3d3b 9818 163b
00000090: a80c 6f3b 93b9 50bc bbc2 b33b a418 aaba
000000a0: 6c74 763c d9ad c7ba 5736 663b 95bd caba
000000b0: ae74 b1bb f709 323b a0c8 7f3b 334b 4abc
000000c0: 3ebc d2b9 acb8 caba
-0.0044875187 0.0007929147 0.0028613764 0.0064011584 0.0017587907 0.0078014103 -0.0026729454 0.009830148
0.0062093944 -0.00036869393 0.0051733316 0.023082256 0.00800817 0.0015888193 -0.012911053 0.00085461384
0.002813429 0.005945483 0.013226392 0.004512761 0.017277706 0.0015596157 0.0050626555 0.0020566399
0.009513935 -0.0026321912 -0.0021608963 0.014409535 -0.0047780345 0.0017246845 -0.005206681 0.0009072491
0.0016445663 -0.011767985 0.0028922278 0.0022902843 0.003647605 -0.012739557 0.00548586 -0.0012977314
0.015042406 -0.0015234306 0.0035127604 -0.0015467877 -0.0054155206 0.0027166584 0.0039029494 -0.01234703
-0.00040194573 -0.0015466413

hid.3.weight f4 [50, 50]
00000000: 59a4 d0bb 7ee9 1dbd b19f a33d 353f 193e
00000010: 4f4d 853d 3f30 46bd c7ee 243c 09dd b6bc
00000020: 28db 29bd 27a3 133c 7a77 afbc 5918 1c3d
00000030: 9d7c 993d 89c9 3d3e ee41 44bc e5e9 1cbe
00000040: 57fb d23d 2550 8bbd a1e4 84bd 9c9c d2bd
00000050: 94e7 1bbe cf91 243d 96fc a93b a8fe 71bd
00000060: 6ce4 083e 0cc7 b73d 6769 c9bc a900 a6bd
00000070: 8bd8 e73d f8e8 b53d 4634 3dbd 1f7e 353e
00000080: c519 ddbd 30de 33bd 3831 88bd 8e51 e03d
00000090: d4c7 3c3e 4812 79bd 1ee8 91bd 12ee dc3d
000000a0: a6aa 04bd bbc8 b73d c305 e63c f4c3 503d
000000b0: a2be 213c d81f 75bd 0146 de3d affe 033e
000000c0: 1065 30be 6ada c8bc 438a 84bd 9dea febc
000000d0: f7eb 1dbd 683f 10be ed66 d5ba 5496 e23c
000000e0: b27b 9d3d 6252 093e e0d8 0e3e a611 a93d
000000f0: edc7 643e 6d99 e63d cecd 693e a8fe 6fbc
00000100: c2c0 cc3d e3d9 05bc f082 523d 2ab0 9c3e
00000110: 33fc d7bd bace 8c3d 19c9 4a3c d169 e6bd
00000120: e5d5 82bd 2f86 383e 2778 773e 81a5 a73d
00000130: 2a76 493e 08a1 b0bd 2558 003e ec56 24bc
00000140: e974 ef3d 4b91 45be 60d1 f63d 9a02 afbe
00000150: 3d9b 493d 128e 9bbd d12c fcbd 7c47 1cbe
00000160: ab6f 11be bb1e 893d 883c adbc 3c4c 7ebd
00000170: aa14 2bbe 0fbe cd3c 0fb2 603c 9bc2 23bd
00000180: f959 5d3d 47ef 79bd b7a3 b43c fdaf 6abb
00000190: 4c11 87bd 0533 5fbc 9065 253d c31f a23d
000001a0: 54fc 2e3e 7469 9bbc 2ca9 743d 18bc 053e
000001b0: f7e2 8cbd 6027 6e3d 0a44 9f3d 996d 8c3d
000001c0: 7104 293b e703 1cbc 47eb 0bbe 4eb9 7dbd
000001d0: 693b 4f3e c730 07be b490 ca3d b36d 98bd
000001e0: a602 a0be 9448 81bd b056 9a3d af33 4fbb
000001f0: d3e4 3fbd b1ac 213d fef4 80bd fc5f 55bd
00000200: 3981 0bbe dd16 6dbc 06f0 aebc 1a40 6e3d
00000210: c0b9 e8bc ba1f efbc b410 003e 8858 fcbd
00000220: 97dd a33c 2812 e1bd b302 8cbd dba8 d03d
00000230: 257c a73d f33a b83c 5611 a5ba 8192 853c
00000240: e565 95bc f4ce 083c a988 29be 003a d53d
00000250: 2f8c f6bc ab74 5dbe 81d3 a3bd 0ede ebbc
00000260: 7e9e 61be aa89 143d 8bf5 c7bb 77be d9bd
00000270: 9cbb 3a3d 5abe df3d a529 c1bb 9267 863e
00000280: 606b 28bc b41d 443e e48b 763e 693c 703d
00000290: fbbf b13c ed0c 303d 1af9 13bd 7712 ca3c
000002a0: 1b22 d43d 0e00 a8ba 0104 8ebd c9d4 f53c
000002b0: 7585 cbbd d79a 92bd ccd6 943d 7a14 26be
000002c0: 849e 753d a5f8 e93d 1699 c0bd a551 6f3e
000002d0: 2719 0a3d 6a8d a83d 2d49 98bc 97d6 45be
000002e0: ad45 fdbc fb9f a03d 41cf 863d a185 90bd
000002f0: 01da 873c c52c 8bbc f0f1 7dbd 48f1 e1ba
00000300: 0c07 d73a fd92 05be 152c afbd 7481 da3b
00000310: bbdf a93d d3d7 9e3c b06c 103e b243 0a3e
00000320: a4f5 793e 3aa8 103e 5a96 103d 96e7 1a3d
00000330: 6979 0c3d 9e23 613d 3644 533d a14f 4bbe
00000340: 9b8c 133e 12b4 6cbd 5a04 43be 8482 a7bb
00000350: 169d 66bd fc09 1bbe e686 7ebd 0100 9dbd
00000360: 8123 a43c 1e55 643d 5674 05be 9ce7 ad3d
00000370: 0cbc 91bd 27ac 8c3b e76a a4bb 33dc 5ebe
00000380: 9ec4 5f3d dd00 c2bd 3d79 2a3d abbb 493d
00000390: e3dc 923b 26a4 8ebd 50a7 2f3e a2b2 1f3e
000003a0: 3382 273e bf95 e2bd e7d1 c5bd 35e4 dc3c
000003b0: 6a22 a23a c067 81bd 3ae5 8fbd 40b9 2abe
000003c0: 484a 2f3e 2b0e 373d 25c6 18be e57e 8f3e
000003d0: e98a 603e fc5d ecbd dfc8 7fbe fcce 973d
000003e0: 18ba bcbd 9a3c 4ebe 859a f33d 8b20 7e3c
000003f0: 7e07 87bd c212 09bd 274d a1bd ba02 833d
-0.006367248 -0.038552754 0.07989443 0.14965518 0.06508886 -0.048385855 0.010066695 -0.022322195
-0.04146877 0.0090110665 -0.021419276 0.038109157 0.07494471 0.18533911 -0.0119786095 -0.15323599
0.103018455 -0.06802396 -0.0648892 -0.10283777 -0.15225059 0.040178116 0.0051875813 -0.05908075
0.13368386 0.08973512 -0.024586393 -0.08105595 0.11320599 0.08882326 -0.04619243 0.17723893
-0.10795931 -0.043913066 -0.06650013 0.10953055 0.18435603 -0.06080845 -0.07124351 0.10787596
-0.032389306 0.08973833 0.02807892 0.050968125 0.009872111 -0.05984482 0.10853196 0.12890123
-0.17226052 -0.02451821 -0.06471684 -0.031117732 -0.03855511 -0.14086688 -0.0016281285 0.027659573
0.07689609 0.13410333 0.13949919 0.08255319 0.2234189 0.112597324 0.22832415 -0.014648117
0.09997703 -0.008169624 0.051394403 0.30603153 -0.1054615 0.068753675 0.012377047 -0.11250652
-0.063884534 0.18019937 0.24166928 0.08185864 0.19673982 -0.08624464 0.12533624 -0.010030489
0.11692221 -0.19293706 0.12051654 -0.34181672 0.049220312 -0.07595457 -0.123132356 -0.15261644
-0.14202754 0.066953145 -0.021147028 -0.06208442 -0.16707101 0.025115041 0.0137143275 -0.039980512
0.054040883 -0.06101921 0.022050722 -0.0035810464 -0.06595096 -0.013623004 0.04038006 0.07916214
0.17088443 -0.018971182 0.059731647 0.13060033 -0.068792276 0.05814302 0.07776649 0.068568416
0.002579 -0.009522415 -0.1366397 -0.0619443 0.20237507 -0.13202201 0.09890881 -0.074427985
-0.3125202 -0.06312671 0.075360656 -0.00316165 -0.046849083 0.039471332 -0.062967286 -0.05209349
-0.13623513 -0.014470783 -0.021354686 0.0581666 -0.028408885 -0.029189933 0.12506372 -0.123215735
0.020003123 -0.10989791 -0.06836452 0.101884566 0.081779756 0.022489047 -0.0012593667 0.01630521
-0.018237064 0.008350123 -0.16556038 0.10411453 -0.030096142 -0.21626537 -0.079993255 -0.028792407
-0.22033116 0.0362641 -0.006102269 -0.106320314 0.045589074 0.109249786 -0.005894857 0.26250893
-0.010279506 0.19151956 0.24076802 0.05865136 0.021697989 0.042981077 -0.036126234 0.024667008
0.103580676 -0.0012817399 -0.069343574 0.03000869 -0.09937564 -0.071584396 0.07267532 -0.16218749
0.059965625 0.11424378 -0.09404199 0.23370989 0.033715393 0.082300976 -0.01858958 -0.19320141
-0.030917013 0.07843014 0.06582499 -0.07056738 0.016583445 -0.016989121 -0.061998308 -0.0017238045
0.0016405298 -0.13044353 -0.0855333 0.006668264 0.08294626 0.019390022 0.14103961 0.13502386
0.2441011 0.14126673 0.035299636 0.037818514 0.034295473 0.054965608 0.051578723 -0.19854595
0.14409105 -0.057788916 -0.19044629 -0.005111994 -0.056302153 -0.15140527 -0.062140368 -0.07666016
0.02003646 0.055745237 -0.1303266 0.084914416 -0.07115945 0.004292983 -0.0050176266 -0.21763687
0.054630868 -0.09472821 0.041619528 0.04925124 0.004481898 -0.069649026 0.17153668 0.15595487
0.16358261 -0.11063718 -0.09659176 0.026964286 0.0012369875 -0.06318617 -0.07026143 -0.1667223
0.1711818 0.044691246 -0.14919336 0.280265 0.2192799 -0.115413636 -0.2497897 0.07412526
-0.09215182 -0.20140305 0.11894707 0.015510689 -0.06593226 -0.033465154 -0.07876044 0.063970044

hid.3.bias f4 [50]
00000000: c4ed 293c 6ddd b23c b174 863b bc35 5b3a
00000010: cb9f 6e3b df9a 83bb 9886 df3b b1f2 843c
00000020: a1e3 a4bc d5d6 b23a 7b41 3eb9 73e7 1b3b
00000030: 6dbe 023c 9945 aaba 377f 2ebb 11d6 29ba
00000040: 4427 29bc 13b8 1abb 0d6a 393b 2e99 39bc
00000050: b644 263c 8aaa 40bc 4d9c a73c 14ee 3a3c
00000060: 62ac 47bc 4294 923c 4605 a4bb 0db6 76bc
00000070: a63a e63b 7431 25bb e560 8b3a 4530 c1bb
00000080: bb52 5bbc 1c23 aabc 55e7 2fba 9805 533b
00000090: 60b6 d23b be20 873c bf61 f8b8 cd59 dc3c
000000a0: 9f8f 3d3c f05b 913c d8ad 2a3b 2a21 e9ba
000000b0: e1fa bdbb ae72 9fbb 24b5 ee39 a2a5 05ba
000000c0: 3132 133c db5a a73c
0.010371629 0.0218341 0.004103266 0.0008362194 0.0036411162 -0.004016265 0.0068214647 0.016229006
-0.020128073 0.0013644347 -0.00018144205 0.0023789078 0.007979971 -0.0012990712 -0.002662612 -0.0006478737
-0.010324303 -0.0023608252 0.002829197 -0.011328025 0.010148218 -0.01175941 0.020460272 0.011409301
-0.012187095 0.01789296 -0.0050055115 -0.015058053 0.0070260344 -0.0025206478 0.0010633735 -0.0058956468
-0.013386424 -0.020768695 -0.00067101914 0.003219938 0.006430432 0.016495105 -0.00011843768 0.02689829
0.0115698865 0.017744035 0.002604356 -0.0017786373 -0.0057977294 -0.004865966 0.00045529858 -0.00050982286
0.0089841345 0.020429065

hid.4.weight f4 [50, 50]
00000000: 4364 c0bd 86a5 fc3d 2056 34bc 8bbc 56bc
00000010: da30 9bbc 1427 583e 2df0 d0bc 2f41 a13e
00000020: a3b2 32be ddeb c43d 3c44 8dbc 6d6a 033e
00000030: 5d45 8d3c 8f49 673d fa7d 20bc 10ee a3bd
00000040: aa78 1abe b132 5cbd e7ab 90be 39c4 adbe
00000050: e5d9 973c 59c3 eebd 55e1 dc3d eb18 84bd
00000060: 07ee d63d d41f 003e 022f 0bbc e402 11be
00000070: b24b 333e 75a4 b93a 6f1d 86be ea14 153d
00000080: 4325 fd3d d192 833b b99c 01be a9a8 803d
00000090: 61b8 ebbd b075 1cbe 8f35 dc3d 70f4 9b3d
000000a0: ecaf 45bd 5be0 fd3c 3585 dfbd 9bcd 6bbe
000000b0: e156 ae3d d115 d1bd d342 283e 3187 fabd
000000c0: 3896 10bd cae0 733e 4b49 973e 3393 69bd
000000d0: 1a60 a13d e24d 4b3e 36aa 6dbd 5335 54bd
000000e0: 730e 293e 1f19 df3d e4d5 c43d 0457 433c
000000f0: 1fc7 843d d363 0ebd 5245 9fbd 75a9 aebd
00000100: ac18 a4bd 0eb7 06be 0b83 8fbd 6e80 8abd
00000110: b6ee f83d 5c8f 0abe 4bab c5ba 1f17 0fbe
00000120: 3be9 86bd dd32 623c 1679 33be f6fc c43d
00000130: 469c 2cbe 793f a93d 30d1 16be 6289 19be
00000140: 5bd4 f1bd 5b18 19be 4894 a3bd 07b0 85be
00000150: a499 92bc 0724 e0bd 1173 d0bd dc9d 2a3d
00000160: 7e65 473d 0b75 3abc 786a 8f3d e2bf 293d
00000170: fd36 9abd a7be 193d ac14 a0bb 9659 d5bd
00000180: bc5e 7cbd 249e dabd 81cc c03c 40aa 1a3e
00000190: 5867 5dbe c029 2b3e 9355 7fba 5115 2f3e
000001a0: 3927 063e 33ef 303c 595f b8bd 654c fbbb
000001b0: aa7f c43d aeb2 91bc d7a5 5dbd 1424 2ebd
000001c0: e4b7 55be 1722 273e 2104 93bc 1e26 5e3c
000001d0: 5c38 d23d b9fa e9bd a905 1dbd e3c8 90be
000001e0: 86e1 1fbd 6614 2e3e ab51 113e 00fb b8bd
000001f0: 1d11 063e 8985 1d3b ecd9 acbc 82ca dabd
00000200: 7a92 14be fd82 70bd 4934 19bd 14dc 47be
00000210: 8250 403d beba 253d b73f 03bd da06 6fbe
00000220: 9ec9 57bb 2e8a 193e 2aaf b83d d7de 09be
00000230: 96de 153e 6df0 c5bd 5141 de3c 7727 4dbc
00000240: a940 7abe 7e4e cd3d c7ef 26bd e85a 9f3e
00000250: 5fef 1abe 366e 683e 9b86 30be b654 5dbe
00000260: 4f99 0e3e 197d 30be 6b86 21be 714b 86bc
00000270: 584d d33d dde3 2e3d c974 7c3d e3f2 2a3c
00000280: ff6b 8d3d b602 26be 8728 49be 518d 68bd
00000290: 8375 ffbd 0608 a53d 4a30 90bd f2b1 843d
000002a0: 2ef1 303e 1e5a 553e 7893 5abd ddc6 b9bd
000002b0: 96e0 cebd 38f1 4cbe b3ef 733e 80d8 afbd
000002c0: 102a f8bd a106 22be 8975 8c3d a1e7 d5bd
000002d0: 4350 c93c c122 e9bc 3ccc 79bd 2504 993d
000002e0: 6c6a f3bd c4ac 3abe 3f95 3abe 8e2d 09bd
000002f0: fa96 2abe 7fbd 0ebd 5f26 5bbd b799 9b3d
00000300: 4dbf 44be 4aa9 d4bd fd7f 1cbe 7de1 f3bd
00000310: ea3d 06be 30e4 44be f62a 56be a2eb 57bd
00000320: 0a35 d9bd 19e2 88bd fb7c 0e3e ed6a 9e3c
00000330: b38e 1e3e 56d8 0b3c e216 133e e61b dc3d
00000340: 8d03 6dbe a248 2d3d 7fb3 573d 4425 4dbc
00000350: ef91 9c3d e40e f33d 4be4 173e a726 c03d
00000360: 161d bb3d cb6d e2bd 6e15 763e 7c49 98bd
00000370: 873d babd 4593 c93c 6c13 f63c 0bd2 383d
00000380: 4bb5 aa3d 747b 163d d531 88be 87bc 0abe
00000390: dc31 133d 4a15 103d 309c 903c 74bc 823e
000003a0: bde3 10be da92 973d 9e89 b23c 5f69 b23d
000003b0: c81b 44bd 54e7 273d a551 053e a911 d5bd
000003c0: 62ea da3d c12f 843d 16f2 37bd 3db9 5fbd
000003d0: 98fa 283d 5121 863e 01e6 123d e1b7 983c
000003e0: 8d7f 563d 1ef3 023e 2b77 6bbe cf61 04be
000003f0: 95ff a23d 6464 00bd 8e1c 2d3d 481d 5cbd
-0.093941234 0.123362586 -0.011006862 -0.013106476 -0.018944193 0.21108657 -0.02550515 0.31495044
-0.17450957 0.096153 -0.01724445 0.12833567 0.017244989 0.056466635 -0.00979566 -0.08004391
-0.15085092 -0.05375928 -0.2825615 -0.33938769 0.018536517 -0.11658353 0.10785166 -0.06450065
0.10494619 0.12512141 -0.008495094 -0.14161259 0.17509344 0.0014163392 -0.2619433 0.0363969
0.12360623 0.0040153046 -0.12657441 0.06282169 -0.11509777 -0.15279269 0.10752403 0.07614982
-0.048263475 0.03099077 -0.10914079 -0.23027651 0.085126646 -0.10209239 0.16431741 -0.12232817
-0.03529951 0.23816219 0.29548106 -0.057025146 0.07879658 0.19853929 -0.058023654 -0.051808666
0.16509418 0.10893463 0.09611109 0.011922602 0.06483292 -0.03476317 -0.07776894 -0.08528415
-0.08012518 -0.13155767 -0.07007416 -0.06762777 0.121549055 -0.1353125 -0.0015080957 -0.13973664
-0.06587454 0.013806072 -0.1752666 0.09618561 -0.16856489 0.082640596 -0.14728236 -0.14993814
-0.11808082 -0.14950697 -0.07987267 -0.2611086 -0.017895527 -0.10944372 -0.10178197 0.041654453
0.048680775 -0.011380444 0.07002729 0.04144276 -0.075300194 0.037535336 -0.004885277 -0.10417478
-0.061613783 -0.10674694 0.023535015 0.15104008 -0.21621454 0.16715145 -0.00097402296 0.17097975
0.131009 0.010799217 -0.09002561 -0.007669019 0.095946625 -0.017785396 -0.054113235 -0.042514876
-0.2087093 0.16321598 -0.017946305 0.0135588925 0.10264656 -0.11424775 -0.038335476 -0.28278264
-0.039033435 0.16999969 0.1419131 -0.090322495 0.13092466 0.0024035892 -0.021100007 -0.106831565
-0.14509001 -0.05871867 -0.03740338 -0.19517547 0.04695178 0.040461294 -0.032043185 -0.23342457
-0.003292657 0.14994118 0.09017785 -0.13463913 0.14635691 -0.09664998 0.027130755 -0.012521616
-0.24438728 0.10024737 -0.040756013 0.31124043 -0.15130375 0.22698292 -0.17238848 -0.21614346
0.1392567 -0.17235221 -0.15773933 -0.016393395 0.103174865 0.042697776 0.061634813 0.010433885
0.06905364 -0.16211972 -0.19644366 -0.056775395 -0.124735855 0.08058171 -0.070404604 0.06479253
0.17279503 0.20835158 -0.053363293 -0.09071133 -0.1010143 -0.20013893 0.23821907 -0.08586216
-0.12117398 -0.15822841 0.068583556 -0.1044457 0.024574405 -0.028458955 -0.06098579 0.07471494
-0.11885533 -0.18229967 -0.18220995 -0.03349071 -0.16659155 -0.034848686 -0.05350339 0.07597678
-0.192136 -0.10383852 -0.15283199 -0.11908243 -0.13109556 -0.19227672 -0.20914826 -0.05271495
-0.106058195 -0.0668375 0.13914864 0.019338096 0.15484123 0.008535465 0.14364198 0.10747509
-0.23145886 0.042305596 0.052661415 -0.012521092 0.07645022 0.118680745 0.1483318 0.09382372
0.09136407 -0.110560976 0.24031612 -0.07435891 -0.09093767 0.024606356 0.030038558 0.045122188
0.0833536 0.036738828 -0.2660052 -0.1354848 0.03593622 0.035176553 0.017652601 0.25534403
-0.14149375 0.074010566 0.021794137 0.08711504 -0.047878057 0.040992096 0.13019426 -0.10403759
0.10689236 0.06454421 -0.044908606 -0.054620016 0.04125461 0.26197293 0.03586388 0.018642368
0.052367736 0.12788054 -0.22994678 -0.12927936 0.07958905 -0.03134574 0.04226356 -0.053738862

hid.4.bias f4 [50]
00000000: df0c 2b3c 0911 fc3b 9289 893a 5572 8abc
00000010: a834 2a3c b047 803c 00f8 153c 56ef d1bc
00000020: 71e3 8fbc 672f 65bc 383f c53c 8cc8 f23a
00000030: 9e43 c5bc eab8 083d ccd6 0c3b 5ce6 8ebc
00000040: d00f 08bc f976 3a3c cdaa bc3c bff4 4ebc
00000050: b875 b7bc 9715 b5bb b378 0d3a 9978 63bb
00000060: 9d3b c4bb 064d 253b 548b 74bb 4c6c 7e3a
00000070: 1261 b53c 6c17 493c 6978 a63b f4d2 02bc
00000080: 6663 afbb 0b58 63bc 1f99 103a b536 003d
00000090: 9187 9fbc ade1 2d3c 47af 63bc 6bb2 dabc
000000a0: b716 bc38 e1bc 1c3c 356d 753c efa5 9a3c
000000b0: 8a2b e8bb f72f 7d3c 0b60 3cbc 3218 513b
000000c0: a4da 9cbb 8614 9cbb
0.01044008 0.0076924604 0.001049327 -0.01690022 0.010388531 0.015659183 0.009153366 -0.02562682
-0.017564507 -0.013988352 0.024077997 0.0018522902 -0.024080094 0.033379473 0.0021490334 -0.017443828
-0.008304551 0.011380904 0.023030663 -0.012631594 -0.022395 -0.0055262554 0.0005396709 -0.0034709333
-0.005988552 0.0025222911 -0.0037314491 0.00097054685 0.022141013 0.012273651 0.005080272 -0.007984865
-0.0053524254 -0.013875972 0.0005515981 0.031302173 -0.019473823 0.010612887 -0.01389677 -0.026696404
8.9687695e-05 0.009566517 0.01497965 0.018877951 -0.0070852684 0.01545333 -0.011497508 0.003190529
-0.004786806 -0.004763189

hid.5.weight f4 [50, 50]
00000000: 46ba 243d fc0a f1bd 03ea 7fbd 1974 e5bc
00000010: 75ff 7ebc 6c6d c53d 5fba 413d f1c3 7dbd
00000020: dff2 5a3d b335 bbbd c42e d2bc f6bf 97bd
00000030: 8f08 8f3c ec3a 6e3d c72b d63d ebe5 8a3d
00000040: 85f0 b0bd 2766 f2bd ec93 5dbe a829 bebd
00000050: fc79 9e3d e413 a43c 1c37 bfbc 2610 d13d
00000060: 04c2 d2bd c302 1cbe 203d e4bd 59cc 853d
00000070: 0a92 58bd f0da f9bc 9435 c73d 5f28 32bc
00000080: 00ac 28bd 7b2b 63bc 8e0f ba3d e331 bdbd
00000090: 18d7 c73d 04b9 3c3e 5c9f cf3d d69d 923c
000000a0: cc28 293d 9e99 83bd eee2 edbc d7cc 3ebe
000000b0: f120 34be f122 f9bc aa2d e8bd f5e7 353c
000000c0: b901 bfbd fe9c 6bbe f853 b93d f16c 03be
000000d0: 7f9d 12be 3229 e13b 320f 023d f4b8 113d
000000e0: 9183 14be 3ad6 683d 66ad 833d 9265 7c3d
000000f0: cd86 aa3c c22b 233e 0275 62bd 825d 93bc
00000100: 78f5 d8bc dccf 383e ca74 e0bd d8dc 51bd
00000110: b394 9b3d 0840 c23d 8da5 e8bc 948c 003e
00000120: e018 dcba 5a83 93bc 9aa2 a43c a17e ce3d
00000130: 281a d33c 1fbd 00be fed0 3cbc 57d5 d3bd
00000140: 0a28 d3bd 293d fb3d 8f7a 763d d0ec 3ebd
00000150: e9c7 2c3d 9011 743d ba56 a13c 8820 d7b9
00000160: d67b f9bd 453a d23d 2867 abbd 552c c0bd
00000170: 158c ec3c de7c e9bd f0ab 5c3e 4de4 56bc
00000180: f2a8 22bb 8a20 45be c50d a13d bca5 8bbd
00000190: 8dc6 553c 88b8 0cbd 4f0a b53c 6afb 103d
000001a0: a6fb 93bd ace6 85bd 1f77 85bc 133b c83d
000001b0: fb63 643d 4345 0e3e 128e 2c3b f12f 05bd
000001c0: 19ff 8e3d 862f 943c 5a88 52bd ba6c ccbb
000001d0: 2cf8 babd e361 4abd 3aa2 4fbd 4c97 13be
000001e0: c989 b2bc 2ed5 743d 23e7 d43c 5078 913d
000001f0: 0a68 56be 5ed1 0d3d 8ecb 16be f610 86bd
00000200: 4713 7cbe 9406 87bc e4d2 9dbd 84c7 64be
00000210: 7093 19be b5e4 f3bb 09c9 573c dc78 17bd
00000220: ee6c dabb cc57 9bbd dca7 fdbd 2e3f efbd
00000230: 92ac babd 43e9 40be f938 cfbd 2aa2 d43d
00000240: 2dff 7dbd 7d0d debd f45d 123d a6f9 b4bd
00000250: 6c9a c73d a398 07be cff4 1ebe 7b13 b23c
00000260: 790e 993c 310a 1ebd 5a41 76bd 8e15 aebd
00000270: af1d 2bbe 6b77 3dbe 42fc c5bd 77d9 b4bc
00000280: 8152 893d e9f8 03be f776 59bd edc7 8f3d
00000290: c54b 103e 2e93 32be d11a 02be 81f7 1fbe
000002a0: ec9e 6a3d 79b4 813d 2bbe 10be b01b 42b8
000002b0: 4107 e03d 812a adbb f57c a8bd 185e 043d
000002c0: 2f86 ad3d 8154 b63d 9294 08be 7c84 81bd
000002d0: 08ac 12be ccca 3e3d ca8b ccbc 3ade 2dbc
000002e0: 1445 083e 136a d2bc beaf 393e 69d4 12ba
000002f0: 8c84 f1bd 7989 18be 68eb 993d bf16 113d
00000300: fb6d bbbd 779e 23bd 027e a93d d1e5 e9bc
00000310: 1ea0 26be c4db 8ebd 1443 fbbd 86fd aabd
00000320: 3b2b 45be 5626 dd3d f740 093e fa94 c83c
00000330: 5abf cb3d ce26 0abd 003d 1abe b924 123d
00000340: 0f10 54bd ea8d 83be f583 0e3e 6cea a0bd
00000350: 1328 fe3c bf3d ef3d cb04 a93d 6702 5dbd
00000360: 370f 28be a5af 103d 77a0 0ebd fdd4 29bd
00000370: 1dea b4bc 9bb6 ac3b e328 d43d 48d2 99bd
00000380: 8685 103d aa41 36ba f07c 7c3d 050f c43d
00000390: fcec 2d3e 8d9a 31bd bd58 aa3c 682b 2d3d
000003a0: e7af 82bc 8b39 b5bc 8dda a6be 8b29 1eba
000003b0: 8100 b3bc f058 373e dc22 443e 837e 373e
000003c0: 4c8f 58be 1409 a93d d97c 6fbe 048f 093d
000003d0: d729 db3c 47ad 92bd 86c9 81ba 453d 1fbe
000003e0: 4375 d4bd 789f 16bd e2dd 0abe 52f9 013d
000003f0: 6427 ee3c 6af6 a8bc d798 c13d fd0a 003e
0.040216707 -0.11769673 -0.06247903 -0.028009461 -0.015563835 0.09640011 0.047296878 -0.061954442
0.053454276 -0.09141102 -0.025657065 -0.074096605 0.017460136 0.05816166 0.104575686 0.067821346
-0.086396255 -0.1183589 -0.21638459 -0.09285289 0.077381104 0.020029016 -0.023341708 0.10208158
-0.10290912 -0.15235429 -0.11144471 0.06533117 -0.05287365 -0.030499905 0.09727016 -0.010873883
-0.041179657 -0.013865347 0.09084998 -0.09238031 0.09757823 0.18429953 0.10137817 0.017897528
0.041298673 -0.064257845 -0.029038873 -0.18632828 -0.17590691 -0.03041217 -0.11336835 0.011102666
-0.093265004 -0.23009107 0.09049219 -0.12834527 -0.14317892 0.006871366 0.031752773 0.035576776
-0.14503314 0.056844927 0.064295575 0.061620302 0.020816231 0.15934661 -0.05528737 -0.017988924
-0.026484236 0.18048042 -0.10959776 -0.051236004 0.075967215 0.09484869 -0.028399253 0.12553626
-0.0016792081 -0.01800697 0.020097066 0.10082746 0.025769308 -0.12572144 -0.011524437 -0.10343426
-0.10310371 0.12267525 0.060175475 -0.04661256 0.042182837 0.05958706 0.019694675 -0.00041032233
-0.12181823 0.1026502 -0.08369285 -0.09383456 0.02887539 -0.1140077 0.21549964 -0.013115955
-0.0024819938 -0.19250694 0.078639545 -0.06818721 0.0130478265 -0.03435567 0.022099642 0.035396017
-0.072257325 -0.06538138 -0.016292153 0.097768925 0.05575941 0.13893609 0.0026329798 -0.032516424
0.0698225 0.018089067 -0.051399566 -0.006238547 -0.09129366 -0.04940976 -0.05069182 -0.14413184
-0.021794217 0.059773616 0.02598912 0.07103026 -0.20938125 0.034623496 -0.14726087 -0.06546204
-0.24616729 -0.016482629 -0.0770624 -0.22341734 -0.14997649 -0.0074430355 0.013170489 -0.036980495
-0.0066658175 -0.07585105 -0.12385532 -0.116819724 -0.091149464 -0.18838982 -0.101182885 0.10382493
-0.062010933 -0.108424164 0.035734132 -0.08836679 0.097462505 -0.1324182 -0.15523075 0.021737805
0.018683659 -0.038583938 -0.060120918 -0.08500205 -0.16710542 -0.18502586 -0.09667255 -0.022076352
0.067051895 -0.1288792 -0.05309197 0.07020555 0.14091404 -0.17438957 -0.12705542 -0.15621759
0.057280466 0.063332506 -0.14135043 -4.627899e-05 0.109388836 -0.005284608 -0.08226959 0.032316297
0.08472859 0.089028366 -0.13337925 -0.063240975 -0.14323437 0.04658012 -0.024969 -0.010612065
0.13307601 -0.025685346 0.18133447 -0.00056011096 -0.117928594 -0.14896192 0.07515603 0.035422083
-0.091518365 -0.039946046 0.08275987 -0.028551968 -0.16272017 -0.06975511 -0.122686535 -0.08349137
-0.19254772 0.107983276 0.13403688 0.0244851 0.09948607 -0.033728413 -0.15062332 0.035679553
-0.051773127 -0.2569421 0.13917525 -0.078572124 0.031024968 0.11681699 0.08252867 -0.05395737
-0.16412054 0.035323758 -0.034821 -0.041462887 -0.02208429 0.0052707917 0.10359361 -0.07510811
0.035283588 -0.0006952534 0.061642587 0.09573177 0.16984934 -0.04336028 0.020794267 0.042277724
-0.015953017 -0.022122165 -0.32588616 -0.0006033412 -0.021850826 0.1790502 0.19153923 0.17919354
-0.21148413 0.08253685 -0.2338747 0.033583656 0.02675335 -0.07161956 -0.0009901978 -0.15550716
-0.103739284 -0.036773175 -0.13561204 0.03173191 0.029071517 -0.020625312 0.0945298 0.12504192

hid.5.bias f4 [50]
00000000: 7fd5 89bc 92c5 84bc 2263 873b 1242 a2bb
00000010: bc3a 253c 6665 e7bb 7293 ee3b 7d73 98bc
00000020: 3b44 01bc 515f 77bc c8fe eb3b 2dba 41bc
00000030: b95f 00bd f0ce 0bbc 4ff6 83bc 4e4d 953b
00000040: b561 0d3c f307 27bc 25e2 f4ba dd50 183c
00000050: 77e6 803c 1607 84bc 7030 0dbc 666f a1bc
00000060: f25b 0f3c bba2 ad3a 1e28 98bc d3d7 c2bb
00000070: 06b4 03bd 0d13 1d3c 3661 643c 6620 01b9
00000080: e694 f6bb ac1e 123d e0a1 e33c a86b 373c
00000090: 2a8e 833c 4ee3 85bb d223 933c c51b 92bc
000000a0: 669d 3b39 49fc f8bc d3e7 75bc aff9 5bbb
000000b0: 99ef 323b c390 be3c edf7 31bc 3de6 6138
000000c0: 9709 f6bc 1214 0b3c
-0.016825436 -0.01620749 0.0041316906 -0.004951724 0.010084804 -0.007061648 0.0072807604 -0.018609757
-0.007889803 -0.015098409 0.007202003 -0.011824173 -0.03134129 -0.008533224 -0.01610866 0.0045563346
0.008629252 -0.010194766 -0.0018683119 0.009296623 0.015734894 -0.01611666 -0.008617505 -0.01970644
0.008749949 0.001324735 -0.018573817 -0.0059461384 -0.032154106 0.009587062 0.0139391925 -0.00012314468
-0.0075250743 0.035673782 0.027787149 0.011195101 0.016059 -0.0040859347 0.017961416 -0.017835507
0.00017892345 -0.030393736 -0.0150088845 -0.003356557 0.0027303456 0.023262387 -0.010862333 5.3858606e-05
-0.03003387 0.008488672

hid.6.weight f4 [50, 50]
00000000: 2132 8e3d b8d2 82bc 5659 11be f603 f7bd
00000010: 307d 81bd d774 86bd df53 d3bd c6cc a13b
00000020: ae22 20be 272b 053d 7e32 443e f83c 953e
00000030: d754 133d c056 5c3e 36e3 8d3e a361 e83c
00000040: b6b1 1b3b cd48 4b3d 7104 e8bb 1179 8ebd
00000050: f874 b0bd d14a 383e 4c0f 20bd 051d 253d
00000060: 0cf8 00be 5781 9ebd 2f76 033e 4412 78bd
00000070: b9a1 5c3d 0c74 25be fcf5 b03c e51e febd
00000080: 6450 f9bd 6018 ddbd eb3c b0bd dc4d 853d
00000090: a5af 313d 5e03 223d 3f49 ebbd bd9e 343d
000000a0: b4cf 3fbe 6238 e139 be30 26bd bf4b f83c
000000b0: b12c bd3d 4445 60be 5b04 46be b658 113d
000000c0: 5810 5a3e a584 cebd efd3 863e 40e2 9f3d
000000d0: 0551 633e 86c9 e5bc 9799 053d a58b 5c3d
000000e0: 9bf8 2fbe 0867 f3bd b244 80be 252d e1bd
000000f0: 34e6 e23c 6e17 c4bd 3b49 2cbd be9c 07be
00000100: 7a65 ec3c 375d 07bd c5b5 2cbd 42b8 9c3c
00000110: 5d2d babd cc4f bfbd 1c5f d5bd c0a4 2bbe
00000120: 82b4 4c3a 7ee4 d13d 7cd1 553e 7fbb 9b3e
00000130: 2c56 8fbc 6550 44be 7455 a73d e512 d43c
00000140: f201 163e 4676 c5bb c419 96bd f1b2 44be
00000150: cef4 4fbe 2552 07be fbf1 2dbe 2785 98bd
00000160: 5c17 80be a24d bd3c 7dc8 543e 2138 2abe
00000170: f445 043e bf89 90be 8777 76be 8c5a 3fbe
00000180: 75a6 d73d 32f5 4ebd 73af ce3d e084 a4bd
00000190: 3f20 1c3e 25b1 9a3d e3ca 7f3d 8e84 e8bd
000001a0: 1603 b9bd 163f 153e cd72 cf3d a2cb 08be
000001b0: e298 2a3e a314 60bd c85f 7dbe fc78 a2bd
000001c0: 4da8 b9bd d29c 97bd dad1 173e c2a5 c7bd
000001d0: 9721 93bd a59d 8c3d c4ab 843d e80a bb3d
000001e0: bb1f a9bd 1227 b5bd 6804 08be 7498 343e
000001f0: 3aed 1bbe e376 b43d 82e3 e73d 131f 46bd
00000200: 459e 4cbd 15f1 ecbd f9b9 4bbc 6cda 203d
00000210: e7a5 92bd d6d4 06be d9cf 0ebd 280e 193e
00000220: 6952 ebbc f8da cbbd d8ac b3bd 8335 1abe
00000230: 8b40 063e 99de 0dbd e48b 273d 0230 d43d
00000240: 8f21 263e bb18 833e 8d32 b73d f593 4cbe
00000250: abf2 f9bb a318 38be 8b6d e63d cf22 243e
00000260: 6e46 67be fb9f 483d e0cc c23c edb6 12be
00000270: f5c5 b4bd 75bd d63d d8b6 a63c c68f bd3d
00000280: 4310 d43c aa95 c7bd 9caa 203c 1bd5 93bd
00000290: ed8e 1dbe 03ad 553e b157 2fbd 40aa 08be
000002a0: 017b 44be 3ece 80bd a999 3d3e 1af4 033e
000002b0: 9e18 89bd 87a5 5dbd 8735 b5bd 73a0 89bd
000002c0: d794 b7bd 944b 183d f0ca c73d 083e 763b
000002d0: 379b bc3d 7c39 f4bd 10ce 8cbd 2594 20be
000002e0: e59d bdbd bd7c afbd ef74 8ebd 31fd 4d3d
000002f0: a35f c5bd 47ca e8bd 8ce9 123d a0cd 45be
00000300: a679 093e 818d 413d f13f 783c dcd8 c0bd
00000310: 0834 213e dda7 3cbe 1af1 80bd d9b3 053e
00000320: 29c1 b13d 9fe4 923c b040 08be c083 d4bd
00000330: bea4 c53d ad4c 87b9 c609 2cbe ad58 4a3d
00000340: 1db6 7ebd 6a3d af3d ecb7 31bd 6c7b 1a3d
00000350: ff6f 8abe d5b3 b73c 451d 9dbd 5211 383d
00000360: 32c9 46be 4ba3 253e 8bc2 873d f89f 133d
00000370: 50a0 2c3d d9c7 aabc e33e ac3c d40f 8ebd
00000380: 19e9 dd3d 3290 ba3d 2711 a73d e83d b13c
00000390: d7b9 6f3e 23d2 31be 0232 6bbc 9c95 cbbd
000003a0: ffc2 37be 3553 e13d 93e3 0d3d fbe7 c9bd
000003b0: b2c0 a83c 15a6 cc3d 0549 1ebe f008 953d
000003c0: 6f70 7b3d 06e2 debc f1a8 ec3d 1eca 823e
000003d0: c1e8 02be c41c 4cbe bd49 83be 3b2b b53d
000003e0: 8974 853c 8abb 37bd 698a 7abd daea 413c
000003f0: 8bad e1bc 38e2 f7bd fdae c6bc b400 c63c
0.06943155 -0.01596962 -0.14194235 -0.12061302 -0.06322706 -0.06565254 -0.103187315 0.004937741
-0.15638229 0.032511856 0.19159886 0.29148078 0.03596958 0.21517467 0.2771241 0.02836687
0.0023757047 0.049629975 -0.0070806076 -0.06956685 -0.0861606 0.1799729 -0.03907709 0.04031088
-0.12594622 -0.07739513 0.12838052 -0.060564294 0.05386517 -0.1615755 0.02160167 -0.124082364
-0.121735364 -0.10795665 -0.08605369 0.06508991 0.0433804 0.039553992 -0.1148858 0.044096697
-0.18731576 0.00042957353 -0.040573828 0.030309556 0.0923704 -0.21901423 -0.19337599 0.035484992
0.21295297 -0.10083894 0.26333568 0.07806826 0.22198875 -0.028050195 0.032617178 0.053844113
-0.17184679 -0.11884886 -0.2505241 -0.10994939 0.02769766 -0.09574781 -0.042062026 -0.13243386
0.028856982 -0.03304788 -0.042165536 0.01913083 -0.090906836 -0.09341392 -0.10418531 -0.16762066
0.000780888 0.102486596 0.20880693 0.30416486 -0.017497145 -0.19171293 0.08170596 0.025887916
0.1464918 -0.006026062 -0.07329133 -0.19208886 -0.2030823 -0.1321493 -0.1698684 -0.07447272
-0.25017822 0.023108307 0.20779605 -0.16622974 0.1291731 -0.28230092 -0.24069034 -0.18686885
0.10529796 -0.050526805 0.10092058 -0.080331564 0.15246676 0.07553319 0.062449347 -0.11353408
-0.09033792 0.14574847 0.101293184 -0.1335893 0.16659883 -0.05470718 -0.24743569 -0.07933232
-0.09065304 -0.07402958 0.14826146 -0.09748413 -0.07184141 0.06866006 0.06478074 0.091329396
-0.08258005 -0.08845343 -0.13282931 0.17636281 -0.15227214 0.08811738 0.113226905 -0.04836948
-0.049955625 -0.1156942 -0.012434476 0.039270803 -0.071605496 -0.13167128 -0.034866188 0.14946806
-0.02872582 -0.09953874 -0.08773202 -0.15059476 0.13110559 -0.034636114 0.040904894 0.10360719
0.16223739 0.25604805 0.08945189 -0.19978316 -0.007627805 -0.17978148 0.112513624 0.16028903
-0.2258546 0.048980694 0.023779333 -0.14327593 -0.0882682 0.10485355 0.020350859 0.09255938
0.02588666 -0.09745343 0.009806301 -0.07218381 -0.15386553 0.2086678 -0.04280824 -0.13346195
-0.19187547 -0.062893376 0.18515648 0.12886086 -0.066941485 -0.054112937 -0.088481 -0.067200564
-0.08963936 0.037181452 0.09755504 0.0037573595 0.092092924 -0.11925027 -0.06875241 -0.15681513
-0.092586316 -0.08568714 -0.06955897 0.05029029 -0.09637382 -0.11366706 0.03586726 -0.19316721
0.13425311 0.04725409 0.015151964 -0.09416363 0.15742505 -0.1842341 -0.062959865 0.13056888
0.086794205 0.01793128 -0.13305926 -0.10376692 0.09650563 -0.00025806334 -0.16800603 0.049400974
-0.062185396 0.08556636 -0.043388292 0.03771536 -0.2703857 0.022424618 -0.07671598 0.044938393
-0.19412687 0.16175573 0.06628903 0.03604123 0.042145073 -0.020847248 0.02102608 -0.06936613
0.108354755 0.09109534 0.081575684 0.021635965 0.23410736 -0.17365317 -0.0143551845 -0.09940645
-0.17945479 0.110021986 0.03464086 -0.098587 0.020599697 0.09992615 -0.15457542 0.07277095
0.061386522 -0.027207386 0.115556605 0.25544828 -0.12784101 -0.19932848 -0.25642195 0.08846136
0.01629092 -0.044856586 -0.061167154 0.011835778 -0.027548572 -0.12103695 -0.024253363 0.024170257

hid.6.bias f4 [50]
00000000: 3fc8 aebc 9a1c 07bc ccfe b2bc 70c2 ac3a
00000010: 6fa0 343c 40ea 563c d983 913a 0824 60bc
00000020: cbea 123d 2655 063b 4a12 083d cf48 e0bc
00000030: a724 423c b6ba 933c a37e f33c 232d b63b
00000040: f765 f2bb d6c4 11bc 8bf5 903c 0259 e03b
00000050: e686 8fba b17c 9a3c 0fa6 0abc 3eed c23b
00000060: f63b afbb bf24 7f3c 0fa2 d1b9 04a6 92bc
00000070: 90d0 5a3d ef57 a3bc c6b1 c5bc e476 fbb7
00000080: 4a2d 153c 5005 833c bf4c b7bc 0582 84bb
00000090: e3ae 033c 599a c3bb ae29 b83a 281a cdbc
000000a0: b15c 13bc d335 dcbc 0fc6 063d 5596 223c
000000b0: 790d d9bc fad7 9e3b 3bb3 9fbc d34e af3a
000000c0: 4e1c e93c 5939 a03c
-0.02133572 -0.008246565 -0.021850012 0.0013180505 0.0110245785 0.013117373 0.0011101916 -0.0136804655
0.035868447 0.002049753 0.033220567 -0.027378468 0.011849559 0.018033367 0.029723471 0.00555958
-0.007397409 -0.008897027 0.017695209 0.006846548 -0.0010950237 0.018858286 -0.008462443 0.0059486916
-0.005347724 0.015572726 -0.0003998433 -0.017901428 0.053421557 -0.019939391 -0.02413262 -2.9976894e-05
0.009105036 0.015993744 -0.022375463 -0.00404382 0.008037302 -0.0059693274 0.0014050507 -0.025036886
-0.008994267 -0.026881134 0.032903727 0.009923537 -0.026495682 0.0048475238 -0.019494643 0.0013374932
0.02845588 0.019558595
