rk_ckpts_v4/model_N100_L2_g0p9_lr0p1_seed0.pt (torch, 45353 bytes, 5 tensors)

hid.0.weight f4 [100, 2]
-0.47934258 -0.82239217 -0.13683328 -0.3652092 0.32490525 -0.7809807 -0.017868215 0.52889144
-0.21780872 -1.0432215 -0.61034524 -0.5903546 -0.6507477 -0.4787775 -0.12939113 0.04412681
-0.23397392 -0.303309 0.32898217 -0.3881459 -0.10288745 1.4736227 -0.54799384 -0.49557552
-0.59508693 0.2841212 0.48541763 0.64733464 0.4405927 -0.9465775 -1.2694117 0.15826192
0.5030367 -0.39172426 0.20921984 -0.17031132 -0.18882681 0.042073615 0.07301881 -0.121175066
-0.7704435 -0.94661844 0.02525138 -0.62892145 0.8222385 0.053897526 -0.4671415 -0.16047274
-0.010817315 -0.9101239 -1.0518825 0.10590344 -0.51911885 -1.135329 -0.8621025 0.26472738
0.31006816 0.55643266 0.34880176 -0.03413439 -0.016321829 0.055400167 0.808589 -0.56893706
1.4417527 -0.22861795 0.63553077 -0.0034514219 -0.7522315 1.026707 0.85705346 0.046504784
0.103970975 -0.9157968 -0.115695894 0.26708663 0.17592335 -0.019736564 0.45028067 -0.37103328
0.17569098 -0.18510096 -0.31772786 -0.90425175 0.008273597 0.31332713 -0.57960266 0.6382174
0.2704596 0.96684843 -0.80796474 0.30966422 0.25076017 -1.1141485 -1.4921362 0.2985961
0.19519477 1.5855982 -0.3779487 -0.2002028 0.47052753 0.09389551 1.9827476 -0.011628153
-0.32070947 -1.2586986 -0.68419373 -0.530739 -0.6225768 0.51009214 0.31551042 0.5393465
-0.34309918 0.019175509 -0.5526526 0.36398464 -0.2547971 -0.78611344 -0.23633176 0.48389852
-0.68704146 0.5257069 0.03233421 0.023557035 0.9197643 1.2457927 -0.40802187 0.875843
-1.524764 0.68558097 -0.06731543 -0.15522476 -1.6756843 -0.33222035 -0.1804418 -0.14759481
0.7612516 0.27209127 0.98691237 0.34049365 -0.23209195 0.32160896 1.0952177 0.63421464
0.71926445 -0.8309 -0.41046184 -0.17241912 -0.58276343 0.08844511 -0.1398966 -0.41137296
-0.09920903 -0.07443088 0.23181303 -0.56408024 0.97465 0.61747503 0.26442316 0.63704765
1.2365265 -0.92783237 -0.20315883 0.79344016 -0.09445331 0.17046964 0.050289117 -0.72564816
-0.04375764 1.1761843 0.50159514 0.37409493 -1.1089809 -0.58285564 -0.9802694 1.1949527
-1.3282963 0.30808654 -0.4940774 0.46376505 -0.31282294 0.08234201 0.70662427 1.5202631
-0.23948191 -0.65758145 0.29364038 -0.75395215 -0.01545009 -1.0455594 0.49612126 0.42984593
0.17439494 -0.5755397 0.17457007 0.18834305 -0.5797067 0.21226111 0.41805562 0.2729646
00000000: 646c f5be 4b88 52bf 061e 0cbe b3fc babe
00000010: fb59 a63e 5aee 47bf 5d60 92bc 6e65 073f
00000020: 4009 5fbe 4888 85bf 963f 1cbf 7b21 17bf
00000030: 6797 26bf 5322 f5be 1c7f 04be 50be 343d
00000040: dc96 6fbe 514b 9bbe 5a70 a83e 0fbb c6be
00000050: a8b6 d2bd ab9f bc3f 5349 0cbf 13bc fdbe
00000060: 9e57 18bf 5578 913e a988 f83e b9b7 253f
00000070: 5e95 e13e e752 72bf 157c a2bf 6a0f 223e
00000080: 03c7 003f 1590 c8be ba3d 563e 1766 2ebe
00000090: d15b 41be 6255 2c3d e38a 953d a22a f8bd
000000a0: c93b 45bf 9655 72bf fbdb ce3c ff00 21bf
000000b0: 397e 523f a7c3 5c3d 2c2d efbe f752 24be
000000c0: 1c3b 31bc e1fd 68bf 16a4 86bf e7e3 d83d
000000d0: f9e4 04bf 7652 91bf c0b2 5cbf 598a 873e
000000e0: 41c1 9e3e 5f72 0e3f 2596 b23e 81d0 0bbd
000000f0: 5bb5 85bc 49eb 623d b0ff 4e3f dca5 11bf
00000100: 5a8b b83f d31a 6abe 25b2 223f 4031 62bb
00000110: 3e92 40bf 236b 833f db67 5b3f cd7b 3e3d
00000120: bcee d43d a971 6abf f8f1 ecbd 94bf 883e
00000130: 4025 343e 93ae a1bc 308b e63e 13f8 bdbe
00000140: 56e8 333e 1b8b 3dbe 3aad a2be 0b7d 67bf
00000150: fb8d 073c 6a6c a03e d760 14bf 3762 233f
00000160: ae79 8a3e 6183 773f c7d6 4ebf 4f8c 9e3e
00000170: a363 803e 6b9c 8ebf 52fe bebf 97e1 983e
00000180: 23e1 473e e2f4 ca3f 7e82 c1be f601 4dbe
00000190: fce8 f03e 4a4c c03d acca fd3f 0284 3ebc
000001a0: 0834 a4be 091d a1bf 5227 2fbf 83de 07bf
000001b0: 3161 1fbf 6695 023f 958a a13e 9d12 0a3f
000001c0: b2aa afbe f515 9d3c a47a 0dbf 325c ba3e
000001d0: c474 82be bb3e 49bf f400 72be 8cc1 f73e
000001e0: f3e1 2fbf ba94 063f e070 043d affa c03c
000001f0: ac75 6b3f 2376 9f3f 3ee8 d0be 3f37 603f
00000200: 772b c3bf 3c82 2f3f acdc 89bd 3df3 1ebe
00000210: d37c d6bf c918 aabe bcc5 38be 1823 17be
00000220: 63e1 423f 8c4f 8b3e 4aa6 7c3f 2f55 ae3e
00000230: 83a9 6dbe eea9 a43e 1830 8c3f e45b 223f
00000240: b721 383f ddb5 54bf 0e28 d2be a38e 30be
00000250: fc2f 15bf b622 b53d 0e41 0fbe 7a9f d2be
00000260: 1b2e cbbd 386f 98bd 6560 6d3e 9067 10bf
00000270: aa82 793f d812 1e3f 7962 873e 8e15 233f
00000280: 8046 9e3f 6c86 6dbf de08 50be e51e 4b3f
00000290: bd70 c1bd 988f 2e3e f6fb 4d3d 14c4 39bf
000002a0: 363b 33bd 358d 963f 8a68 003f 5f89 bf3e
000002b0: 16f3 8dbf 0736 15bf eff2 7abf 36f4 983f
000002c0: 9d05 aabf 85bd 9d3e b7f7 fcbe 9d72 ed3e
000002d0: 542a a0be eea2 a83d 54e5 343f fb97 c23f
000002e0: bf3a 75be 4257 28bf 0858 963e 0203 41bf
000002f0: 6022 7dbc e4d4 85bf 9b03 fe3e c414 dc3e
00000300: 9694 323e 9256 13bf 7fc2 323e 00dd 403e
00000310: a967 14bf fa5a 593e 630b d63e 04c2 8b3e

hid.0.bias f4 [100]
-0.017528132 -0.026366973 -0.077411704 -0.022003453 -0.120662995 0.186001 -0.07371995 0.053195447
0.2571968 0.01980936 -0.504042 0.027252326 0.20877238 0.12716971 0.29859248 -0.08897744
-0.017222857 0.40239105 -0.1799187 0.46417847 -0.22718549 -0.023254994 0.05451056 -0.26386994
-0.09598741 -0.14564663 -0.38221115 -0.27579588 0.043890797 -0.22495614 -0.17529091 -0.09667142
0.076631844 0.007369261 -0.3483626 -0.2175363 0.09096283 -0.14866337 0.09971624 0.042279333
-0.23296078 -0.034152914 -0.16712105 -0.20167999 0.29710323 0.09396601 0.16148911 -0.17022738
0.4525621 0.034381546 0.016056586 -0.79777277 -0.27263942 0.13629758 -0.09984389 0.03627238
0.17947175 -0.052634872 -0.02068717 0.026027922 0.04329177 0.4607755 -0.44183585 -0.15982752
0.22121441 -0.10930096 -0.5262238 -0.02647679 0.027716294 0.31348848 -0.287647 0.0077283517
-0.20338608 -0.24502252 -0.08960166 0.15319696 0.24153887 -0.04635373 -0.043897122 -0.026493225
0.39183015 -0.116069496 -0.46533576 0.06112356 -0.010660769 0.19168569 -0.06495501 0.44605994
0.34457588 -0.0157637 -0.1873929 -0.5438281 0.015604425 0.10107075 -0.2900723 0.01709202
0.05388127 -0.120544195 -0.056987908 0.12311282
00000000: 2897 8fbc 8dff d7bc 078a 9ebd 9640 b4bc
00000010: 291e f7bd 0c77 3e3e 7cfa 96bd 78e3 593d
00000020: 4daf 833e 3d47 a23c e608 01bf 4540 df3c
00000030: 6dc8 553e c738 023e 1de1 983e ce39 b6bd
00000040: f316 8dbc 3306 ce3e 9c3c 38be cda8 ed3e
00000050: 50a3 68be 4281 bebc 7746 5f3d f619 87be
00000060: 0c95 c4bd 6424 15be 2eb1 c3be 1e35 8dbe
00000070: d6c6 333d e75a 66be 767f 33be aafb c5bd
00000080: 28f1 9c3d d779 f13b 955c b2be d6c1 5ebe
00000090: b84a ba3d 363b 18be 0738 cc3d 182d 2d3d
000000a0: 458d 6ebe ede3 0bbd c821 2bbe 3385 4ebe
000000b0: ea1d 983e 4071 c03d 675d 253e 1650 2ebe
000000c0: 38b6 e73e aad3 0c3d 1a89 833c d63a 4cbf
000000d0: 6597 8bbe 9891 0b3e f47a ccbd 5992 143d
000000e0: 71c7 373e aa97 57bd 2478 a9bc 8238 d53c
000000f0: b652 313d c4ea eb3e 4f38 e2be d3a9 23be
00000100: 0886 623e 2fd9 dfbd 9ab6 06bf dae5 d8bc
00000110: 480d e33c 9081 a03e 7846 93be 1d3e fd3b
00000120: 7144 50be 2fe7 7abe 1381 b7bd aadf 1c3e
00000130: f755 773e 69dd 3dbd 78cd 33bd 5208 d9bc
00000140: f69d c83e d8b5 edbd 7d40 eebe b35c 7a3d
00000150: 82aa 2ebc 4149 443e 2207 85bd f861 e43e
00000160: 406c b03e e022 81bc ede3 3fbe 5238 0bbf
00000170: b4a9 7f3c 2efe ce3d 5b84 94be 9004 8c3c
00000180: 9bb2 5c3d e0df f6bd 276c 69bd 9322 fc3d

hid.1.weight f4 [100, 100]
0.02495996 -0.10984803 -0.10768049 0.10711051 -0.041890077 -0.012052296 -0.07594988 0.057384722
0.16076571 -0.0722292 -0.042945743 -0.085800715 0.022555467 -0.07358401 -0.012054904 0.0048823855
0.05848965 0.12263732 0.0997166 0.07630472 -0.0103569 -0.08708339 -0.1362248 0.05183365
0.09432444 0.012803943 -0.04150005 0.014976809 0.067004964 -0.0038677438 -0.034927655 0.22331068
-0.018166685 -0.06135844 0.034577742 -0.13243599 0.050760522 -0.00041414052 -0.12242046 -0.03981442
0.022414425 0.059617575 0.04667335 0.031570558 0.052075624 0.089764304 -0.042498738 -0.043764405
-0.14000005 -0.057838477 0.01985355 0.06305768 -0.0443766 0.021693578 0.023294467 0.00054107676
-0.17830911 0.09049641 0.035434466 -0.12606843 0.12532263 0.20520931 -0.015046385 0.093189724
0.010171354 0.017686328 0.08604174 0.024593152 0.062466446 -0.058121968 0.039812952 -0.15314017
0.007346878 -0.119728744 -0.0014124291 0.12968114 0.02186577 0.06987826 -0.04940966 -0.06537965
-0.05766728 0.11682447 -0.09194944 -0.1278516 -0.04209111 -0.024139548 0.06732615 0.0657903
-0.104210496 -0.03196264 -0.12909159 0.14129001 -0.09336839 0.11310866 0.08796497 0.054484997
0.021763735 -0.11057501 -0.07670759 0.12270048 0.022657242 0.036854677 -0.033420324 0.0004508548
0.08911756 -0.026364358 -0.1358133 0.10925029 -0.028649203 -0.007579859 0.060921546 -0.17376111
0.1467093 -0.17925254 0.0049587865 0.059696186 0.06559031 0.07492036 0.15228061 -0.079228096
-0.13461407 0.20438804 0.08569408 -0.00107275 -0.08612234 -0.1288408 0.10926409 0.021395361
0.015984485 -0.021597303 -0.097855 0.082741566 -0.06867609 0.01974659 0.13251929 0.016387578
0.09913634 -0.15334113 0.051140755 0.09521867 -0.005657673 0.084208734 -0.045599792 -0.033831626
0.11264979 0.09755346 -0.0950888 -0.08908446 -0.087934606 0.088691965 0.016558282 0.0055696988
-0.09485459 0.047829892 0.10810638 0.115059935 -0.0073778606 -0.13520895 -0.013868138 0.13164194
0.08417301 0.1163243 -0.03756866 -0.061886728 -0.023425883 -0.04766898 0.048768822 0.021263517
0.028566796 0.01973077 0.12061393 -0.08322212 -0.05567285 0.02851628 0.08840686 0.1184165
0.017667158 -0.0030942303 0.14177157 0.041768305 0.008349477 -0.14708857 -0.0024625391 0.029674381
-0.1203837 -0.029819174 0.061031498 0.017295834 -0.08425864 0.0037667532 -0.06921763 -0.085410155
0.17733136 -0.08982338 0.046460528 -0.123834714 -0.036585752 -0.17343156 -0.06118233 -0.13753228
0.075674176 -0.17445382 -0.08665316 0.029437946 -0.13048863 0.050265305 0.05026593 -0.045622848
-0.040572178 0.08194503 -0.050149065 -0.02240444 0.09132715 0.14859119 0.0049825553 -0.07837468
-0.06284057 0.010051884 0.27498227 -0.101157546 -0.06569737 0.024815517 -0.24279274 -0.037074424
-0.07560479 -0.09187126 -0.17577626 0.11082451 0.20923232 0.039508518 0.060513392 -0.061150756
-0.011306571 -0.09441546 -0.10219689 0.085890844 -0.05452143 -0.03963202 0.0578639 0.06785211
0.0046635 9.725723e-05 -0.14079079 -0.020700667 -0.14380968 -0.08978847 0.06455898 -0.07215759
-0.026779084 -0.07868593 0.08129745 0.10680773 -0.027195584 0.08591783 0.18363015 0.10010427
00000000: d478 cc3c 01f8 e0bd 9787 dcbd c15c db3d
00000010: ee94 2bbd fe76 45bc 9c8b 9bbd 3e0c 6b3d
00000020: c49f 243e e7ec 93bd e0e7 2fbd 49b8 afbd
00000030: 3ec6 b83c 37b3 96bd ef81 45bc 6bfc 9f3b
00000040: d892 6f3d 4629 fb3d 3738 cc3d a645 9c3d
00000050: fdaf 29bc c758 b2bd 847e 0bbe 854f 543d
00000060: 2c2d c13d a1c7 513c f5fb 29bd 4a61 753c
00000070: e639 893d f979 7dbb 4d10 0fbd 8eab 643e
00000080: 4dd2 94bc fd52 7bbd 64a1 0d3d 4d9d 07be
00000090: 44ea 4f3d 0021 d9b9 94b7 fabd 7214 23bd
000000a0: 759e b73c 8f31 743d 8e2c 3f3d 2150 013d
000000b0: 404d 553d 59d6 b73d 2813 2ebd 4e42 33bd
000000c0: 2c5c 0fbe 0ae8 6cbd e9a3 a23c 6324 813d
000000d0: 3dc4 35bd bbb6 b13c 0ad4 be3c 0cd7 0d3a
000000e0: aa96 36be 2f56 b93d bb23 113d 1518 01be
000000f0: 9354 003e 6422 523e 1d85 76bc 41da be3d
00000100: c0a5 263c ebe2 903c a736 b03d 9477 c93c
00000110: d1dc 7f3d 4d11 6ebd e812 233d c7d0 1cbe
00000120: 14be f03b 5834 f5bd 4221 b9ba 22cb 043e
00000130: d81f b33c 551c 8f3d c961 4abd c4e5 85bd
00000140: 8734 6cbd ab41 ef3d fd4f bcbd 88eb 02be
00000150: ba67 2cbd 4dc0 c5bc 4be2 893d 11bd 863d
00000160: 506c d5bd 42eb 02bd 9630 04be 54ae 103e
00000170: ed37 bfbd 83a5 e73d fa26 b43d a92b 5f3d
00000180: dc49 b23c 2775 e2bd de18 9dbd 644a fb3d
00000190: ae9b b93c eef4 163d c0e3 08bd b560 ec39
000001a0: 4483 b63d 11fa d7bc a412 0bbe 9ebe df3d
000001b0: bcb1 eabc 7760 f8bb df88 793d 6fee 31be
000001c0: f63a 163e fa8d 37be 517d a23b fd83 743d
000001d0: 3654 863d d96f 993d 73ef 1b3e 5742 a2bd
000001e0: 45d8 09be 194b 513e 6180 af3d 849b 8cba
000001f0: e960 b0bd d8ee 03be dac5 df3d 5345 af3c
00000200: e5f1 823c d4ec b0bc 3468 c8bd 6974 a93d
00000210: 0da6 8cbd 9ac3 a13c 23b3 073e 3e3f 863c
00000220: fe07 cb3d 7505 1dbe f878 513d 0202 c33d
00000230: 0064 b9bb a175 ac3d d9c6 3abd 0893 0abd
00000240: efb4 e63d 1cca c73d ebbd c2bd ea71 b6bd
00000250: 0f17 b4bd 22a4 b53d 3ca5 873c 0582 b63b
00000260: 2043 c2bd 47e9 433d e166 dd3d 8ba4 eb3d
00000270: fbc1 f1bb 3774 0abe 3037 63bc 25cd 063e
00000280: e662 ac3d 6f3b ee3d 98e1 19bd f07c 7dbd
00000290: a3e7 bfbc 8c40 43bd d1c1 473d d430 ae3c
000002a0: ea04 ea3c 6ca2 a13c 7004 f73d 5c70 aabd
000002b0: 3709 64bd f99a e93c a80e b53d 5a84 f23d
000002c0: b7ba 903c 92c8 4abb 912c 113e 3e15 2b3d
000002d0: 3fcc 083c 639e 16be 8d62 21bb b017 f33c
000002e0: bb8b f6bd 5747 f4bc 2afc 793d feaf 8d3c
000002f0: cb8f acbd a2db 763b f9c1 8dbd 85eb aebd
00000300: 5a96 353e 52f5 b7bd 654d 3e3d 0e9d fdbd
00000310: f1da 15bd 0b98 31be 539a 7abd 43d5 0cbe
00000320: 10fb 9a3d 06a4 32be 3677 b1bd d927 f13c
00000330: d09e 05be fee2 4d3d a6e3 4d3d 06df 3abd
00000340: 032f 26bd ccd2 a73d 1b69 4dbd 8489 b7bc
00000350: bb09 bb3d 4a28 183e b444 a33b e782 a0bd
00000360: 8fb2 80bd a8b0 243c 7aca 8c3e b02b cfbd
00000370: 588c 86bd e949 cb3c a99e 78be 5adb 17bd
00000380: afd6 9abd 0027 bcbd b1fe 33be f6f7 e23d
00000390: ff40 563e afd3 213d e4dc 773d 3779 7abd
000003a0: 323f 39bc e55c c1bd 9a4c d1bd 8ae7 af3d
000003b0: dd51 5fbd 2f55 22bd b202 6d3d 0cf6 8a3d
000003c0: 46d0 983b 94f6 cb38 762b 10be 7294 a9bc
000003d0: d842 13be 04e3 b7bd 8037 843d 5cc7 93bd
000003e0: cf5f dbbc 1726 a1bd 477f a63d 03be da3d
000003f0: 46c9 debc b0f5 af3d 8b09 3c3e 7803 cd3d

hid.1.bias f4 [100]
0.012129443 -0.003998628 -0.00012623363 0.0069473484 -0.004398407 -0.0022939711 0.0030339845 0.0008388176
0.004585544 0.009863705 -0.004632297 0.007791868 0.0029892714 0.0035354039 -0.01292728 0.00044205118
-0.0077677295 0.0029329932 -0.0006192382 0.0016739906 0.001767961 0.0020800706 -0.0018697599 -1.8954986e-05
-0.0015184912 0.0072830515 0.008965425 -0.0013377522 0.004740169 0.00019816056 0.0030498286 -0.0038089983
0.002648152 0.0023787986 0.00022442978 0.0011216849 -0.0029001243 -0.010127447 -0.003322003 0.0075317207
-0.0023180563 -0.0056673507 -0.0013536691 0.016764896 0.00064869487 0.0012022236 9.478102e-06 0.0052305153
0.008373493 -0.004777188 0.0069062402 -0.00045097765 -0.008142756 -0.0013044399 -0.005382814 0.011143153
-1.3390577e-05 0.0018756948 -0.00024986028 0.0009080683 9.0160735e-05 0.0075629167 -0.00032599867 -0.0007940306
0.0044225655 -0.00075248705 0.010943922 2.3713919e-07 0.001123933 -0.00179386 -0.008361406 -0.00048201988
-0.009755128 0.0056960224 -0.0042919894 -0.000642759 -0.002966687 0.0016951027 0.0026885283 -0.0014352783
0.00014175745 0.0010433146 0.0009356051 0.005561124 0.011505272 -0.006042006 0.0078065153 -0.0028132945
0.0016086589 -0.006952018 -0.0029858158 0.0024131401 -0.0032160014 -0.0007333416 0.00059815764 0.0015229989
0.0039752647 -0.00063300104 -0.00026446578 0.0042088404
00000000: 92ba 463c ec06 83bb 955d 04b9 95a6 e33b
00000010: 8320 90bb 7356 16bb d0d5 463b 19e4 5b3a
00000020: 5542 963b 619b 213c 86ca 97bb ed52 ff3b
00000030: a7e7 433b 3cb2 673b f1cc 53bc 1bc3 e739
00000040: 7088 febb 7637 403b 5f54 22ba ce69 db3a
00000050: edba e73a cb51 083b bb12 f5ba 8601 9fb7
00000060: 1c08 c7ba aaa6 ee3b b8e3 123c 8457 afba
00000070: 6b53 9b3b 52c9 4f39 a2df 473b 63a0 79bb
00000080: 9e8c 2d3b 9ee5 1b3b e954 6b39 8005 933a
00000090: 0310 3ebb 97ed 25bc f6b5 59bb a7cc f63b
000000a0: 88ea 17bb 2fb5 b9bb 996d b1ba 8956 893c
000000b0: 2d0d 2a3a ee93 9d3a 2304 1f37 be64 ab3b
000000c0: fa30 093c f589 9cbb be4d e23b 3271 ecb9
000000d0: 3269 05bc bdf9 aaba 5162 b0bb c591 363c
000000e0: 17a8 60b7 e0d9 f53a aeff 82b9 6f0b 6e3a
000000f0: ad14 bd38 58d2 f73b cdea aab9 7e26 50ba
00000100: 2beb 903b 8d42 45ba 234e 333c 53a0 7e34
00000110: ef50 933a f41f ebba 47fe 08bc 9db7 fcb9
00000120: f9d3 1fbc b3a5 ba3b d1a3 8cbb d47e 28ba
00000130: c06c 42bb 352e de3a 0532 303b f31f bcba
00000140: baa4 1439 d4bf 883a 6543 753a 173a b63b
00000150: 9c80 3c3c 05fc c5bb cccd ff3b 405f 38bb
00000160: a3d9 d23a c1cd e3bb adad 43bb c625 1e3b
00000170: 8dc3 52bb b93d 40ba aecd 1c3a 5d9f c73a
00000180: f042 823b fbef 25ba ffa7 8ab9 50ea 893b

out.weight f4 [1, 100]
-0.16081831 0.056323785 0.008127734 -0.10821705 0.05717748 0.046574682 -0.06157298 0.07481102
0.08465463 -0.11523792 -0.12962224 -0.08015972 -0.046810467 0.15451047 0.16169639 -0.05774259
0.15595354 -0.040105604 0.0045618005 -0.017505437 -0.023450775 -0.02324743 0.032694183 -0.008957751
0.05080961 -0.08368924 -0.14940335 -0.036770497 -0.10428345 -0.019153282 -0.057927858 -0.13308588
-0.030609177 -0.026478011 -0.006024198 -0.14646319 -0.08739843 0.11669846 0.08162349 -0.1509845
-0.093781345 0.07974213 0.015903605 -0.20181805 -0.020323552 -0.02882804 -0.0050114794 -0.06737801
-0.10893716 0.057886504 -0.08384869 0.01307065 0.15531549 0.011946218 0.06663185 -0.16883722
-0.0023985913 -0.027455116 -0.022720434 -0.023744635 0.034207497 -0.09610385 -0.025007697 0.007815612
-0.12114583 0.09578488 -0.1313867 -0.0003401728 -0.044367496 -0.04629089 0.1210824 0.02414091
0.15166923 -0.24461667 0.06989698 -0.08777742 0.11833559 -0.078367524 -0.06888383 0.012134635
-0.0011750666 -0.029861351 -0.04188917 -0.17113575 -0.14665185 0.14463128 -0.0884241 0.048006434
-0.044779964 0.1119871 0.041619986 -0.044240076 0.07121845 0.018259509 -0.021173522 -0.10203903
-0.0639924 0.011525535 -0.017873064 -0.050035384
00000000: 8ead 24be c5b3 663d 302a 053c e7a0 ddbd
00000010: ef32 6a3d 18c5 3e3d f333 7cbd 8536 993d
00000020: 685f ad3d dc01 ecbd b1bb 04be c72a a4bd
00000030: 55bc 3fbd fe37 1e3e bd93 253e 7e83 6cbd
00000040: 49b2 1f3e c645 24bd 287b 953b 9067 8fbc
00000050: d71b c0bc 6571 bebc 56ea 053d 88c3 12bc
00000060: bd1d 503d 4465 abbd 31fd 18be a99c 16bd
00000070: 9092 d5bd 58e7 9cbc c345 6dbd aa47 08be
00000080: 19c0 fabc 6ae8 d8bc a366 c5bb 72fa 15be
00000090: f3fd b2bd 9aff ee3d 372a a73d ae9b 1abe
000000a0: 6f10 c0bd d84f a33d 4748 823c 64a9 4ebe
000000b0: 947d a6bc c828 ecbc 5637 a4bb 7bfd 89bd
000000c0: 721a dfbd 661a 6d3d ddb8 abbd 4826 563c
000000d0: 060b 1f3e 12ba 433c 4876 883d aae3 2cbe
000000e0: af31 1dbb 8de9 e0bc 3420 babc 1c84 c2bc
000000f0: 291d 0c3d 18d2 c4bd f1dc ccbc 0d0d 003c
00000100: 4e1b f8bd dd2a c43d 3c8a 06be 3859 b2b9
00000110: b1ba 35bd 849b 3dbd 0dfa f73d 28c3 c53c
00000120: 2e4f 1b3e cb7c 7abe 2626 8f3d a6c4 b3bd
00000130: ee59 f23d 277f a0bd f712 8dbd 59d0 463c
00000140: b104 9aba cb9f f4bc fa93 2bbd 363e 2fbe
00000150: e72b 16be 391a 143e b217 b5bd 65a2 443d
00000160: 326b 37bd 7e59 e53d b879 2a3d 1535 35bd
00000170: fbda 913d f794 953c 1874 adbc d7f9 d0bd
00000180: 730e 83bd 99d5 3c3c 886a 92bc e7f1 4cbd
