rk_ckpts_v4/model_N10_L2_g1_lr0p075_seed0.pt (torch, 3869 bytes, 5 tensors)

hid.0.weight f4 [10, 2]
-1.254113 -1.2657961 -0.2956613 -1.1279055 0.3520217 -0.3100709 -0.8329212 1.3285003
-0.061447985 2.2701972 0.82024 -0.3165057 -0.08214856 0.94854474 -0.004548508 0.012461392
-2.0290353 0.583676 1.605492 0.9362122
00000000: c686 a0bf 9b05 a2bf eb60 97be 355f 90bf
00000010: 303c b43e 9dc1 9ebe 533a 55bf 4c0c aa3f
00000020: e2b0 7bbd e94a 1140 40fb 513f 090d a2be
00000030: 813d a8bd d4d3 723f a70b 95bb de2a 4c3c
00000040: b7db 01c0 ca6b 153f c380 cd3f 9aab 6f3f

hid.0.bias f4 [10]
-0.26666012 -0.41193762 -0.15275402 -0.5030129 -1.1791424 -0.23587456 0.21002138 0.9940276
1.0510226 0.92122895
00000000: ad87 88be 7de9 d2be 8d6b 1cbe 74c5 00bf
00000010: 23ee 96bf 1a89 71be d80f 573e 9878 7e3f
00000020: e987 863f a9d5 6b3f

hid.1.weight f4 [10, 10]
-0.46356317 -0.34161308 0.5192534 -0.34601933 -0.23637952 0.2976279 -0.2097719 0.22241642
0.28592524 0.2076498 0.112635456 -0.55483776 0.21558492 -0.3982707 -0.09876304 -0.26733825
-0.40214303 -0.5941707 0.5457223 0.29350382 0.23566324 0.7004816 -0.15142258 0.18668927
-0.18901716 -0.0027196573 -0.03793429 -0.12781328 -0.27656242 -0.67408156 0.15480874 0.27016306
-0.38289148 -0.36046863 -0.2125032 -0.037354045 -0.08189965 -0.031825207 0.047823235 0.34731632
0.3500161 -0.10974286 0.38336107 0.5710773 -0.34281862 0.42882255 0.19525649 -0.46638325
0.03437754 -0.0117238285 -0.00084502203 0.36849582 0.39004686 -0.20033962 -0.38910666 -0.40627724
0.21334945 -0.1208016 0.66166496 -0.06398794 -0.4280354 0.14602686 0.1794058 -0.15236291
0.37321076 -0.14796673 0.015302634 0.59025025 -0.40895376 -0.011721058 -0.3453241 -0.68154824
-0.09802052 -0.17121775 0.060513657 -0.2935167 0.25832388 0.16425222 0.27146378 0.16039965
-0.16622852 -0.0048899013 0.36021954 -0.060199164 -0.9163018 -0.041793887 0.055031557 -0.28487432
-0.16883935 0.83298963 -0.008989423 -0.71364576 -0.11113236 -0.030425264 -0.257931 -0.014589801
-0.49966568 -0.44590238 0.82996935 0.2187442
00000000: 2758 edbe e9e7 aebe caed 043f 7229 b1be
00000010: 790d 72be af62 983e 72ce 56be 21c1 633e
00000020: cb64 923e 26a2 543e 6bad e63d d909 0ebf
00000030: 4bc2 5c3e 23ea cbbe 4744 cabd 8fe0 88be
00000040: b1e5 cdbe 921b 18bf 75b4 0b3f 2246 963e
00000050: b451 713e c352 333f 850e 1bbe 792b 3f3e
00000060: b78d 41be 473c 32bb fc60 1bbd 7ce1 02be
00000070: 9799 8dbe 9c90 2cbf 2f86 1e3e d052 8a3e
00000080: 5a0a c4be 588f b8be 709a 59be 8e00 19bd
00000090: 01bb a7bd 265b 02bd 4ce2 433d 72d3 b13e
000000a0: 4f35 b33e ddc0 e0bd e747 c43e 1f32 123f
000000b0: ec85 afbe a18e db3e 51f1 473e c9c9 eebe
000000c0: 77cf 0c3d 4d15 40bc 7884 5dba 7cab bc3e
000000d0: 39b4 c73e d425 4dbe fd38 c7be 9203 d0be
000000e0: 4778 5a3e d466 f7bd e062 293f 1c0c 83bd
000000f0: 7527 dbbe 1188 153e 27b6 373e 0605 1cbe
00000100: 7b15 bf3e 9784 17be e6b7 7a3c a41a 173f
00000110: 6362 d1be ae09 40bc 52ce b0be f279 2ebf
00000120: fbbe c8bd b553 2fbe 2bdd 773d d247 96be
00000130: 0743 843e bc31 283e 4dfd 8a3e ce3f 243e
00000140: cf37 2abe 773b a0bb b26e b83e 6693 76bd
00000150: c192 6abf 1130 2bbd c568 613d 0cdb 91be
00000160: 39e4 2cbe cf3e 553f 5f48 13bc 7db1 36bf
00000170: 5d99 e3bd 673e f9bc 880f 84be 100a 6fbc
00000180: 2ed4 ffbe 514d e4be df78 543f 7bfe 5f3e

hid.1.bias f4 [10]
-0.07570895 -0.14891177 -0.005943253 -0.17444554 -0.23065947 -0.113916285 0.012047231 -0.08339998
-0.10865099 -0.29545265
00000000: 4b0d 9bbd 547c 18be 9fbf c2bb daa1 32be
00000010: ff31 6cbe f14c e9bd c061 453c 9ccd aabd
00000020: 6984 debd 9245 97be

out.weight f4 [1, 10]
0.37500304 0.47229493 -0.31070468 0.44651875 0.6234465 0.65579695 -0.39259982 0.74713266
0.81323475 0.8219732
00000000: 6600 c03e a4d0 f13e af14 9fbe 1b9e e43e
00000010: 319a 1f3f 4fe2 273f d802 c9be 1644 3f3f
00000020: 2730 503f d66c 523f
