rk_ckpts_v4/model_N200_L6_g0p9_lr0p1_seed2.pt (torch, 812869 bytes, 13 tensors)

hid.0.weight f4 [200, 2]
000000 44 3f 99 3f 79 de 86 3e 77 04 ba 3d 84 b0 17 be
       1.1972432 0.26341608 0.09082883 -0.14813429
000010 95 88 29 be d8 06 f1 3e 9f bf 28 be a4 7c b0 3f
       -0.16556008 0.47075534 -0.16479348 1.3788037
000020 6e bc 0d 3f e8 7f 0a bf 93 4b 6f be 27 43 7d be
       0.55365646 -0.5410142 -0.23368673 -0.24732648
000030 1a 57 80 bf 51 96 09 3f 32 e0 63 be 9b 87 96 bf
       -1.0026581 0.5374499 -0.22253492 -1.1760134
000040 1a bd bd be 6c 13 6b be 4d a7 84 bd b8 6b c5 3f
       -0.37058336 -0.22956628 -0.064772226 1.5423498
000050 9c 0e 77 3e ba 14 a6 bf 6d 55 d9 be 3c 87 9d 3e
       0.24126667 -1.2975075 -0.42447987 0.30767238
000060 11 4a 0b bf bb 51 b5 be 14 a9 01 40 f9 d5 8f 3c
       -0.5440989 -0.35413918 2.0259447 0.017558085
000070 89 89 9b be 03 ff 9e 3d 04 5a c1 3f 33 0f 50 3f
       -0.30378368 0.077634834 1.5105596 0.8127319
000080 3c c9 1e 3e fe d0 be bc 8e e3 15 be 3c 91 95 bf
       0.15506452 -0.023293015 -0.14637586 -1.1684947
000090 4c 42 d5 be e0 41 80 3d 89 ec 68 3f 38 bb 40 bd
       -0.41652143 0.06262565 0.90985924 -0.047053546
0000a0 af 85 d4 be 9d 9d 2f 3f 95 39 55 bf 8d 34 7d bf
       -0.41508242 0.68599874 -0.8329099 -0.9890831
0000b0 6f 52 06 be 22 c8 c6 bd 47 75 ef 3e 57 c8 c7 3e
       -0.13117383 -0.09706141 0.46769163 0.39020035
0000c0 76 79 6e 3f 08 65 39 3f de 70 04 3f 11 e6 59 3e
       0.93154085 0.72419786 0.5173472 0.2127917
0000d0 c8 c6 49 3f fa 84 01 be 91 f3 33 bd 81 7f d4 3e
       0.7881894 -0.12648383 -0.043933455 0.41503528
0000e0 7b 15 99 be 5a 93 7c be c1 d1 f2 bd b5 38 51 3d
       -0.298992 -0.24665585 -0.11856414 0.05107947
0000f0 6d 29 f0 3e 41 95 69 bf f8 84 2d 3f 37 dd 60 be
       0.46906605 -0.9124337 0.6778102 -0.21959387
000100 49 6b 37 3e 1c 0b a0 bf e0 24 c5 3e 69 ae 92 be
       0.1791202 -1.250339 0.38504696 -0.2864869
000110 7c 32 98 be b7 38 b3 3e 63 46 5b bf 93 b1 bf be
       -0.29726017 0.35004207 -0.85654277 -0.37440166
000120 01 04 e8 3f b4 5c a6 3f 32 c4 1e 3f 65 22 cd 3d
       1.8126222 1.2997041 0.6201812 0.10016326
000130 93 e7 7e 3f 10 09 0a bf 66 62 71 3f ae 3c 3e bd
       0.99572104 -0.5392008 0.9429077 -0.046444587
000140 88 7d dd 3d 33 5b bb be 95 10 c1 3e e1 64 b3 3e
       0.10814959 -0.36593017 0.37707964 0.35037902
000150 2f 1f ff 3d 95 4f a5 be 89 32 bb 3e 55 56 0b 3f
       0.1245712 -0.3228728 0.36561993 0.5442861
000160 12 9d 04 bf 93 11 28 bf 7a b9 d4 3f 36 47 7a 3f
       -0.5180217 -0.65651816 1.6619103 0.9776491
000170 b7 70 25 bf fc c1 70 bf 3a cc 0e 3f ed 40 47 be
       -0.64625114 -0.94045997 0.55780375 -0.19458361
000180 50 ba f0 bd ba 08 2c 3f e5 7e aa bd 36 f0 62 3f
       -0.11754286 0.67200816 -0.083249845 0.8864778
000190 9a 8c a1 3f 3f f4 d1 3e 70 a4 1c 3f 7a 3f b8 3e
       1.2621033 0.41006657 0.6118841 0.3598593
0001a0 68 e9 15 bf 06 ac 90 3f cc 61 27 3f ca 7b 53 be
       -0.58559275 1.1302497 0.653836 -0.2065269
0001b0 4e cb ab 3e 88 b7 37 3e e1 c3 c2 3e 68 df 84 3e
       0.33553547 0.17941105 0.3804007 0.25951695
0001c0 77 15 84 be 54 16 9a bf be ca d4 3e 4b 97 69 3e
       -0.25797626 -1.2038064 0.4156093 0.2281162
0001d0 35 dd 2b 3f d2 7a 6f be da 1e 48 3f 9e ac fa bd
       0.6713441 -0.23386696 0.78172076 -0.12239955
0001e0 39 7e 86 bf 01 b5 56 3e 9e 0a de 3d 35 11 f5 be
       -1.050727 0.20967485 0.10841869 -0.4786469
0001f0 fe 9d 27 bf 85 52 4c 3f d7 37 80 3e a6 10 b8 3f
       -0.6547545 0.79813415 0.25042602 1.4380081
000200 22 b1 9b 3e 1f 71 bb 3f ef ef 02 bf 39 cf ae 3d
       0.3040858 1.4643897 -0.5114736 0.08535618
000210 93 18 92 be 01 02 f3 3e 9e 8e 39 3f 97 ce 1e 3f
       -0.28534374 0.47462466 0.7248324 0.6203398
000220 1b 56 10 be 5b f2 3f bf e8 83 4b bf dc 72 65 3f
       -0.14095347 -0.7497918 -0.7949815 0.89628386
000230 4c d6 31 3f 2d de 9d 3f d7 02 6c 3f f1 c5 25 bf
       0.69467616 1.2333428 0.92191833 -0.6475516
000240 ea 70 3e 3d 0b e2 77 be 37 02 02 3f 5c 9f 3b bf
       0.046494402 -0.24207322 0.5078463 -0.7329004
000250 90 2d 32 3f 31 45 5f 3e b7 a7 94 be 78 7d 93 bf
       0.6960077 0.21803738 -0.29034206 -1.1522665
000260 51 d8 dc bd 22 fe 8a 3e 45 2a 09 3f e3 c3 ac bf
       -0.107834466 0.27147013 0.53580123 -1.349728
000270 57 cc 21 bf 1c 4e 48 3f 08 9d 49 bf c0 68 95 bd
       -0.6320242 0.78244185 -0.78755236 -0.0729537
000280 66 b8 37 bf d7 e6 46 3f 41 b0 30 bf ef 31 b7 3e
       -0.71765745 0.77695984 -0.6901894 0.35780284
000290 ad 66 b4 3e 38 18 25 be 2b 28 24 3f 3d 39 34 bf
       0.35234585 -0.1612252 0.6412379 -0.7039984
0002a0 bb 1c af bf e7 fd 8d bf ba 9b 9f be d1 5d c6 3f
       -1.3680643 -1.109311 -0.31173497 1.549738
0002b0 a4 4d 97 be a5 bd 37 bf c2 6e 2a 3f 41 be 02 3f
       -0.29551423 -0.7177375 0.66575253 0.51071554
0002c0 91 47 06 3e a8 6d 8d 3e 7b b3 89 be 06 55 8a bf
       0.13113238 0.27622724 -0.26894745 -1.0807197
0002d0 4d 43 2f be 35 83 c7 3e 88 8b 9b be c5 79 03 bf
       -0.17115517 0.3896729 -0.3037989 -0.5135768
0002e0 2e ee 2f bf e3 30 08 3f 0c 15 6e be fb 96 ce 3e
       -0.6872281 0.53199595 -0.23250216 0.40349564
0002f0 d4 80 90 be 89 6f 25 bf b3 4f b5 3e bc 47 b0 3d
       -0.28223288 -0.64623314 0.35412368 0.08607432
000300 6c 9a c6 3e ed 70 7c bf 05 7f 3a 3f 79 85 03 bf
       0.3878969 -0.9860981 0.72850066 -0.5137554
000310 59 a7 05 bf 96 f9 94 3f 32 ba 7b bf 8d 1d a1 3e
       -0.5220848 1.1638668 -0.98330986 0.31467858
000320 13 6e eb be d2 27 92 3f 44 7f 77 3f 3f 1e 26 3f
       -0.45982417 1.1418402 0.96678567 0.648899
000330 e2 a1 11 bf 13 41 e7 be c5 d9 fc 3e 6c 5b 29 bf
       -0.5688764 -0.45166835 0.49384895 -0.66155124
000340 37 22 c9 3e cf bf fa 3e f1 9b 0d bf 15 d6 3b 3f
       0.39283916 0.48974463 -0.5531607 0.7337354
000350 5b 16 4b 3f e9 b2 07 be 94 c6 19 3e c3 2b 11 3e
       0.79330987 -0.13251843 0.15017158 0.1417685
000360 d2 5d 4a 3e 5f 01 8d 3d c2 4c 2e 3f ea e7 79 3e
       0.19762352 0.06885027 0.68085873 0.24404874
000370 65 66 76 3f ec ba 21 bf ce 31 45 be 89 9d f1 bd
       0.9624999 -0.63175845 -0.1925728 -0.117976256
000380 6d 09 94 3f 97 10 36 3f d9 42 95 3e d9 88 66 be
       1.1565377 0.71119064 0.29152563 -0.2251314
000390 3a 24 00 3d e9 3b 6b bf 1f 8f ec bd fa 04 46 bf
       0.03128455 -0.9188829 -0.11550736 -0.77351344
0003a0 c6 89 c1 be 36 86 64 3f 69 36 26 bf f2 0c ab 3f
       -0.37800425 0.8926729 -0.64926773 1.3363326
0003b0 11 40 22 bf dc dc 64 3f b7 3c 03 3f 2d 92 09 3e
       -0.6337901 0.89399505 0.5126452 0.13434668
0003c0 e7 22 44 bf e4 b2 29 bf f7 3c 07 3e fd b0 d7 3e
       -0.76615757 -0.6628859 0.1320685 0.4212722
0003d0 b6 3d 73 3e 6d f2 7b bb c9 62 64 3d c2 ba 15 3f
       0.2375401 -0.0038444058 0.05575827 0.58488095
0003e0 7c 3d 9b 3f 0b a0 d8 3e c1 47 80 3f b2 88 78 ba
       1.2128139 0.42309603 1.0021898 -0.00094808184
0003f0 74 32 33 3f 48 11 83 3d 5e 43 4b 3f d6 69 54 bf
       0.6999886 0.063997805 0.7939967 -0.8297399

hid.0.bias f4 [200]
000000 97 15 42 3e 37 17 b5 3e 66 82 50 3d 3d 02 b2 3e
       0.18953548 0.35369274 0.050905608 0.34767333
000010 ca 59 1d 3d e6 01 34 3d 1f ed 83 3c 45 94 9e 3e
       0.038415708 0.043947123 0.01610428 0.30972496
000020 75 a4 7e 3e a3 1d b3 3e 67 62 8f 3e c7 a7 17 3c
       0.24867423 0.3498355 0.28004763 0.00925631
000030 dc b6 9c 3c 6d a4 9d be 3a 5f 01 bd 9b 1a 07 bf
       0.019130163 -0.3078951 -0.031584956 -0.5277497
000040 30 21 e0 3e d7 62 33 be 82 02 6d bd ab 9b 75 3d
       0.4377532 -0.17518173 -0.05786372 0.05996291
000050 36 69 c8 ba 14 94 a4 bd 6b c6 3a 3e e4 e2 ed bd
       -0.0015290144 -0.08036056 0.18239753 -0.116155416
000060 90 b2 7a be 3f 5b ce bb 08 0e ac bd c4 7d 18 3d
       -0.24482179 -0.0062974985 -0.08401114 0.037229314
000070 f7 2f 57 3d 2c 2b 9d 3e d2 1b a6 3d cc 20 57 3c
       0.052535977 0.30697 0.08110775 0.013130378
000080 03 b7 bd 3d bf 4a 31 be 09 62 00 3e 95 3e 45 bd
       0.09263422 -0.1731367 0.12537397 -0.048155386
000090 eb 18 14 3e a8 0a 82 bc fb 14 4d 3e ae 02 0f 3d
       0.1446263 -0.015874222 0.20027535 0.034914665
0000a0 ee 90 a9 3d ff 1e 93 3d 2b 8f a0 3d 15 5b 09 be
       0.08279596 0.071836464 0.07839807 -0.13413651
0000b0 1f a2 12 bd 61 9a 03 3f b5 cd 8a 3e 23 71 09 3e
       -0.035799142 0.5140744 0.27110067 0.13422064
0000c0 cc 1d 3e 3d 8a 85 aa 3c 8b 57 d4 be 4b 10 cd bb
       0.046415135 0.02081563 -0.4147304 -0.006258046
0000d0 36 df 69 3d 1e ec a4 3d 62 e3 0b 3d 7e 00 9a bd
       0.057097636 0.08052848 0.034152396 -0.07519625
0000e0 82 66 f2 be 00 21 3a be 33 fd 50 be ce 20 a8 bc
       -0.47343832 -0.18176651 -0.20409088 -0.020523455
0000f0 dd 09 a8 3e 20 ed eb bd 54 cd d3 3c 13 ae 69 be
       0.32820025 -0.115198374 0.025854744 -0.2282031
000100 b0 05 b0 be 38 b9 3a 3e 68 2a 24 3e cf d7 f1 3d
       -0.3437934 0.18234718 0.16031802 0.1180874
000110 91 d0 9e 3c a0 09 27 3e b3 80 a7 be b0 ae 0f 3e
       0.019386562 0.16312265 -0.32715377 0.14031482
000120 27 d2 8c bd 06 bb e2 bd aa 9e 85 bd 7f b1 2a 3e
       -0.06876021 -0.11070828 -0.065244034 0.16669272
000130 57 eb 5b 3e 71 d8 4e 3c ca d3 e4 bd c1 ca ff 3d
       0.21476494 0.012624846 -0.11173208 0.12489844
000140 cb 2a a5 3d 09 09 a5 bd 6f 0e d1 3d d6 7a bc 3d
       0.08064803 -0.08058364 0.10207831 0.092031166
000150 fb 66 2b be 99 3c e9 3d 34 37 dc bd 47 86 08 3e
       -0.16738503 0.11388511 -0.10752717 0.13332473
000160 be bb ff 3d 12 0f 25 be 20 20 cb bd da 0c 5b bb
       0.12486981 -0.1611903 -0.09918237 -0.0033424408
000170 5b 8c aa 3d c7 4c 45 3d 7f 6b 4b bc a3 dd 2e 3e
       0.08327552 0.048168924 -0.012415766 0.17076735
000180 b2 10 90 be db b0 21 be b3 f5 75 3d ef 70 9c be
       -0.28137738 -0.15790121 0.06004877 -0.30554911
000190 4b 81 24 3e 26 d4 24 be 2c a4 3c 3d 77 ea 1d be
       0.16064946 -0.16096553 0.046055004 -0.15421472
0001a0 eb 7b a6 bd f5 2c c9 3b 1c 50 ce 3d 39 d3 2b be
       -0.08129104 0.0061393925 0.100738734 -0.16779794
0001b0 68 43 83 bd 91 bf 82 bc f2 e8 5f ba 18 60 0a bd
       -0.06409341 -0.015960487 -0.00085414865 -0.03378305
0001c0 8e c5 38 3d c7 d7 6f bd f5 46 99 3e fe c9 d1 bc
       0.045110278 -0.05855539 0.29936948 -0.025609013
0001d0 6d d1 3b be dc 73 67 be cc 8f a8 3e d4 79 86 ba
       -0.18341608 -0.2260279 0.32922208 -0.0010259696
0001e0 51 d6 48 be 3b 60 2d be 34 43 1f 3e ea 0c 10 bd
       -0.19613005 -0.1693124 0.1555298 -0.035168566
0001f0 8d 97 8b 3e 87 cd 76 be 61 ea 80 3b a7 10 4f be
       0.27264062 -0.2410184 0.00393419 -0.20221196
000200 a4 58 1f be f8 fa cd 3e 68 89 09 3e ef 44 08 bc
       -0.15561157 0.40230536 0.13431323 -0.008317216
000210 d7 23 43 3e 72 8e 01 be e6 45 8c 3e 01 70 35 3e
       0.1905664 -0.12651995 0.27397078 0.17718507
000220 8a 42 be 3e 87 9d b3 3d 89 72 2d 3e 0d b5 f0 3d
       0.3716014 0.0877028 0.16938223 0.11753283
000230 27 f7 06 3d 92 89 52 3e e6 19 8b be 5e a7 b5 bb
       0.032950547 0.20560291 -0.27168196 -0.0055436334
000240 e9 9c fe be 63 b2 8d bc fa 9e 06 3d fb b1 19 3e
       -0.49729088 -0.017296975 0.032866456 0.150093
000250 f6 25 72 3e 80 53 2e be 51 61 64 bd f6 25 f5 be
       0.23647293 -0.1702404 -0.05575687 -0.47880524
000260 d3 45 39 be f7 cd 17 3e b1 21 2a 3e 0a 4b ae 3d
       -0.18093042 0.14824663 0.16614415 0.08510406
000270 06 62 86 bc d6 55 b4 be c5 11 c4 3c a9 c1 f3 bd
       -0.016404163 -0.35221738 0.023934254 -0.11902172
000280 9b 23 c6 be a0 72 7b be ff 6d bd 3e 69 20 27 3b
       -0.3869904 -0.24555445 0.36997983 0.0025501496
000290 05 e1 01 bd 07 52 24 bd 33 ee 29 3d 3f 90 21 3e
       -0.031708736 -0.04011729 0.04148693 0.15777682
0002a0 ed 20 48 bd ca cc 34 be cb ca 89 3e e1 b3 df be
       -0.048859525 -0.17656246 0.2691253 -0.43691924
0002b0 ea a1 2c be 3f d3 33 be 8c b0 b5 3d 53 52 66 bd
       -0.1685864 -0.17561053 0.08871564 -0.056230854
0002c0 28 89 38 3e d2 26 1a 3e 5f ad f5 bb d6 6b c2 3d
       0.18021071 0.15053871 -0.007497474 0.09493224
0002d0 5d 59 c8 bb bd 0c 27 bd 60 a1 50 3e 33 00 13 bf
       -0.0061141686 -0.040783633 0.2037406 -0.5742218
0002e0 fe a1 30 be ff f9 1b 3e bc d3 16 3e 24 25 ad bc
       -0.17249295 0.15232085 0.14729208 -0.021135874
0002f0 c4 05 88 be ac bf 4c bd 6f db 22 3d 69 32 d2 3c
       -0.265669 -0.04998748 0.03976005 0.025658803
000300 eb e0 22 be 81 91 25 3d 86 3c 96 bd a6 b9 ca 3c
       -0.15906112 0.040421966 -0.07335763 0.024746727
000310 5c 84 fa 3d 8b 56 aa 3d 33 22 af 3d 12 45 ca bd
       0.12232277 0.08317288 0.08551445 -0.09876455

hid.1.weight f4 [200, 200]
000000 2c f7 58 bd a0 ae 6c ba b8 00 6e 39 ba cd 83 bd
       -0.052970096 -0.00090287067 0.00022697716 -0.064357236
000010 26 8c 00 3e ab f0 b8 3c 4d 58 13 bd 99 ca e1 bd
       0.12553462 0.022575697 -0.035972882 -0.110249706
000020 75 80 16 be d0 fa 30 be 17 9b 75 bc 24 42 e5 3d
       -0.1469744 -0.17283177 -0.01499059 0.11194256
000030 f5 a6 68 3d 37 17 46 bb 43 e6 3d 3c 4b 71 b9 3d
       0.056799848 -0.003022624 0.011590543 0.09054812
000040 3e 08 09 3e 6d 61 0b 3d 95 ec 83 bc 77 21 9f bc
       0.1338205 0.03402846 -0.016104022 -0.019425137
000050 9b af e3 3a 8d 68 b0 3c 3b f3 80 bc c5 c1 f8 3c
       0.001737106 0.021534229 -0.015740981 0.030365834
000060 73 45 ed bd 4f f9 9a 3b da 2d f4 3d 12 a4 8f bd
       -0.11585512 0.004729427 0.11922808 -0.07013716
000070 dd c6 c8 bd 84 ff e8 bd 12 5b 98 bd ed 5f 3a 3d
       -0.09803555 -0.11376861 -0.07439245 0.04550164
000080 d1 af 15 be 2d 9c be 3c 87 2e 23 3d 7f 1e 25 bc
       -0.1461785 0.02326783 0.039839294 -0.010078072
000090 e9 00 fe 3d 19 f5 d5 3b 86 c5 0b be 90 30 c4 bb
       0.12402517 0.006529462 -0.13649568 -0.0059872344
0000a0 91 30 91 3c db 4e e2 bd a3 7e 15 bc fa 18 d8 3d
       0.017723354 -0.11050197 -0.009124431 0.10551639
0000b0 ee e2 54 3d bc 46 f7 bc 72 16 be bd 53 b9 4a 3c
       0.05197423 -0.030185096 -0.09281625 0.012373286
0000c0 b5 73 af bc f3 7c 49 3d 5d 97 85 bc 10 1d 4e bc
       -0.021417478 0.049191426 -0.016307527 -0.012580171
0000d0 a5 a4 a3 3c 9d c8 53 bc fa c5 35 3d 2f f0 ef bd
       0.01997597 -0.012926248 0.04437826 -0.11715733
0000e0 63 ab b8 bc 07 aa 57 3a f4 a5 10 bd 6a af 41 bd
       -0.022542661 0.0008226935 -0.035314515 -0.04728643
0000f0 50 96 b8 bc 23 c0 50 3d a8 6f 24 3d 45 45 99 3c
       -0.022532612 0.050964486 0.040145546 0.018709788
000100 f5 fc ba 3d 09 7e 49 be 6c 65 72 bb 26 1c 7d bd
       0.09130279 -0.19676985 -0.0036986722 -0.061794423
000110 88 df 5b bd 22 ff e5 3d a5 14 a0 bc 9e 1e d2 3d
       -0.053679973 0.11230303 -0.019541094 0.10259746
000120 d6 f9 4d 3d 1a 4c a2 bd 26 a0 4a 3c d8 2a 86 3d
       0.05028709 -0.079246715 0.012367284 0.065511405
000130 d6 f3 bf bd 0a 9e 66 bd c4 33 3d bd 6b 33 02 3d
       -0.0937268 -0.05630306 -0.046191946 0.031787317
000140 28 ad d4 bd 30 5e a6 3d cd fd f2 3b 87 83 3a bd
       -0.103845894 0.081234336 0.0074155093 -0.04553559
000150 b4 40 36 3d 35 d5 d6 3d 56 6b 99 3d 3b 4e 6d 3d
       0.0444953 0.10489885 0.07491176 0.057935935
000160 60 c5 a7 3c 4a 0e a7 bc 6a 41 5a 3c e4 e8 51 bc
       0.020479858 -0.020392556 0.01332126 -0.012811873
000170 1c e7 91 3d bd f7 e7 3b cb 92 9c bc 1a 2f d3 bd
       0.07124159 0.0070790933 -0.019112965 -0.10311718
000180 8a 1f 87 bc 19 56 0e bc a9 9c e0 bd b7 20 1d 3d
       -0.016494531 -0.0086875195 -0.109673806 0.038361277
000190 c1 73 9f bd 79 0a 01 bc 05 67 c1 bd b1 c5 cf bc
       -0.0778575 -0.007876032 -0.094434775 -0.025362821
0001a0 82 14 15 3e 2d 5f aa bd d4 a6 ba 3d aa a2 95 bd
       0.14558604 -0.083189346 0.09113851 -0.07306416
0001b0 01 ec d3 3d 42 63 c3 3d 06 db 61 3c 3d 7d 02 be
       0.103477485 0.09540416 0.013785129 -0.12743087
0001c0 76 43 e1 bc 2a 9b 41 3d 32 00 3c 3b d8 c9 3c bd
       -0.027497988 0.047267117 0.002868664 -0.04609093
0001d0 33 c2 e2 3c 2b 58 38 bd df a3 d9 bb c8 01 f6 bc
       0.027680492 -0.04500596 -0.0066418494 -0.030030146
0001e0 d0 b2 a5 3d dd 9a 8f 3c 17 7b a5 3c 8e c0 8f bd
       0.080907464 0.0175299 0.020200295 -0.07019149
0001f0 5e a6 93 bd dd 07 88 bd ce 62 27 3d fb 6e dc bd
       -0.072094664 -0.06642125 0.040865712 -0.10763355
000200 c2 39 7b bd cf 8d 08 3c cf 91 75 3c 8b 3f da bd
       -0.06133438 0.008334591 0.014988377 -0.10656651
000210 a6 c2 a1 bc ac 40 a6 bd 8a f1 a4 3d 86 c1 5e bd
       -0.019746136 -0.08117804 0.080538824 -0.054383777
000220 99 f5 f4 bd b9 42 39 3d 49 e7 8d 3d 36 b5 60 3d
       -0.119609065 0.045229647 0.0692888 0.054860316
000230 cd 2a 64 3d dc 1f 79 bc a3 89 56 3d a7 d3 74 bd
       0.05570488 -0.01520535 0.052377354 -0.05977216
000240 a4 33 6f 3d 29 80 83 bd 54 6b df 3d de 95 19 bd
       0.058398858 -0.06420929 0.10909143 -0.03749644
000250 8f 26 bd bb a6 dd 6f 3d 9d d9 13 bd a1 ac ad 3d
       -0.005772419 0.05856099 -0.036096204 0.08480192
000260 39 ed bc 3c cc a0 d8 bd 0b 9b 25 3d 64 c3 80 bd
       0.023062335 -0.105775446 0.040431064 -0.06287268
000270 6e 2f 18 bc 7c ef 15 be be 27 a3 3a 1b af cc bd
       -0.009288652 -0.14642137 0.0012447757 -0.09994336
000280 b8 3a 82 3a c7 a8 b7 3c 37 53 86 bd 36 78 9f bd
       0.0009935712 0.022419346 -0.06558841 -0.077866
000290 f2 a0 99 bd 99 8b 3b 3b 92 24 88 3d 05 ce 91 3d
       -0.07501401 0.0028617142 0.066476 0.07119373
0002a0 1a a3 89 3c 72 d1 70 bc b5 1f 9d 3d ad 1b 84 3d
       0.016801406 -0.014698373 0.07672063 0.06450591
0002b0 ef f9 bf 3d d0 d4 b3 3d f6 2f bf 3c 75 c7 51 bd
       0.09373843 0.08780825 0.0233383 -0.051215608
0002c0 48 84 50 3d 06 77 ed 3c 63 6f 02 3d 83 24 c1 bc
       0.050907403 0.028987419 0.031844508 -0.02357698
0002d0 0a 50 33 3d af 38 1e bd 47 12 d6 bd ac ff 02 3d
       0.043777503 -0.038628276 -0.10452705 0.03198211
0002e0 57 b5 7b bc 67 9a 65 bd 5b a9 ff 3d d1 44 c9 3c
       -0.015363059 -0.056055453 0.12483474 0.024568947
0002f0 82 ac 7c 3c 45 91 2b bd c8 9e 31 3d e4 f2 72 bc
       0.015421988 -0.041886587 0.043364316 -0.014828417
000300 f7 c3 27 3d 4f b2 5c 3d a9 65 90 3c d0 1a ad 3d
       0.04095837 0.053880986 0.0176266 0.0845238
000310 ab 0b 9b 3d 8b b6 41 bc c8 9d 8e bd 36 cd 63 bd
       0.07570585 -0.011823307 -0.06963688 -0.055615626
000320 b9 a7 b4 3c ad d1 e9 bc 3b d1 2c 3e cf c8 16 3e
       0.022052633 -0.028542364 0.1687669 0.1472504
000330 47 51 11 3d 34 bb 01 be a6 54 e5 bb 03 23 86 bd
       0.035477903 -0.12669069 -0.0069986163 -0.06549647
000340 4e 88 25 3c 57 91 2b bc 31 c1 67 3c 86 69 31 bd
       0.010103298 -0.010471663 0.0141451815 -0.043313526
000350 4e 26 8f 3c c0 73 f2 3c 93 76 b4 3d f7 21 15 be
       0.01747432 0.02959621 0.08811679 -0.14563738
000360 f6 02 d0 3b a3 34 d3 bd a1 b4 ee 3c 9e 56 0b 3d
       0.006348009 -0.10312774 0.029138865 0.03401815
000370 59 08 bc 3c 99 a8 6a bd 9d 35 69 bd ea c5 c5 3c
       0.0229532 -0.057289694 -0.056935895 0.024142224
000380 11 e6 75 3a a7 0b 23 bd 30 ee 33 bd 8e b8 18 3d
       0.0009380291 -0.039806034 -0.043928325 0.03728538
000390 a0 70 0a bd 6d 81 96 bb f8 8b ed 3d 73 49 10 bd
       -0.033798814 -0.0045930655 0.115989625 -0.035226297
0003a0 61 f3 be bd 35 20 c2 3c 22 40 28 bd 1b 18 d6 3c
       -0.093237646 0.023696998 -0.041076787 0.026134541
0003b0 6c 5f 94 3c c7 18 e9 3d 0e 93 a6 3d 6c 2e 0f 3d
       0.018111907 0.11381679 0.08133517 0.03495638
0003c0 89 2f 0a bd c8 d4 26 3d 09 bf 33 3d 4d 38 e2 3b
       -0.03373674 0.040730268 0.043883357 0.006903684
0003d0 00 e3 e7 bd 7c ea ea 3c 2a 23 b3 3d 3c 20 6a bd
       -0.11322594 0.028676264 0.087469414 -0.057159647
0003e0 02 b0 78 3b 94 55 8e 3d cf 73 91 bc 94 ca 71 3d
       0.0037946706 0.069499165 -0.017755417 0.059031084
0003f0 5d c8 98 bd 4e ba 40 3c d3 0b 11 3e a2 16 c6 bc
       -0.07460091 0.0117631685 0.14164667 -0.024180714

hid.1.bias f4 [200]
000000 2c b3 1c 3b f3 50 91 bb 8e 93 fd 39 3a fb 30 3b
       0.0023910506 -0.0044346987 0.00048365857 0.0027005211
000010 23 c0 b1 3a 3f 1c 8e bb d8 d5 f9 3a ea 19 12 b9
       0.001356129 -0.0043368633 0.0019060923 -0.00013933299
000020 07 6e 46 3b f3 7c 92 ba 32 a1 fb ba 45 d8 86 ba
       0.0030277984 -0.0011176154 -0.001919782 -0.0010287842
000030 94 90 9a 3a 4e 51 e4 3a d4 4f 50 38 28 2b a8 3a
       0.0011792355 0.001741925 4.966541e-05 0.0012830244
000040 8c 39 30 3a 74 5e 03 b9 80 15 7e bb 62 f4 c3 39
       0.00067224423 -0.0001252832 -0.003877014 0.00037375378
000050 83 9b 5c bb cc fa 7b ba 36 04 45 39 54 c1 fd 3a
       -0.0033662028 -0.0009612262 0.00018788953 0.0019359984
000060 d7 c1 10 ba 91 4f f0 ba 80 34 3d 3a 54 5c 89 3a
       -0.00055220485 -0.001833426 0.0007217601 0.0010479786
000070 ee e6 3a 3a 0d 4b 64 ba 60 25 36 3a ac 36 2d 3b
       0.0007129748 -0.0008708693 0.00069483183 0.0026430292
000080 ad 6b d1 b7 6f b7 81 38 b8 e9 b3 38 4d 0a 6e ba
       -2.4964882e-05 6.1853665e-05 8.578919e-05 -0.00090805144
000090 1c b7 7f 3a c6 a9 1c bc 57 3c 5f ba 40 a6 78 bb
       0.00097547635 -0.0095619615 -0.0008515766 -0.003794089
0000a0 a8 5c 56 3a fc c3 a8 3a 5d 81 21 3b 92 3c a6 38
       0.0008177259 0.0012875791 0.0024643757 7.926779e-05
0000b0 3f 37 d6 3a e4 4e 7c b9 c8 99 03 ba 5a 41 97 b9
       0.0016343369 -0.00024061982 -0.00050201686 -0.00028849655
0000c0 13 ab 57 3b a6 77 a7 ba 45 ad 8e ba db dd 9a bb
       0.0032908365 -0.0012776747 -0.0010885379 -0.0047261543
0000d0 49 60 08 b9 8a b2 c7 39 93 7b 39 3a 4f 64 93 bb
       -0.0001300584 0.0003808926 0.0007075604 -0.0044980417
0000e0 d7 c6 31 bb 70 96 b7 3b 2b bd 87 3a ca 59 95 ba
       -0.0027126574 0.0056026503 0.0010356059 -0.0011394557
0000f0 19 95 91 bb cd 2f d1 bb f4 8d df b9 5a 75 c9 b9
       -0.0044428227 -0.006383872 -0.00042639638 -0.0003842514
000100 d6 77 77 3a df e1 59 3b b8 83 66 ba 8e cd 62 bb
       0.0009440159 0.0033246202 -0.00087934313 -0.0034607383
000110 33 77 83 b9 b5 39 ca ba 36 d1 5d b9 ff 93 0e ba
       -0.00025075077 -0.0015428575 -0.0002115414 -0.0005438923
000120 50 4d f7 b9 f1 30 f1 3a cf b2 c1 ba 99 15 08 38
       -0.00047169114 0.0018401426 -0.001477802 3.244504e-05
000130 63 2e 98 bb 53 4a f8 b9 34 4e 6d ba cf e4 cd ba
       -0.0046442016 -0.00047357622 -0.00090524857 -0.0015708449
000140 98 15 03 3b e0 6c 13 ba fb 57 49 3a 23 e5 f6 ba
       0.0020001885 -0.00056238286 0.00076806516 -0.0018836599
000150 55 61 e4 b8 31 c6 87 ba 76 08 93 39 57 49 84 b9
       -0.00010890017 -0.0010358748 0.0002804433 -0.00025231644
000160 17 49 58 bb 6d e8 aa ba 96 23 f7 3b 88 e0 97 3b
       -0.003300255 -0.0013039239 0.007542084 0.0046349205
000170 18 18 75 36 3d bb cc ba 0a 8d 88 ba 68 36 e3 39
       3.652187e-06 -0.0015619766 -0.001041801 0.0004333735
000180 ce a9 12 bb 90 ee ce 3a 09 23 2f 3b 95 9b b0 3a
       -0.0022379044 0.001578765 0.0026723763 0.0013474101
000190 c1 f9 54 bb 7e 21 1f 3b f1 3d 43 3b d5 00 07 3b
       -0.0032497498 0.0024281438 0.0029791559 0.002059986
0001a0 07 95 cf 3a 52 23 56 39 66 97 e1 3a d0 e6 f7 ba
       0.001583726 0.00020421788 0.0017211258 -0.0018913392
0001b0 b1 b1 9a 3a b9 2f 18 3b 47 0c f5 b8 72 d4 82 bb
       0.0011802224 0.0023221804 -0.00011684797 -0.0039926106
0001c0 22 d4 f9 ba 02 36 36 ba 7b 7e 24 ba 90 dd 07 ba
       -0.0019060413 -0.0006950797 -0.00062749506 -0.00051828567
0001d0 16 71 89 37 93 a9 12 bb e7 14 a6 ba fa fd 62 38
       1.6384332e-05 -0.0022378906 -0.0012671024 5.4119133e-05
0001e0 6a 5e ec 3a 5a 7d 38 ba cb f7 8f b9 79 67 a4 38
       0.0018033509 -0.0007037722 -0.00027459706 7.839403e-05
0001f0 2f 78 b8 3a e2 95 0b ba 6d 4d 13 ba 21 fb bd ba
       0.0014073903 -0.00053247635 -0.00056191423 -0.0014494398
000200 0b b4 05 3a 27 84 b4 3b 27 0e 0d bb 1b 4a c6 ba
       0.0005100376 0.005508918 -0.0021523328 -0.0015128286
000210 30 e5 78 3b 30 56 c5 3a 86 5e 04 bb d4 2d 47 3a
       0.0037978403 0.0015055593 -0.0020197942 0.00075980765
000220 46 32 ae 3a df 4a c5 bb 96 c2 86 3b 4e 9c 8f 39
       0.0013290129 -0.006020888 0.004112552 0.00027391542
000230 76 b2 17 bb 43 ce 6b 3a 42 33 c8 3b 6f 07 89 3a
       -0.0023147142 0.0008995274 0.006109626 0.0010454486
000240 17 82 55 3a 42 5e 9b ba 68 94 7a bb 21 51 2a ba
       0.000814469 -0.0011853653 -0.003823543 -0.00064970745
000250 82 09 ab 38 75 f2 b5 b7 00 74 cf 3b 22 43 f1 3a
       8.1556864e-05 -2.1689784e-05 0.006330967 0.0018406848
000260 4c 35 8f b8 96 6e c8 3a 51 06 0d 3a d1 05 68 3a
       -6.828699e-05 0.0015291746 0.00053796644 0.00088509644
000270 1e c2 16 b9 78 df f8 ba 59 95 27 bb 86 31 6c ba
       -0.00014377429 -0.0018987497 -0.0025571196 -0.0009010065
000280 15 05 1c 3b f2 a1 6c 39 57 a2 aa 39 35 91 06 ba
       0.002380674 0.00022567043 0.0003254588 -0.0005133332
000290 07 f7 24 ba 81 93 66 3a 5b 69 ca ba 5d e8 6c 3a
       -0.00062929135 0.00087957835 -0.0015442775 0.00090373104
0002a0 86 3f 20 3b 2c 80 8e 3a 86 c0 2c 3a e8 ab ac 3a
       0.0024451925 0.0010871938 0.00065899675 0.0013173791
0002b0 d4 0c 5f 3b 1d f3 bc bb 64 28 d6 3a e4 c4 e6 b7
       0.0034034746 -0.005766286 0.0016338942 -2.7509821e-05
0002c0 ac a9 1f bb 43 af 93 b9 87 ea 80 b8 90 61 8c b9
       -0.0024362607 -0.00028168605 -6.1472e-05 -0.0002677557
0002d0 c8 73 98 ba 97 60 56 3b 55 35 d1 3a 58 08 6e ba
       -0.0011631185 0.003271138 0.0015961329 -0.0009080223
0002e0 85 c0 a2 ba ff 9c 53 3b c4 c9 12 bb 97 3e f7 3a
       -0.0012416994 0.0032289622 -0.0022398094 0.0018863258
0002f0 d7 6f 3f ba 30 81 c7 3a de 0f 4f ba 87 e1 c6 ba
       -0.0007302737 0.0015220996 -0.0007898788 -0.0015173414
000300 a4 40 1f bb 1a 59 a7 3a a1 8b 97 ba b0 33 e2 3b
       -0.0024300003 0.0012767643 -0.0011561998 0.0069031343
000310 2d 6f 21 ba b5 8a e6 39 8f d4 e9 3a ab aa 5a ba
       -0.0006158229 0.00043972363 0.0017839837 -0.00083414715

hid.2.weight f4 [200, 200]
000000 22 b2 57 3d 13 0b e5 3a dc dd 55 3d 95 32 3f 3d
       0.052660115 0.0017474614 0.052213535 0.0466791
000010 50 22 37 bd cc 2a 9e bd 54 a5 66 bd 35 cf 92 3b
       -0.044710457 -0.077230066 -0.056310013 0.0044802674
000020 49 82 ca 3d 68 7e 91 bd df a0 86 bd d1 f5 71 3c
       0.09888131 -0.07104188 -0.065736525 0.01476808
000030 e5 17 e3 3c 84 10 d7 bb f6 9f 16 3d 5a 16 a1 bd
       0.027721355 -0.006563248 0.036773644 -0.07865591
000040 4b 04 a8 bd 83 ff 2c 3d 5e 57 51 3c 98 9a 48 3d
       -0.08203944 0.042235862 0.012777178 0.048975557
000050 74 78 49 bd 83 ab cf bc 6c f2 c8 bc 77 c9 a5 3d
       -0.04918714 -0.025350338 -0.024529658 0.08095067
000060 7c 10 43 bd 85 c6 7a bd 22 7f 01 3d 27 bf 55 bd
       -0.047623143 -0.06122448 0.031615384 -0.05218425
000070 da 61 21 3d 70 d5 13 3c 60 22 e7 bc 1f d3 19 3e
       0.03939996 0.009023055 -0.028214633 0.15021943
000080 67 42 4d 3d b8 aa 34 bd 37 0e 19 bc 7e 97 d2 3d
       0.050112154 -0.044108123 -0.009341768 0.10282801
000090 a1 99 0a bd 0e fb 15 bc 92 2a 1d be f9 d0 e9 3b
       -0.03383792 -0.009154094 -0.1534827 0.007135507
0000a0 76 dd 58 3d c3 03 02 bd 64 1d fd 3c 6e 53 33 bc
       0.052945577 -0.03174187 0.030897804 -0.010945184
0000b0 b3 0c da bc d8 14 ac bd 9e 1c 0b be c7 f6 c4 3c
       -0.026617384 -0.08402413 -0.13585135 0.024043454
0000c0 09 7d 7a bd fc 96 94 bc fb b4 a0 3d e2 61 35 3c
       -0.0611544 -0.018138401 0.07847019 0.0110707
0000d0 9d 6c ba bd 7e e7 5c bd c2 71 22 bc 93 46 eb 3d
       -0.091027476 -0.053931706 -0.009914817 0.1148807
0000e0 6a bf ce bd 8e 5f 5a 3d 44 6f 9b 3c 0e 8d 8f bc
       -0.10095103 0.053313784 0.018973954 -0.017523315
0000f0 e8 6b ab 3b 37 b4 d2 bd 78 c8 b2 bd b4 79 8c bd
       0.0052313693 -0.102882795 -0.08729643 -0.068591505
000100 3e f5 a6 3d ed f8 8c bc 53 ed 15 3e 23 65 14 bd
       0.08152245 -0.01720854 0.14641313 -0.036229264
000110 2b da 1f bd 5f ab 4e 3e 1a 82 d9 bd 74 2f a7 bd
       -0.03902642 0.2018256 -0.10620518 -0.08163348
000120 49 87 68 bd fb af e4 bd 68 3e 0f 3d bb af d7 bd
       -0.056769643 -0.11166378 0.034971625 -0.10531565
000130 0c d6 c8 3c 71 67 d2 bd 89 d7 5c bd 74 71 42 3d
       0.024516128 -0.10273636 -0.053916488 0.04747148
000140 0a 70 c4 3d 54 9f c4 3b 95 d2 0c bd 7d 08 3f bd
       0.09591682 0.0060004387 -0.034380514 -0.046638954
000150 62 62 1e 3d ac 42 c9 3c 4b 25 de 3b a9 28 9c bc
       0.038668044 0.024567924 0.006779348 -0.019062357
000160 22 3b b9 bd 19 ed bb bd ea e1 68 3d dd bb af 3d
       -0.09044482 -0.09176082 0.056856073 0.08580754
000170 80 4f c0 bc 12 51 3f 3d 54 81 0f bd 8c 4c d5 3d
       -0.023475409 0.046708174 -0.035035446 0.10414991
000180 8b e8 97 bd 4c 00 7a bd 5b 9e 89 bc 4f 07 d8 bd
       -0.07417401 -0.06103544 -0.016799143 -0.10548269
000190 13 ea a7 3d a5 67 de 3d fa 70 8c 3d d4 4d 6a bd
       0.08198943 0.108596124 0.06857486 -0.05720313
0001a0 01 e6 52 3a 60 15 c0 bc ac c1 44 3d b9 02 3f 3e
       0.00080451375 -0.023447692 0.048036262 0.18653382
0001b0 e6 d1 7c bd 7f 8f e7 3d 6d 27 af bd 23 dc 86 bc
       -0.061723612 0.113066666 -0.08552442 -0.016462391
0001c0 d2 1f d0 bc 0d 2e 43 bc af 43 d6 bd 0a b7 13 3e
       -0.025405798 -0.011912835 -0.10462128 0.14425293
0001d0 4f 57 99 3c ca 81 7c bd 8f e1 a1 bd 79 fa 83 bd
       0.01871839 -0.061647214 -0.0790435 -0.06444258
0001e0 e9 3c 56 3c 83 20 ca 3d 29 87 44 bd 4d 19 54 bd
       0.013076046 0.09869482 -0.04798046 -0.05178194
0001f0 6e d7 5f 3c 92 19 99 3d 15 11 ba 3d 5f 53 01 bd
       0.013662202 0.0747558 0.090852894 -0.03157365
000200 70 4a 87 3d 28 62 ef ba ed db 8e bc 26 ea 8c 3d
       0.06605995 -0.0018263506 -0.017438853 0.06880598
000210 1e 5c 5a bd 83 84 00 3c c7 eb 27 3d 37 f4 d2 bc
       -0.053310506 0.007844093 0.04099634 -0.025751216
000220 c4 a6 50 3d ff a4 b0 3c fa ad 9d 3c 3f 6e 0c bd
       0.05094029 0.021563051 0.019247998 -0.034284826
000230 88 98 cb 3c 90 17 4f bd e4 ca 1c 3d 08 c5 9e bd
       0.024853006 -0.05055958 0.03827943 -0.077524245
000240 76 cd 2f 3c a8 92 19 bd 9e 1a 6d 3b a3 7f 3c 3d
       0.010730138 -0.037493378 0.0036179195 0.04602016
000250 a2 ae e4 3b d4 2c d5 bc 89 40 96 3d f8 58 fd 3d
       0.0069788257 -0.026022352 0.07336528 0.12370485
000260 28 3e 9a bc 07 07 e6 3c 88 60 1e 3c 7c 69 99 bc
       -0.018828467 0.028079523 0.0096665695 -0.018727057
000270 e1 c4 79 bd 92 10 fe bd 54 aa 2f bd e6 15 2b bc
       -0.060978774 -0.12405504 -0.042887047 -0.010442233
000280 65 81 98 bd c5 0c 1b bc a8 ac 26 3c 1b a4 ae 3c
       -0.07446555 -0.009463494 0.010173 0.021318486
000290 8a 18 e8 bb 73 f6 07 3e 26 f9 15 3c f2 1b e1 bd
       -0.0070830034 0.13277607 0.00915364 -0.10991658
0002a0 01 5c 41 3d 34 9c 2d bd 4c 9b de 3c f3 c4 a1 3b
       0.047206882 -0.042385295 0.02717366 0.0049368083
0002b0 b8 e8 9c 3d aa ab 27 bd 79 b8 53 3d 87 db 27 3d
       0.07661575 -0.040935196 0.0516896 0.040980842
0002c0 4d 1a ac bd 9e 60 60 bc 19 9c 06 3d f5 53 a6 bd
       -0.08403454 -0.01369491 0.03286371 -0.08121482
0002d0 49 02 88 3c 64 6e ed 3c d6 0c 1f 3d 04 1c 18 bc
       0.016602652 0.028983302 0.0388306 -0.009284023
0002e0 7b 64 02 3d 6d 1b bd bb 5c ba bb 3d ff d4 b6 3c
       0.031834107 -0.0057710917 0.091664046 0.022318361
0002f0 43 af 2a bd 57 1e 16 3d 5f f6 1b 3d b9 78 dc bc
       -0.04167105 0.036650028 0.038076755 -0.026913034
000300 13 ce 39 3c 3a 50 96 bd c6 29 db bc 77 32 3c 3b
       0.011340636 -0.07339521 -0.026753318 0.0028716603
000310 a2 c8 68 bc 96 c3 1a be ea 20 48 bd e1 2c 67 bc
       -0.014207991 -0.15113673 -0.048859514 -0.014109821
000320 1f 5e e6 3d 5f 0d e0 ba 41 51 d8 3c db ba 9f bc
       0.11248421 -0.0017093829 0.026405932 -0.01949828
000330 6e 15 cf 3b fe ad aa bc 4e 8e cf 3c 9d ef 7f 3b
       0.0063196933 -0.020834919 0.02533641 0.0039052733
000340 22 77 d7 b9 f5 0b 52 3d 2d 64 2e bd ea ab b9 3d
       -0.00041096756 0.051280934 -0.042576004 0.09065993
000350 93 95 26 3d e2 ee 51 3d ce 96 90 3d b3 6c a7 bd
       0.04066999 0.051253207 0.07060014 -0.081750296
000360 6a 97 97 bc 18 49 14 3e b0 00 02 bd fe 6b 08 3d
       -0.018504817 0.14481008 -0.031738937 0.033306114
000370 68 d2 72 bd 19 a7 cf 3d cb e2 5d bd 77 d3 55 3d
       -0.05928269 0.10139293 -0.054171365 0.05220362
000380 ff 36 0e bd fa db e2 bd 3c 48 30 bc 7f 54 ed 3d
       -0.034720417 -0.110771134 -0.0107594095 0.11588382
000390 39 17 2a 3c 6b 92 91 bd 2c bf 08 3e ef 63 8b 3d
       0.010381513 -0.07108005 0.13354176 0.0680617
0003a0 16 f1 28 bb b5 02 2f 3e 97 46 6a 3b 4c 0a 94 bd
       -0.0025778464 0.17090876 0.0035747641 -0.072285265
0003b0 30 84 81 3d 87 f0 d5 3d d3 be 89 3d 12 04 a5 bb
       0.06324041 0.104462676 0.0672585 -0.0050358856
0003c0 a0 bc e9 3d 8a 2e c9 bd b6 df 71 3c 6a 4c e3 3b
       0.114129305 -0.0982333 0.0147628095 0.0069365995
0003d0 65 c4 62 3d 7e 22 5f bd 05 55 e9 3c c4 a3 3c 3d
       0.055363078 -0.054476254 0.028482923 0.046054617
0003e0 cc da 54 3d 16 a1 31 3d 3b 14 24 bd cf 18 9f 3d
       0.051966473 0.043366514 -0.040058356 0.07768404
0003f0 5e 9e a1 bd 23 e9 f8 bc be 30 57 3d 5d 23 1b bd
       -0.07891534 -0.030384606 0.05253672 -0.037875522

hid.2.bias f4 [200]
000000 b4 ac 96 3b 45 2b 1e 3b c4 5d 18 3c e4 7e a2 ba
       0.0045982245 0.0024134677 0.009299699 -0.0012397435
000010 6b 8a b0 ba 49 9d 4f 3c fc 5c 26 ba 02 e1 5b ba
       -0.0013468986 0.012671777 -0.0006346253 -0.0008387716
000020 97 51 6a 3b 6b 14 af bb 73 64 92 3b 04 5a f8 ba
       0.0035754198 -0.00534301 0.004467541 -0.0018947725
000030 bd 86 19 ba 73 1b c5 3a 63 d1 f4 3a f4 85 d2 3a
       -0.00058565644 0.0015038088 0.0018678125 0.001606165
000040 6f b3 7a ba 31 56 91 3b cb 0e d5 ba ae 79 30 3b
       -0.0009563481 0.0044353236 -0.0016255019 0.0026927995
000050 1e 9f c0 b9 57 dc a0 38 1f ac 3f 3c 29 e8 4b bb
       -0.00036739645 7.670436e-05 0.011698752 -0.003111372
000060 39 07 3e ba ad eb 80 3b 38 4f ab 3a 8f 1d 96 b9
       -0.0007249001 0.0039343447 0.0013069874 -0.00028632252
000070 42 b7 17 3c 3b ce a4 3b 16 7d b9 3a 7b ae 81 39
       0.009260001 0.0050294674 0.0014151658 0.00024734795
000080 b4 e8 a5 ba 96 08 1e 3b 96 b1 09 39 cc 14 d6 3a
       -0.0012657852 0.0024114004 0.00013131494 0.0016333102
000090 09 9e d3 ba 41 56 a1 b8 38 6b 94 39 56 ac 39 bb
       -0.0016145121 -7.693144e-05 0.00028308644 -0.002833148
0000a0 9b 2c 0c 3b 7a f7 e6 b9 50 42 96 3a 2e 36 a7 bb
       0.0021388892 -0.00044053403 0.0011463854 -0.0051028943
0000b0 8f a6 f7 bb f6 c4 b2 bb fd 81 da 3b 00 96 8d 3b
       -0.007557697 -0.0054556085 0.006668328 0.00432086
0000c0 91 c3 a3 3a 9f 71 3c 3b ed 15 14 3a 12 74 9b 3b
       0.0012494196 0.0028754247 0.0005649019 0.0047440613
0000d0 db 63 57 ba 35 17 1e 3a 48 5f 3f 3a e4 db 95 ba
       -0.0008216479 0.000603068 0.000730027 -0.001143333
0000e0 77 f8 16 bb dd c4 ab 38 55 5b a1 bb 15 d4 18 bb
       -0.002303628 8.190584e-05 -0.0049242177 -0.002331977
0000f0 6f 4b 9f b9 c5 f6 ce 3b f6 59 c4 ba 11 17 b5 39
       -0.00030383046 0.0063160383 -0.0014980424 0.00034540196
000100 b1 fa 32 bb 49 a9 4f 3a e2 22 7d 3a 20 f7 29 bb
       -0.0027310068 0.0007921649 0.0009656382 -0.0025934651
000110 2e ee 19 bb 45 72 9a bb f6 9e c1 38 69 13 24 bb
       -0.0023487913 -0.004713329 9.232566e-05 -0.0025035983
000120 ca b3 03 3a 11 52 58 39 d5 65 3d 3b 32 a9 9a ba
       0.0005024044 0.00020629937 0.0028899808 -0.0011799692
000130 a4 96 c8 3b 72 ef 5a 3b 2a 3f b3 3b 84 4a 51 ba
       0.0061214734 0.003340688 0.005470176 -0.0007983821
000140 7c 73 b1 3a 42 1f 17 3a c3 a6 c9 3b 62 74 be 3b
       0.0013538445 0.00057648506 0.0061539127 0.0058122138
000150 03 c4 17 ba 7d 29 9f 3b 23 a7 fa 3a 19 8a 4b bb
       -0.0005789401 0.0048572407 0.0019123297 -0.0031057654
000160 b9 fb 2b 3b 34 51 77 ba c5 9e e2 3b 62 20 91 bb
       0.0026242568 -0.00094344025 0.0069158995 -0.004428909
000170 3b d7 02 3b ef c3 71 bb e4 c7 8d 3b 7e 6d 13 3b
       0.0019964713 -0.0036890467 0.0043268073 0.0022495682
000180 ce cf f5 b9 2e ba 62 b9 e0 98 20 bb ce 4f 12 ba
       -0.00046884868 -0.00021622397 -0.0024505183 -0.000558135
000190 09 b6 03 3b 1d 54 59 3b 44 39 12 3b 15 64 a8 3b
       0.0020097515 0.0033161708 0.0022311965 0.005138884
0001a0 10 06 be bb c9 8d bc 3b b0 d8 79 b9 ab 3c 03 3b
       -0.0057990626 0.005754207 -0.00023827213 0.0020025175
0001b0 de 67 7d bb af 91 3b 3a 06 e0 e1 3b ae 29 44 bb
       -0.0038666646 0.00071551924 0.0068931608 -0.002993207
0001c0 4b aa 5e ba 8e b8 66 3b f7 f7 8a 3b 0a 45 e3 ba
       -0.00084940036 0.0035205218 0.0042409855 -0.0017339301
0001d0 f4 77 0d ba 2a 7c 63 3a a2 a0 1c 3b 85 1e a5 39
       -0.00053965976 0.00086778647 0.0023899456 0.0003149399
0001e0 cf cd d0 ba e7 2f d1 3a 4f e7 37 bb 33 cd fb 3a
       -0.0015930476 0.001595971 -0.0028061455 0.0019210934
0001f0 d2 0f b7 3b 6a 06 11 ba 9d 21 d4 3b 88 a7 d6 ba
       0.0055866027 -0.0005532267 0.0064737336 -0.0016376833
000200 e1 72 1e 3b 4f 3d d0 3b ed 9a 64 b9 5a 72 68 3a
       0.002417736 0.006354965 -0.00021801489 0.00088671374
000210 57 35 0b bb b8 d9 93 bb 06 6b fe 3a 2f 1a 52 bb
       -0.002124151 -0.004512038 0.0019410558 -0.0032059064
000220 11 a0 51 b7 96 32 c2 3a 09 17 23 bb 93 f0 5d bb
       -1.2494639e-05 0.0014816101 -0.0024885556 -0.0033865317
000230 63 8e c0 bb ce fb dd ba 81 f2 2a b8 6f 5f 1a bb
       -0.005876349 -0.0016936006 -4.0757008e-05 -0.0023555418
000240 0f 18 a0 3b 8e 73 82 ba e3 cd 8e ba 2b 87 09 bb
       0.0048856805 -0.0009952651 -0.0010895099 -0.0020985107
000250 e5 8c d6 ba da 6a e9 bb 5c cd 99 bb 84 df 84 bb
       -0.0016368894 -0.0071233334 -0.00469367 -0.0040549655
000260 3e 6a 8c bb 7e a2 f7 3a 23 33 05 bc a6 1d ef b8
       -0.004285126 0.0018893031 -0.008129868 -0.000114019305
000270 ef 6f 77 bb fa 63 20 3b 96 a7 50 3b 5f aa 38 3b
       -0.0037755927 0.0024473653 0.003183817 0.002817772
000280 e1 b6 b9 38 66 23 40 ba 53 2a 1c ba c7 8f a4 39
       8.855551e-05 -0.00073294935 -0.00059572345 0.0003138764
000290 03 57 f3 b8 a7 7b 02 3b 1c 93 95 bb b6 c1 a6 bb
       -0.0001160335 0.0019910128 -0.004564656 -0.00508901
0002a0 b6 2f 1f 3b 40 23 4d bb 61 b6 9d 3a d8 f6 f6 ba
       0.0024289913 -0.0031301528 0.0012032503 -0.0018841876
0002b0 5a 59 70 bb cd f2 02 ba 1e 34 c2 bb 4c 55 0c 3b
       -0.0036674351 -0.00049952866 -0.005926623 0.0021413146
0002c0 7f 82 3f 3b 40 a2 9f 3b 28 41 f5 bb 42 fb 87 ba
       0.002922207 0.0048716366 -0.007484574 -0.0010374563
0002d0 bf 7f 64 3b 10 36 03 3b b0 3a 13 ba 73 d5 04 b9
       0.0034866182 0.0020021237 -0.000561635 -0.00012668017
0002e0 10 e4 00 3c 5a 61 02 bb 4c 27 ba 3b 5b 6b 42 3a
       0.007866874 -0.0019894452 0.005680954 0.000741651
0002f0 3d 52 1d 3b 36 43 d4 39 fe f0 91 3a c9 1e 80 bb
       0.0024005317 0.00040485867 0.0011134443 -0.00390992
000300 0a ff eb bb 3e 2d e5 ba 4c 87 cd b8 e7 a6 34 ba
       -0.007202034 -0.0017484797 -9.800363e-05 -0.00068913255
000310 de d5 84 3a 83 ef 0d bb 02 8c fd 39 6a e6 c0 bb
       0.0010134538 -0.0021657653 0.00048360234 -0.0058868425

hid.3.weight f4 [200, 200]
000000 2d ec 7f bd df 54 b6 3a 8c 12 50 3d b0 1d 6d 3d
       -0.062481094 0.0013910792 0.050798938 0.05788964
000010 e2 f1 c8 3c 5a b6 3c 3d 68 55 44 3d 52 74 2e 3d
       0.024529401 0.04607234 0.047933012 0.0425914
000020 db 4f 1f 3d dc 61 09 bd aa 05 d1 bc 83 09 e9 bb
       0.038894515 -0.03354059 -0.025515396 -0.0071117296
000030 69 95 3b ba 4a 41 04 bc 7d f0 98 3c 19 52 76 3d
       -0.0007155748 -0.008072207 0.018669361 0.06013689
000040 42 f7 a7 3d 85 ad ee bd 79 68 44 bd 44 26 fd bd
       0.082014576 -0.1165419 -0.047951195 -0.12360814
000050 10 19 ce bd 08 88 49 3d 6c b4 bf 3c 11 46 0d bd
       -0.10063374 0.049201995 0.023401462 -0.03449065
000060 e0 f7 b4 bc 96 66 84 bc c4 5e 7a 3d f4 ee d5 3d
       -0.022090852 -0.016162198 0.06112553 0.10445967
000070 0f 74 b0 3d 9b 9b 8f bd 26 6c 8a 3c 05 fa ea bb
       0.086158864 -0.07012101 0.016897272 -0.007170918
000080 bb 65 8b bc 8e b1 05 bd 0f 2d 46 bd 02 0f ce bb
       -0.017016282 -0.032640032 -0.048382815 -0.00628841
000090 26 46 e3 39 39 4f a3 bd b9 77 12 be ce 92 a0 bc
       0.0004334908 -0.07974095 -0.14303483 -0.019601252
0000a0 cc 56 93 bb f8 4a 2b be cb 93 23 bd 61 b0 f3 bc
       -0.004496431 -0.16727817 -0.03993587 -0.02974719
0000b0 3e c8 74 3d 09 94 69 bb a2 04 5d bd ca b4 6a 3d
       0.05976128 -0.0035641214 -0.053959496 0.05730132
0000c0 ed 72 0f 3d 33 15 53 bd 38 18 f7 b9 fc 95 e8 3c
       0.03502171 -0.05153389 -0.00047129556 0.02839183
0000d0 11 64 08 3e 20 c8 17 3e 12 ad a6 bc 04 55 01 3d
       0.13319422 0.14822435 -0.020346198 0.031575218
0000e0 23 f6 1c 3d d7 4c 40 3d 2c 23 00 bc 70 c0 0e 3d
       0.03832067 0.04694828 -0.007820886 0.03485149
0000f0 b7 9a f6 bc 90 ee b1 bd 5d 02 f8 39 a6 5c ea bd
       -0.03010307 -0.0868808 0.00047304007 -0.114434525
000100 6c 52 45 3c 50 72 eb bd 6e f9 e3 3c 42 57 e5 3c
       0.012043577 -0.11496413 0.027828898 0.02799571
000110 6c f3 e9 bb 21 ed 10 3d 8b 40 9c bd fc 98 d6 bd
       -0.007139614 0.035382394 -0.07629498 -0.10478398
000120 68 77 43 3d 53 da bd bd f6 b5 9b bd 4f 27 9e bd
       0.047721297 -0.09270158 -0.07603066 -0.07722341
000130 d1 13 10 3d 93 4a 9d 3d 20 af 2c 3c e1 d6 0b bd
       0.03517515 0.076802395 0.0105398 -0.03414047
000140 c4 49 5e 3d ee 51 74 bd 88 24 84 3b be 42 0a be
       0.054269567 -0.059648447 0.004032675 -0.13502023
000150 b6 31 65 3d a8 29 7d 3c 95 b6 fb bc 90 6f 8a 3d
       0.05595561 0.015451826 -0.03072671 0.0675956
000160 78 a6 9b 3c 6a de 6d bc 47 ac 9e 3d 4d 44 05 bd
       0.019000277 -0.01451836 0.07747703 -0.03253584
000170 5a 70 66 bd 27 a6 46 3d f7 09 14 bd 23 92 ad bc
       -0.05625949 0.0484983 -0.036142316 -0.021187847
000180 48 b6 7e 3d 25 19 25 3d 36 55 15 bd c4 4c a0 3a
       0.062185556 0.040307183 -0.036458217 0.0012229909
000190 10 41 9b 3b a7 eb ba bd 49 bb 17 bd 7e 88 5c bc
       0.0047379807 -0.09126978 -0.037043843 -0.013460277
0001a0 bb df 4b 3d 8e 20 7e 3d 8b 38 54 bd 5e 98 05 be
       0.049773913 0.062042765 -0.051811736 -0.13046405
0001b0 0d 64 b4 bd d8 4a 92 bd db 38 d8 3b 74 08 f2 bc
       -0.08808146 -0.071431816 0.0065985746 -0.029545046
0001c0 31 b5 5a bd ee 1f 4c bd d2 2a 9a 3d 07 4f 91 ba
       -0.053395454 -0.049835138 0.075276986 -0.0011086174
0001d0 5d fb bd bd c8 f1 a9 bd 54 87 9a bd ef 3e 39 bd
       -0.09276459 -0.08298069 -0.07545343 -0.045226034
0001e0 74 cb 86 bd 1a bc 0f bd e5 8d af 3d 75 ab d3 3c
       -0.06581774 -0.035091497 0.08571986 0.025838593
0001f0 7f fa 64 be d0 36 11 3c f5 33 65 bd a2 86 61 3c
       -0.22361182 0.008863166 -0.055957753 0.013765009
000200 ac 6f c4 3c 12 79 85 3d c3 89 63 3c 79 1e e0 bd
       0.02397903 0.06517233 0.013887825 -0.10943312
000210 53 74 6b bb 7a f1 dc 3d 2c 8d cb bc 05 f6 96 3c
       -0.003592749 0.107882455 -0.02484759 0.018427858
000220 10 1f ac bc 02 c5 98 3c 01 c5 45 bc 22 69 b1 3d
       -0.021010906 0.018648628 -0.012070895 0.086626306
000230 d3 c5 c1 3d 0b 00 a3 bb 14 36 80 3d 54 95 db bd
       0.0946156 -0.0049743704 0.062603146 -0.107218415
000240 b7 9e 36 be 0f 45 ae bd 42 6e 3c bd 5d 1f 85 3d
       -0.17833982 -0.08509266 -0.046003588 0.06500123
000250 f8 67 69 bd 30 01 50 3d 27 dd 7e 3c ae 9d 19 3c
       -0.056983918 0.050782382 0.0155556565 0.009375973
000260 79 26 0a be d0 9a 90 bd be 5c bc 3a 0a 7b 06 ba
       -0.13491239 -0.07060778 0.0014370901 -0.00051300286
000270 62 e4 03 be 50 80 08 3d d6 33 76 bd fe 08 bb bd
       -0.1288009 0.033325493 -0.06010803 -0.091325745
000280 8b 7f 0a 3d 34 54 ec 3c 4b ff 45 bd bc ed 73 bd
       0.03381304 0.028848745 -0.04833917 -0.059552893
000290 af 3e 34 bd b7 ad 6f 3d 77 e8 04 3d 4d da a8 bd
       -0.044005092 0.058515277 0.03244826 -0.082447626
0002a0 76 43 81 bd f1 4e 37 bd 43 c7 c1 3d 6b 81 83 3d
       -0.06311695 -0.04475302 0.09461834 0.06421169
0002b0 b5 ff dd 3d 73 ed 1d bc 3b cd 92 3d 68 ab 7a bc
       0.10839788 -0.009639132 0.07168051 -0.0152996555
0002c0 8b 3f f3 3c 8a 04 49 3d 9c 8a b6 3c 4c 31 74 bd
       0.029693386 0.049076594 0.022282891 -0.059617326
0002d0 c4 47 e5 bd 58 38 17 3d c1 6e b3 bc 55 53 14 bd
       -0.11195329 0.036918968 -0.021903398 -0.036212284
0002e0 38 67 11 3e ef b6 af 3d c2 8b 98 bc 7b 7d 2c bd
       0.14199531 0.08579814 -0.01862133 -0.042111855
0002f0 12 79 1b bd d0 f4 12 be cc 22 0b bd f3 59 57 bd
       -0.03795726 -0.14351201 -0.03396873 -0.052576017
000300 08 f8 21 3d d8 a0 e4 3c e4 42 07 bd 0a 4b 5a bc
       0.03954318 0.027908728 -0.033022776 -0.013323555
000310 06 73 6a 3d af 86 14 be 82 1c 3c 3e 8a 0e 1a 3d
       0.0572386 -0.14504503 0.1837025 0.03761152
000320 d7 f0 f5 39 03 e0 2b 3d 99 3e 80 bd 2e 9d a3 3d
       0.0004690948 0.04196168 -0.062619396 0.07988964
000330 aa e5 4f 3b ec d7 ac bd d7 40 fe 3c b7 df 41 bd
       0.0031722584 -0.08439621 0.031036777 -0.04733249
000340 23 35 22 bd 1d ce e9 3d 25 00 62 3d 56 17 1b 3d
       -0.039601456 0.11416266 0.05517592 0.03786405
000350 16 db d8 3d 6a e9 8f 3d 6f ef 9d bc c0 75 25 bd
       0.10588662 0.07026942 -0.01927921 -0.0403955
000360 40 b4 92 3d 11 42 73 bd e8 73 37 3d d0 fb 96 3c
       0.07163286 -0.059389178 0.04478827 0.01843062
000370 e6 41 5b 3c 3f 75 56 39 ba 37 a6 bc f8 f2 0b 3d
       0.013382411 0.00020452308 -0.020290244 0.03416726
000380 d9 bc 84 3d 7a b1 86 3c 86 b6 70 bc 09 99 17 bc
       0.06481332 0.01644205 -0.0146919545 -0.009252795
000390 8a 92 d0 bc 44 4e bc 3d 80 07 7d 3d 79 1a 81 3c
       -0.0254605 0.091946155 0.06177473 0.015759693
0003a0 46 5f 06 3e b4 c3 48 bd 36 47 f1 3b f6 f0 c8 bc
       0.13122281 -0.049014762 0.0073632253 -0.024528962
0003b0 95 3a d0 3d e3 23 f8 bc 68 86 c7 bc 58 e3 64 bd
       0.10167424 -0.03029055 -0.024356082 -0.055880874
0003c0 dc 12 3f bd f5 33 96 3c 4a 36 aa 3d 14 34 42 3c
       -0.046648845 0.018335322 0.08311136 0.011853237
0003d0 c1 5f 12 3d 2d 24 9f 3c b8 62 c2 3d 93 82 30 bc
       0.03573585 0.01942643 0.09491485 -0.010773319
0003e0 1b b2 fc bc fd c7 e3 3c f1 f8 78 bd 31 e8 e5 3c
       -0.030846646 0.027805323 -0.060784284 0.028064819
0003f0 64 01 97 bc 56 a8 c7 3c 27 2e 8e 3c 4d d5 88 3d
       -0.01843328 0.024372261 0.017355992 0.06681309
