rk_ckpts_v4/model_N100_L6_g0p8_lr0p075_seed2.pt (torch, 209389 bytes, 13 tensors)

hid.0.weight f4 [100, 2]
00000000: 4ff2 b1be b8a8 863c 1ec7 ea3e d3b4 15bf
00000010: b45a 74bf 1319 a23e 6773 54bf 5bbd 33bf
00000020: cc0a a8be 5c93 9ebf a7a8 5f3c e3fb 2bbf
00000030: f91c e33e c900 a9bc 2369 22bf d117 02be
00000040: eec0 e93e 7011 72be 94d9 8bbe 8794 ffbe
00000050: 0640 0b3f 58ce a2bc 0ac1 8abf 87e4 16bf
00000060: d01c 0d3f 120f c8bd 2103 c83c 7ba8 f13e
00000070: 38eb 08bf 1f2b c4bf 15f0 2dbf 760e 7ebf
00000080: 4b02 b2bd 1cf3 96bf 9221 c7be a849 57bf
00000090: 9d14 c83f e4e5 013f 81f2 64bf e070 4e3e
000000a0: 222c eabe 33ad 2f3e 6b55 47be 370d 71bf
000000b0: 35c8 e03d a33e 703c ff2e 1bbe df76 b13f
000000c0: 1913 183e b50c d7be 35ba 23be 1571 813e
000000d0: b157 22bd ae5b 1f3f 7f6d 93bf fb79 a3bc
000000e0: 2058 a4be e1b0 19be 662f f3be 0aa3 ca3e
000000f0: cb26 4e3e 3fe8 67be 6e27 0ebf 7947 a3bc
00000100: 6808 7fbf 86e3 aebe 7420 653f ffa2 563e
00000110: 1496 45bf 4d74 103f 124e e8bd 7ddf 0fbf
00000120: c5c4 7cbe 7d0c 89bf efcf 93bd a71e 3fbe
00000130: 9f53 a5bf aae0 d13d 3681 033d 223d 8ebd
00000140: 4245 843f c9be bd3f 3e6a b13e 844b 20bf
00000150: 1e67 323f 9cfa 91be de85 453d 7135 803f
00000160: 6445 3c3e 77d1 493f 2ff0 70bf 6275 a13e
00000170: d53e 94bf d375 e23e fb3d 43be 0487 69be
00000180: 81e2 cc3f debc 60be e185 0bbf 2950 f5bd
00000190: dde6 dd3d 6f0c b63f 1f28 7b3e a790 033e
000001a0: 03f1 453c 3567 b13f 8482 bf3f 64d2 3c3f
000001b0: 6f56 e5bd 0e74 13bf 29da 9dbd f6f6 14bf
000001c0: 06ca 81bf 72e9 583e 6a60 d8be 38aa c63e
000001d0: 209d 17bf b635 4fbf 0cfd 85be bf95 8cbf
000001e0: 81b5 e3be e9ce 68bf b7ae 243f e6d6 5dbf
000001f0: c93b 983e b5d4 d3be e4e4 8a3f df91 62be
00000200: c626 08bf 3e4c 193f 6e49 c7be 81b7 adbd
00000210: bfd8 34be 3f87 cd3f a6e4 8f3e 3da4 73bd
00000220: 272f 1dbd 9b29 dc3e 2a88 5b3f 5e52 15bf
00000230: 8269 09bf b7fa aa3f 8bc2 c63f 9170 a7be
00000240: 3cc2 8d3e fc42 a7be b0c7 de3e 29fd c8be
00000250: 17ea 8b3e 61cf f83a cc37 27be cd42 67bf
00000260: cb2b 1cbf 98c0 ebbd 6d87 a7bf daec 723f
00000270: ca23 f63d 0891 eebd 076e da3f 2b58 653f
00000280: b6b3 55be 5ade 513e 5843 efbf 6527 3c3f
00000290: 8001 ca3e 2f1e fabd 07ba 903e ec8a df3e
000002a0: c9cd 66bf 80d1 233e cc0b 8cbf 2141 60be
000002b0: 10e9 033c 48f5 e43b 6542 bdbe 6f4a 2f3e
000002c0: a318 f4bc afdd 823e 0a98 01bf 3f55 183f
000002d0: dec4 623e c890 88bf 9a23 6fbf 2091 603f
000002e0: b8cc 31bf 5747 0e3f 0fb0 403f 81e3 fe3d
000002f0: 6642 3fbf 1c75 b73e 23fb 12bf d13b ab3e
00000300: e72b 8b3f e904 05bf 6e45 babc 7315 c23e
00000310: b108 f53e 52c6 34bf 0992 473f f094 393e
-0.3475518 0.016437873 0.4585504 -0.5847904 -0.954509 0.31659755 -0.8298859 -0.7021081
-0.32820737 -1.238872 0.01365105 -0.67181224 0.44358042 -0.020630257 -0.63441676 -0.12704398
0.45655006 -0.23639464 -0.27314436 -0.49918005 0.54394567 -0.019873783 -1.0840161 -0.58942455
0.5512209 -0.097684994 0.024415554 0.47198853 -0.53483915 -1.532566 -0.6794446 -0.99240816
-0.086918436 -1.1792941 -0.388928 -0.84096766 1.5631291 0.5074141 -0.8943253 0.20160246
-0.45736796 0.17155914 -0.19466178 -0.9416079 0.109756865 0.014663371 -0.15154646 1.3864402
0.14851035 -0.42001882 -0.15989001 0.25281587 -0.03963441 0.6224927 -1.151779 -0.019955626
-0.32098484 -0.1500888 -0.474971 0.39577514 0.20131986 -0.22647189 -0.55528915 -0.019931542
-0.996222 -0.34157962 0.89502645 0.20960616 -0.77182126 0.5642746 -0.11343016 -0.5620039
-0.24684437 -1.0706936 -0.072173946 -0.18664037 -1.2916144 0.102479294 0.032105647 -0.06945254
1.0333636 1.4823848 0.3465137 -0.6261523 0.69688594 -0.28511512 0.04822337 1.0016309
0.18385845 0.78835243 -0.9411649 0.31534868 -1.1581675 0.44230518 -0.19066612 -0.2280541
1.6006624 -0.21947047 -0.5450116 -0.1197818 0.10835049 1.4222544 0.24527024 0.12848149
0.012081387 1.3859621 1.4961705 0.7375853 -0.111981265 -0.5759896 -0.077076264 -0.5818933
-1.0139778 0.21182802 -0.42261058 0.38801742 -0.5922413 -0.8094133 -0.26169622 -1.0983199
-0.44474414 -0.9094072 0.64329094 -0.86656034 0.29733112 -0.4137322 1.0851102 -0.22125958
-0.53184164 0.5988196 -0.3892321 -0.08482266 -0.17660807 1.6056899 0.28104132 -0.0594828
-0.038375046 0.43000492 0.85754645 -0.5832881 -0.5367662 1.3357762 1.552812 -0.3270307
0.27687252 -0.32668293 0.43511724 -0.39255646 0.27327034 0.0018982702 -0.16329879 -0.90336305
-0.6100432 -0.11511344 -1.3088204 0.94892657 0.12018545 -0.11648756 1.7064828 0.8958766
-0.20869336 0.20494977 -1.8692427 0.7349761 0.3945427 -0.12212788 0.28266928 0.43660676
-0.90157753 0.15997887 -1.09411 -0.21899845 0.008051172 0.0069872476 -0.36964718 0.17118238
-0.029796904 0.25559756 -0.5062262 0.59505075 0.22145411 -1.0669184 -0.934137 0.87721443
-0.69453 0.55577606 0.75268644 0.12445737 -0.7471069 0.35831535 -0.57414454 0.33444074
1.0872773 -0.5196062 -0.022738185 0.3790699 0.47858194 -0.7061511 0.77957207 0.18123221

hid.0.bias f4 [100]
00000000: fa6f 383d 2d6f 49be f496 e73e 9129 76be
00000010: 30c2 053f 8535 4ebb c5b5 26bc cd30 983e
00000020: b59d 5bb9 1f77 e63d fdc7 08bd ad3a 8fbd
00000030: 349d 2c3c af5c c13c 4860 0fbf 75b1 91bc
00000040: 5746 d1be 1856 423e f265 2c3f 9e7d 353e
00000050: f5a5 603d d3d9 4c3e bc34 31be 5492 f73e
00000060: 681a 4ebe 70c3 3d3e 9103 483e 9172 bc3e
00000070: fe4c 64bd 9de7 0f3e 51d1 f63c 14cd 2f3c
00000080: 94ba 6c3e 39af 27be 2f1f 45be 02f9 56be
00000090: d4aa 3fbd f962 87be eb6d 04bf 539f ebbe
000000a0: dc97 043f 3e28 be3d 314b 2fbd 639c 07be
000000b0: 22ad 4abe 32b8 6d3e 143d 79be 561a 9d3e
000000c0: 4587 3ebe 7d10 43be b763 db3e f390 d7bc
000000d0: 669e e4be b586 333f 6518 95bd acf9 5e3d
000000e0: 0af3 ac3e d2f4 6d3e b22d 663e 25b5 6c3e
000000f0: e9c4 94be ea3d a13e 0552 8d3d b11a 923e
00000100: 9b7f 8ebe c591 a5bc 87f9 28bf eac2 cfbe
00000110: 7bdd b73d a197 043e fcaa ebbe fc6e 8f3e
00000120: 51bb 33bd 9b39 5e3d 1c6c f33d 079f 683e
00000130: d27e aabd 405e e93e a881 e6bd ea90 58be
00000140: 4d90 0b3d 3c1a 573f 2df8 80be a0c6 593d
00000150: 1439 4cbe 06e0 9f3e d5d2 c53e 7ff8 703d
00000160: cde0 a7bd dccc 01be cfb4 73be 1cc1 85bd
00000170: ac1c a93d e498 f5bd d4cf 1cbe 3ed9 74bd
00000180: f8b6 343e 4330 49bd 2bbf 273e f964 533d
0.045028664 -0.19671316 0.45232356 -0.24039294 0.5224943 -0.0031465006 -0.010175173 0.29724732
-0.00020944218 0.11253189 -0.03339385 -0.069936134 0.010535527 0.023603765 -0.5600629 -0.017784813
-0.40873978 0.18978155 0.67343056 0.177237 0.05484577 0.20004968 -0.17305273 0.48353827
-0.2012726 0.18531585 0.1953261 0.36806157 -0.055737488 0.14053197 0.030129107 0.010730047
0.23118049 -0.16375436 -0.19250177 -0.20993426 -0.046793774 -0.26442698 -0.5173022 -0.46019992
0.5179422 0.09285019 -0.042796317 -0.1324325 -0.19792607 0.23214796 -0.24339706 0.30684155
-0.18606289 -0.19049259 0.42849514 -0.026314234 -0.44652098 0.7012742 -0.072800435 0.054437324
0.33779174 0.23237923 0.22478369 0.23115976 -0.2905648 0.3149255 0.069004096 0.2853599
-0.2783173 -0.02021111 -0.6600575 -0.40578395 0.08977791 0.12948467 -0.46028888 0.28014362
-0.04387981 0.054254156 0.118858546 0.22716914 -0.0832497 0.4557972 -0.11255199 -0.2114903
0.034073163 0.84024405 -0.25189343 0.05316794 -0.19943649 0.31225604 0.38637415 0.058830734
-0.08197174 -0.12675804 -0.23799442 -0.06530973 0.08257422 -0.11992052 -0.15313655 -0.05977749
0.17647922 -0.04911829 0.16381519 0.051609967

hid.1.weight f4 [100, 100]
00000000: 261d 273c d0f3 b23d 280f c43d dbdb 863d
00000010: 2037 f43b fb2e cebb 0706 4abd 4c08 c13d
00000020: 19e0 8cbd e57d eebc d9d1 e93d ccd7 8a3d
00000030: 316b a53d 727f 2b3d db33 a53d 5422 fa3b
00000040: c557 4e3d 703b 8dbc 9fb8 2c3e b08c a23c
00000050: f409 34bd 2eb4 973d 0aa0 513d 5746 d03d
00000060: cf02 853d c081 903d 29ab ed3d 773b d0bd
00000070: 1847 243d e4a2 843c 67a0 c1bd 5ae2 cdbc
00000080: 3d06 48bd c8c7 83bd 0d21 21bd 4b1e b3bc
00000090: fcaa 47be c6f1 c8bd bf20 33bc 9c4a f03d
000000a0: 5deb 163e 2ef8 f1bd 6a61 e4bc 91d8 d3bd
000000b0: 5529 7cbc 090c 33bc 4197 18be 568e c3bd
000000c0: cc54 ebbd 98fe 20bd 04fe e1bd 5384 b3bc
000000d0: 1124 3cbd 73df cb3d 75ea 8a3d 00a3 1dbd
000000e0: ed44 b5bd 8f03 5bbe 07f4 c03d b3dd 4f3c
000000f0: 61d2 92bd 5eeb 563e 9f4c 283d 16b3 84bd
00000100: f973 803d 1bde 06bd 2bfe 6abd 9da1 1bbd
00000110: 6a0b 333c aa27 5ebc 8eae 363e 84e6 22bd
00000120: f01a 253d 4d76 c33d 435a c1bd d93d 903d
00000130: 264b 34bb bb32 0dbe 1bbb a1bb a086 b53d
00000140: d5d8 863d a2ef 483d 8e79 9c3d 2d21 1f3e
00000150: d0ec 2e3d 2f3d e9bc e8de 76bc ead4 09bb
00000160: fd93 2a3e 6c5d e3bd 3ec4 873d 065f 28bd
00000170: 105a 0abd de8f 02be d47a 0cbc d063 f03d
00000180: 515a 8fbd 0a0b dfbd 8408 283d fd2f 933c
00000190: c5af f53b 51f6 003d c787 443d 2337 11bd
000001a0: 789f 863d afcf cfbc 1968 57bd cfdc 813c
000001b0: d6b3 85bd 1537 8c3d f90f 40bd 60dc 943d
000001c0: ccd3 3d3e 2db2 c3bd 0057 443c 2a37 febc
000001d0: 3798 2e3d a689 9f3a e9cf 083e 811f 433c
000001e0: 8e0d 85bd a3eb 02bd 866b 54bd ca17 2c3e
000001f0: a6a8 043e 6500 793c 74f9 bfbd e262 883d
00000200: 8ccb 1ebe 0aae 40bd 57ab 1dbd 1cd9 34be
00000210: 2564 493d 051f 0d3d f600 583e e38f 8bbd
00000220: ad3a 023e 3678 343c 31a0 843b d930 81bd
00000230: c565 093e 7580 c0bd be3f 7e3d ea54 90bd
00000240: 7465 e0bd b4dc 113d 023c ff3d 046a eb3d
00000250: 1372 24bc 0738 ed3d a68b f7bc 57c6 bcbd
00000260: a8f7 05be e8fd 85bd 3d8b 32bc 4921 13be
00000270: 3f80 4abc 44bb 68bd 2272 0abd 3c72 423d
00000280: 5539 e63d 35dd 82bd c3d1 72bd 387e 9e3c
00000290: d088 4bbc 1cc8 54bc f1b4 6b3c c83f 073d
000002a0: 2bee 1d3e 0fd2 3c3c 73db 073d f589 6fbc
000002b0: 4a03 debd e2fc c3ba 3fd3 eabd f42b 49be
000002c0: 55d3 a3bd c274 aabc 9ab1 a6bc 7610 423d
000002d0: 158b 963c 538d 493d 43d9 563c c495 52bd
000002e0: 0167 01bd 3566 fe3d 632f 39be 66c5 c4bd
000002f0: 4b30 28be 0291 ecbd 5156 0e3e a728 25bd
00000300: 1047 3d3e ea97 3abd 6f0f bbbd ba3a 643d
00000310: 334c 383d 61ef ab3c f602 3a3d 4e56 3b3d
00000320: e325 043c 4a2e 843b b43a 3a3d aaa7 023e
00000330: 1b19 273e b600 443d 66c0 613c e48d f13d
00000340: 8a10 913d 1cae 4cbc 2251 85bd dc9b e53d
00000350: ad42 9abc aa2a c7bd 9234 51bd f5d5 09bd
00000360: cd06 bbbd 70b9 0fbd 1288 d13c e4f5 d93d
00000370: c1c8 14bc 894f 0fbe 88d2 b23c 4330 f23d
00000380: 507e 01bd d024 c23d b0a9 ebbd eb02 bbbb
00000390: 4a48 c8bc 5906 afbd 5700 88bd 1ab5 12bc
000003a0: f733 b03d 71a4 42bd eab6 3e3d c96c b5bc
000003b0: c78b 053d 40d4 ef3c 6440 c0bd 8c6e 023d
000003c0: feef 003d 89d4 243d 11c8 5e3d 5e9c 57bc
000003d0: e9fa 7bbd eeea a7bc 4088 bebc 57b6 2a3d
000003e0: 2442 f4bd 9c9c 683d 2977 cabd a9c0 d4bc
000003f0: 2219 0a3d a753 e1bc 8633 44bd ce5d f03c
0.010199821 0.0873791 0.09573203 0.06584903 0.0074528605 -0.0062922216 -0.049322154 0.09425411
-0.06878681 -0.029112766 0.114169784 0.06779441 0.08077086 0.04186959 0.08066531 0.0076334868
0.050376672 -0.017240256 0.16867302 0.019842476 -0.043954805 0.074074134 0.051178016 0.10169666
0.06494676 0.07055998 0.11604912 -0.10167592 0.040106863 0.016190954 -0.094544224 -0.025132347
-0.048834074 -0.064345896 -0.03933816 -0.02186503 -0.19498819 -0.098117396 -0.0109331 0.117329806
0.14738221 -0.11814915 -0.027878482 -0.10344041 -0.015390714 -0.010928162 -0.14901449 -0.09548633
-0.11490783 -0.0393053 -0.11034778 -0.021913683 -0.045932833 0.09954729 0.067830004 -0.038485527
-0.08851037 -0.21388076 0.094215445 0.012687135 -0.07169033 0.20988223 0.041088697 -0.064794704
0.0627212 -0.03292666 -0.0573713 -0.037995923 0.010928014 -0.013559261 0.17840025 -0.039770618
0.040308893 0.095440485 -0.09441044 0.070430465 -0.0027510612 -0.13788883 -0.004935635 0.08863568
0.06584326 0.049056657 0.07640372 0.1554 0.04270631 -0.028471557 -0.015067793 -0.0021031448
0.16658016 -0.11101803 0.06629227 -0.041106246 -0.033777297 -0.12750193 -0.008574206 0.11737788
-0.06999648 -0.108907774 0.041023746 0.017967219 0.00749776 0.031484906 0.04798105 -0.035452973
0.06573385 -0.025367586 -0.05258951 0.01585236 -0.065284416 0.068464436 -0.046890233 0.07268596
0.18537825 -0.09555469 0.011983633 -0.031032164 0.042625632 0.001217176 0.13360561 0.011909367
-0.06496726 -0.031963002 -0.051860355 0.1680595 0.1295496 0.015197848 -0.09373751 0.066594854
-0.15507334 -0.047040977 -0.03849348 -0.17660946 0.04916777 0.03445341 0.21094117 -0.068145536
0.12717696 0.011014989 0.0040474166 -0.06308145 0.13417728 -0.09399501 0.062072508 -0.07047446
-0.10956851 0.03561087 0.124626175 0.1149483 -0.010036963 0.11582952 -0.030217957 -0.09217518
-0.13082755 -0.065425694 -0.010897455 -0.14368166 -0.012359678 -0.056819215 -0.03380025 0.047472224
0.11241404 -0.06389848 -0.059282076 0.019347295 -0.012422755 -0.012987163 0.0143864015 0.03301981
0.15422885 0.011524691 0.033168267 -0.014620294 -0.10840471 -0.0014952684 -0.11466073 -0.19645673
-0.07999293 -0.020807628 -0.020348359 0.04737898 0.018376866 0.049207043 0.013113323 -0.05141236
-0.031592373 0.12421838 -0.18084483 -0.09607963 -0.16424672 -0.115510955 0.13900115 -0.040321972
0.1848414 -0.045555033 -0.09133803 0.05572007 0.044994544 0.020988168 0.04541298 0.045736603
0.0080656735 0.0040338384 0.04546614 0.12759271 0.1631817 0.04785224 0.0137787815 0.117946416
0.07083233 -0.012492683 -0.065096155 0.112113684 -0.018830622 -0.097249344 -0.051075526 -0.03365131
-0.091321565 -0.035088956 0.025577579 0.10642603 -0.009081067 -0.13995184 0.021828905 0.118256114
-0.0316146 0.09479678 -0.11506975 -0.005707135 -0.024448533 -0.085461326 -0.0664069 -0.008954311
0.086036615 -0.047520105 0.04656116 -0.0221466 0.032604005 0.029276013 -0.093872815 0.031843707
0.031478874 0.04024175 0.054390017 -0.013159839 -0.061518583 -0.020497765 -0.023258328 0.0416778
-0.11926678 0.05678998 -0.09886009 -0.025970774 0.033715375 -0.027505709 -0.0479007 0.029341605

hid.1.bias f4 [100]
00000000: 378e 09ba efbc a13b 9d14 5abc 8232 31bb
00000010: 048b 54bb 8cb2 84bb 47a9 ce3a fdf2 8d3b
00000020: 3423 933b 6a1b c13b 380c b2bc 9ef5 3abc
00000030: 5a53 5a3b 0629 cf3b bac9 41bb e128 983b
00000040: 5104 c9bb 25e9 a5bb 3b5c 96bc 9e4d e4b9
00000050: 3f0b 183c 000c a43b a331 3ebb 0db5 43ba
00000060: e74b e43a cb71 0ebb de4e bfba f905 f0ba
00000070: 7483 cdba c99f 84b9 6439 95bb 25dd 6a3b
00000080: 1a1b b6bb 09b3 c53a d0c2 72ba e31f 283a
00000090: 8a0b 3cbc 65d9 d4ba 87f9 7abb 9ab4 bc3a
000000a0: 34b2 0cbc 240d 82bb 861a 653b 67ec 593b
000000b0: beb3 55bb d1ac 2b3b 35d1 28bb a01d 0bbc
000000c0: 2bfa 5ebc 13b8 b4bb 3a28 52ba 73fd 583b
000000d0: d34b 603b 3cda ad3a bb94 903b eb20 9ab9
000000e0: da6b 9bba 106a 7c3c 62dd bebb d857 8fb7
000000f0: db3a a83b 6b2b da39 c249 843b 1a4a 1cbc
00000100: d5b2 1d39 9638 b03a daf6 04bb a0aa 67bb
00000110: 5c9c 4dbb 8b4b cb3a d520 92ba ec00 e23b
00000120: 29f9 03bb 1150 883c d1a2 073b 6812 0cbc
00000130: 28d9 183c 36cf c9bb 00fd ebba 6445 35bb
00000140: 7a97 993a daca f03a 871d 01b9 b58f 4c3c
00000150: e6fa 5dbb 14da 893c 1c10 e33b c6ef 533b
00000160: 174d ce3b acff 9d3b 33b1 02bc 060a b939
00000170: ae70 eabb 8e6f 8bb7 e244 133b 7562 763a
00000180: a204 40bb 8271 9d3b c954 373c 3e88 643c
-0.0005247327 0.0049358527 -0.013310579 -0.0027038162 -0.0032431493 -0.0040496048 0.0015767001 0.004331945
0.0044902805 0.0058931606 -0.021734342 -0.011411099 0.0033313842 0.006322029 -0.0029569701 0.004643545
-0.0061345478 -0.0050631934 -0.018354526 -0.00043545378 0.009280025 0.0050063133 -0.0029021285 -0.00074656383
0.001741764 -0.0021735306 -0.0014595648 -0.0018312327 -0.0015679435 -0.0002529605 -0.0045539606 0.0035837379
-0.00555743 0.0015083264 -0.00092605967 0.0006413443 -0.0114773605 -0.0016239105 -0.0038295703 0.0014397085
-0.008587409 -0.0039688516 0.0034958436 0.003325248 -0.0032608355 0.0026195536 -0.0025759463 -0.00849095
-0.013609449 -0.0055151074 -0.00080168585 0.0033110052 0.0034224882 0.0013263891 0.0044122613 -0.00029397695
-0.0011857704 0.015406147 -0.0058247307 -1.7087834e-05 0.0051339692 0.0004161255 0.004037113 -0.009539152
0.00015039307 0.0013444598 -0.0020288737 -0.0035349503 -0.0031373715 0.0015510184 -0.0011148701 0.0068970826
-0.0020137525 0.016639741 0.0020696411 -0.00854931 0.009329118 -0.0061587347 -0.0018004477 -0.0027659768
0.0011718117 0.0018371001 -0.00012313398 0.012485434 -0.003387147 0.01682762 0.0069294106 0.003233896
0.006295811 0.004821738 -0.007976818 0.00035293418 -0.0071545457 -1.6622038e-05 0.0022471477 0.00093988265
-0.0029299636 0.004804791 0.011189648 0.013948498

hid.2.weight f4 [100, 100]
00000000: 2395 3f3c 79c2 ca3c 4cf8 cf3d 293e b93d
00000010: ef1a 183b 47e3 013d 21a2 1fbb 8ba7 473e
00000020: 206e f9bb fb1c d63d 7a82 2d3d ccbc 5dbd
00000030: b71c 1ebe e3f9 123d 5045 84bc 9453 d5bc
00000040: a73e 993d c9b3 973d c7d7 1cbd 4af6 ccbd
00000050: 0d63 6c3c 82e2 bcbd d2c5 283c 1b2b 14be
00000060: 1296 163e 2c41 763c edcc 28bd 36ad bbbc
00000070: 29ce 373d a047 20be b74a 713d ba44 d2bc
00000080: 1044 a9bd 4982 043d 474a fdbc 6aaa fc3d
00000090: d390 04be b1b4 553d 11b5 33bd 4a3d 00bd
000000a0: b923 28be dcc9 e93d c175 573d a5f5 e23d
000000b0: f015 253e bd96 b7bd bec3 043e 6189 543d
000000c0: 0717 0dbe be2b 203e 002b 9bbd eb14 a53d
000000d0: 4163 68bd 0fdc 89bd 051b 313d 021b aebd
000000e0: 2171 1cbd 27e2 163e f556 453d 1bf1 1ebb
000000f0: b4c0 0b3d e92e 813d 22bd 39be 8026 3fbd
00000100: 119c 863c 77ac d2bc c973 58bd 28eb a3bd
00000110: 868f 57bb a741 65bd ea7c 983d e2ab c1b9
00000120: 0883 d8bc 854e 23be 6617 263c 5bdd c03c
00000130: 8997 cdbd 35ac ecbd 993e 9cbc 1c87 bbbd
00000140: c4e2 bf3c 7eb7 46bd 59fd 16bc fcba 83bc
00000150: b0e3 453d 9844 4bbd d70b 5abd d2f7 b63c
00000160: f7c1 953c f8b1 abbb 3a45 59bb a1ae 373d
00000170: f50b 683b 7acf 5abc d032 13be fd49 78bd
00000180: c90b 94bc d76e e33d 457f 7a3d a9b5 33be
00000190: 40e0 3ebd 6b44 163d 8b4d c2bd 5511 babd
000001a0: 6f24 263d 4b68 6cbd c7df c43d 1196 8a3d
000001b0: 8ff3 c63d b017 8ebe def7 61bd 9280 fbbd
000001c0: 6613 7f3d 8408 babd 0895 17be 71ae 18bd
000001d0: 21e9 34be a978 d93b 1096 9d3d 43a2 a23d
000001e0: 8c65 2a3d 0ac5 00be a76c afbd c358 9d3d
000001f0: 5946 46bb 082d 953d 147a f2bd 389d 953d
00000200: 00b3 07be b226 fb3c cd2d 533d 3208 573b
00000210: 67e1 a63c 7563 873d 27ec 97bc 2dca 93bd
00000220: 5c86 cb3d 2a91 32be bfb1 573d 3498 933d
00000230: 2d19 3cbc 1c69 7abd c79c c53b 1400 2a3e
00000240: 1d9e 73bd 5eed 8abd e875 5c3d b59e 833c
00000250: cc05 993d 6e2e cf3d 9c54 9cbd bab3 9e3d
00000260: 7118 d83d e3c4 b5bd b876 033e b1db 1abb
00000270: 05ca 80bc 5d79 b2bd 24be 453b 7790 7dbd
00000280: 8fe9 233a b086 373c a9df b03d 7013 a2bc
00000290: fb99 1c3e c671 13bc a158 b9bd 037c 9fbd
000002a0: 0236 0c3e ebd1 153e 14e7 8abd 3008 53bd
000002b0: 8943 86bd 8ff6 223d ce6b 703c 311b 0f3c
000002c0: b05e 883c f75f b33d c710 4e3c e4db 94bc
000002d0: efb1 7dbc 8e85 0fbe a622 023d 07d1 a0bc
000002e0: e21d 81bd ad88 a23d 22ab 9e3d 04e8 dcbc
000002f0: b191 843d 528e 86bd dd63 303e b7b3 ffbd
00000300: e738 2f3c 9979 9dbc 8bf8 a5bd f70d 453e
00000310: 0be7 87bd 766e a6bd 0404 4c3e a679 3cbc
00000320: e008 1a3e 287b 7dbc ec76 1dbd b596 ef3d
00000330: 4359 1abe e638 c1bd fc45 7fbd 1707 033d
00000340: 7b18 7e3c 35cd e4bd fbbe 1fbe 8996 b23c
00000350: d69d d6bc ca26 8fbd cf5b 3e3d e4e0 ed3c
00000360: ed37 efbd 1c1f 0b3c d738 28bd 0757 803d
00000370: fea7 a1bd b601 5bbd 4cca c2bc 8b24 3ebd
00000380: 5f65 583c 519f 853b 72ea abbb 82f9 f53d
00000390: c1ac 323c f3df e7bd 8152 6dbb 2925 4bbd
000003a0: fa75 b23d 1319 e63d 67f2 e7bb 989f a13d
000003b0: 2269 f0bd 73a6 e53d a2b1 bf3b 1941 b93c
000003c0: 32ea cb3c 71ad aabd 332f 2bbe 8bb1 0f3e
000003d0: 9c9e 67bd f342 6a3d 489c 103c ff9d 15be
000003e0: cebc 8ebd 9f35 ca3d 1f78 c7bd 6706 813a
000003f0: 240a 8a3d 8a5a 98bb b5ef dabc 352c e23d
0.011693272 0.024750935 0.10154781 0.09045059 0.0023209413 0.03171089 -0.002435811 0.19497506
-0.007612005 0.10454746 0.04236076 -0.05413513 -0.15440641 0.03588284 -0.016146332 -0.02604083
0.07482653 0.07407338 -0.03829172 -0.100079134 0.014427912 -0.092228904 0.01030107 -0.14469568
0.14705685 0.015030187 -0.041211057 -0.022909742 0.044874344 -0.15652323 0.058909144 -0.025667537
-0.08264935 0.032350812 -0.030919207 0.123371914 -0.12945871 0.052174274 -0.04387385 -0.03130845
-0.16419877 0.11415455 0.052602533 0.11082009 0.1612165 -0.08964298 0.12965295 0.051888827
-0.13778315 0.15641686 -0.07576561 0.080606304 -0.05673528 -0.06731426 0.04323866 -0.08501245
-0.038193826 0.14734708 0.04817863 -0.0024252597 0.034119323 0.063077755 -0.18138555 -0.046667576
0.01643184 -0.025717003 -0.052844796 -0.08003837 -0.0032891943 -0.055970814 0.074457005 -0.0003693989
-0.026429668 -0.15947922 0.010137415 0.02354305 -0.10038669 -0.115562834 -0.019072818 -0.091566294
0.02342356 -0.048514836 -0.009215676 -0.016080372 0.048312843 -0.049625963 -0.053233948 0.022334967
0.018280966 -0.0052397214 -0.0033152835 0.044844273 0.0035407518 -0.01335513 -0.14374852 -0.060617436
-0.018072026 0.111051254 0.06115653 -0.17549767 -0.04660058 0.036686342 -0.094874464 -0.09085337
0.04056209 -0.05771665 0.09612995 0.06766904 0.09714424 -0.27752447 -0.055168025 -0.12280382
0.06227436 -0.090836555 -0.14802945 -0.037275735 -0.17667057 0.0066366983 0.07694638 0.07941105
0.04160075 -0.12575164 -0.08565646 0.076829456 -0.0030254333 0.0728398 -0.11839691 0.07305378
-0.13251877 0.0306581 0.05155735 0.0032811281 0.020371152 0.06610767 -0.018545223 -0.07216296
0.099377364 -0.17438188 0.052659746 0.07206765 -0.011480612 -0.061135396 0.006030652 0.16601592
-0.05947696 -0.067835554 0.05382338 0.016066888 0.07471809 0.10116278 -0.076333255 0.07749124
0.10551537 -0.08875444 0.12838256 -0.0023629481 -0.01572133 -0.087145545 0.0030173147 -0.06190535
0.00062527595 0.011201546 0.0863641 -0.01978466 0.15293114 -0.008999294 -0.09050108 -0.07787325
0.13692477 0.14630859 -0.06782356 -0.05152148 -0.0655585 0.039785918 0.01467414 0.00873451
0.016646713 0.08758538 0.012577242 -0.018171258 -0.015484317 -0.14015791 0.031771325 -0.019630922
-0.06304528 0.07936225 0.07747485 -0.026966102 0.06473101 -0.06570114 0.17225595 -0.1248545
0.010694719 -0.019223021 -0.081040464 0.19243608 -0.06635865 -0.081265375 0.19923407 -0.011503613
0.15042448 -0.015471257 -0.03844349 0.11698667 -0.15073113 -0.09434681 -0.0623226 0.031989183
0.015508766 -0.11171953 -0.15600197 0.021800296 -0.026198309 -0.0698982 0.046474274 0.0290379
-0.11680589 0.008491304 -0.04106983 0.06266599 -0.0789337 -0.05346843 -0.023778103 -0.04642157
0.0132077625 0.00407783 -0.005246454 0.120104805 0.010905446 -0.11322012 -0.0036212506 -0.049595986
0.087139085 0.11235251 -0.007078457 0.07891768 -0.117388025 0.11213388 0.005850033 0.022614049
0.024891946 -0.083338626 -0.16717224 0.14032571 -0.056547746 0.057192754 0.008826323 -0.14611052
-0.069696054 0.09873509 -0.09739708 0.0009843827 0.067402154 -0.004649465 -0.02672563 0.11043588

hid.2.bias f4 [100]
00000000: e9cc 10bb 2344 1bbb cf5a 5b3c b536 b7bb
00000010: fffb db3b 464d 7b3b bcec 843c bada 5bbc
00000020: b2eb d13b fc9c 7939 e63e 00b9 93a6 a1ba
00000030: 73bc 54bc df06 8b3a 9171 60bc 3ea4 9c3c
00000040: ea34 743c 4000 733b 7f53 913a 8dd0 c53b
00000050: b959 71bc 619b 9ebb d44f 53bb ae43 96bc
00000060: 0e2d ecbb 7970 82bb a1c8 39bb 22a3 18bb
00000070: d93d fc3b 66e6 a13b 45eb 5c3b d3af 053b
00000080: 4f89 0e3b 3474 a8bc 328a a03b 86cc 11bc
00000090: aeaf 6cbc 9d23 523c 708b 823b 9d1f abbb
000000a0: bf06 bc3a 5316 db3c 372a 35bb 5242 df38
000000b0: b194 b0bb df30 68bc 19ae 9fbc c533 e83a
000000c0: a75b 77bc 8675 c53b c4a3 193c f1ec 083b
000000d0: a692 61bc 54ea 9f3b cb2f e339 7e19 a53c
000000e0: a23d f0ba a029 9abb 5d98 343a 467e 873c
000000f0: 4357 533b 0cd9 803b 96aa 873b b319 61bc
00000100: cd4f 27bb 4996 083b 6b7c 45bc 2916 473b
00000110: 1a77 0abc 1f3d 1b3b 40fe a33c 3b10 80bc
00000120: 6715 093c 2bb5 ecbb 05fa 7cbb ae37 183c
00000130: ac56 deba 67f0 b5bc ebab fa3b fe9f 863b
00000140: b75e 25bc 2b35 f8bb a4be ffbc 6c92 9cbb
00000150: 857e 3dbc 8541 7a3b ec3a 9fbb fbdb 053b
00000160: a46e 6c3b 37cf 96bb 2c60 933c 9b1f de3b
00000170: fe5d c23b f4cf 26bc 1c15 1cbc 8042 863b
00000180: d587 33bc f1f7 26bc 0a7e 5ebc 3c4e 85bc
-0.0022094792 -0.0023691736 0.01338835 -0.0055912384 0.00671339 0.003834562 0.016226165 -0.013418848
0.006406271 0.00023804972 -0.00012230463 -0.0012332968 -0.012984383 0.0010606906 -0.013698951 0.019121286
0.014905194 0.0037079006 0.0011087506 0.006036824 -0.014730864 -0.0048403 -0.0032243626 -0.018342819
-0.0072075194 -0.003980693 -0.0028348344 -0.0023290594 0.0076978025 0.0049407957 0.0033709568 0.002039899
0.0021749323 -0.020563222 0.0048992867 -0.00889886 -0.014446182 0.012825874 0.0039839074 -0.0052222745
0.0014345272 0.026744043 -0.002764357 0.00010645822 -0.005388819 -0.014171808 -0.019492196 0.0017715624
-0.015097535 0.006025973 0.009377424 0.0020893181 -0.013767874 0.004880229 0.00043332423 0.020153757
-0.0018328915 -0.004704669 0.0006889159 0.016539704 0.0032248057 0.003932124 0.0041402085 -0.013739037
-0.0025529743 0.002084153 -0.012053589 0.0030378199 -0.008451248 0.0023687554 0.020018697 -0.01563274
0.008366919 -0.0072237453 -0.0038601172 0.009290619 -0.0016963086 -0.02220936 0.0076498888 0.004108428
-0.010093383 -0.0075746975 -0.031218834 -0.004778197 -0.011565809 0.0038186025 -0.004859319 0.0020425308
0.003607669 -0.0046023387 0.017990194 0.00677867 0.005931615 -0.010181416 -0.009526517 0.004097283
-0.010957678 -0.01019095 -0.013579855 -0.016272657

hid.3.weight f4 [100, 100]
00000000: 25d4 86be 2385 543d fbe8 a53a cd84 153c
00000010: 2457 f6b9 4a05 153c 9ccd 9e3c 2c56 e2bd
00000020: 93e4 d03c 7686 aebd 71c0 c03d a8f6 d6bd
00000030: 3929 673d 5c89 e1bd 6dcc 15bc 137e 003d
00000040: 728b b23d 5d88 dd3d 4587 bd3d 51fc 8f3d
00000050: 414a a13c 9cf9 813c 1efc 26bc 0dd3 35bc
00000060: 62bb 89bd 470d a3bc cfce 6abc d318 8dbc
00000070: 2bec b73a 7314 ebbc 526e 953b 29e2 b93c
00000080: 6712 103d b153 22be 40d4 01be 5fe5 743d
00000090: 7f5e 94bd 7748 15be c99d d2bb 46fb 3b3d
000000a0: b5d4 713c c97a 22be f043 ae3b 8b05 043e
000000b0: be65 ce3c 603c 6fbd 4231 e03c 408f d2bd
000000c0: 8ccf 70bd f9f6 c0bd cec8 b0bd c3dc e13c
000000d0: c9a0 f33d 0002 ff3c d912 ac3d 0fc6 3d3e
000000e0: 9fd9 cb3d 36d0 10be 4f87 26bd 5896 9f3d
000000f0: 2598 1fbc a8c6 71bd cc15 b3bc 2a6a 553d
00000100: d891 dabc 32df c9bc f639 21bd 3d1a d83d
00000110: 6b17 053d 5220 c5bc bd7f 03bd 13ad babc
00000120: a985 c73d a19d 173e 5f05 46bd 2202 ecbd
00000130: a317 013d 087b 13be 79f5 863d dddd cc3d
00000140: 96a4 fbbd b89c 713d 8255 ecbd f887 8bbd
00000150: 7c07 913d 1561 d2bc 0a90 883d ceae ad3d
00000160: ce94 debd df2b 103e 54ed 0e3e 2f60 24be
00000170: 59ea 80bc e18f 20bd 7100 c33c 27fe 06bd
00000180: 4de8 a63c 0cdc 883e e30d dd3d eeaf 573c
00000190: 2908 df3c 92e8 52bc ca93 a1bd d8fa 003d
000001a0: 9889 9a3d 805d e7bc 1bd9 ac3d 1763 fa3d
000001b0: cef8 04bd 876c cfbd 4119 72bc 1760 febd
000001c0: f1b3 ed3c 02e6 4fbc d844 903c 8515 c6bb
000001d0: 118e e73d f7da 8a3d 02f4 cdbd be85 19bd
000001e0: 3f95 8dbd 656b fabd f25a c83d 8265 873d
000001f0: 546f 8ebd 5258 dabd 3cdf 983c cb72 813d
00000200: f666 3e3e 3fd7 d8bc 8dc4 833d 38fd 9b3d
00000210: 7b17 063e 3712 c8bc 83d0 d53d 285d 72bd
00000220: a235 e03c 1bec de3c 3efe ebbd 473c 9fbc
00000230: 09f6 aa3d 50fe 9dbc 19cf 203e 4cfd 473d
00000240: 57a2 c43d 490c 343d b450 b93b 0ac9 dc3d
00000250: 9904 f2bd cc27 673d 0077 743d fc8d 753c
00000260: ef8b a73d 89bf 0ebb 39b1 e4bd 1c3c 87bc
00000270: 3a85 9c3c a0e3 e0bd 0360 1f3d 6074 74bd
00000280: 66a2 ebbc 2aa4 8a3d 1dac b53d d6be ad3c
00000290: bd90 cbbd f735 8dbd 6bc0 c93c 20bb 763c
000002a0: 1ab5 4abd 6827 653d 4ede 8cbd e6a1 bc3d
000002b0: 794b 243d 3816 26bd 48a0 c73d 4819 6b3d
000002c0: b27e fbbc 8dda 95bc 3562 d8bc e336 a33d
000002d0: b1f8 993c 4dea b13d 7c31 333d b42b 993d
000002e0: bdb6 53bd 2088 87bc b347 7dbc e8ea 4d3e
000002f0: ebf2 033d 76fc 1fbe fc59 2f3c 0926 09bd
00000300: 85cc 89bd b6e7 903d a298 06bc c9d9 abbb
00000310: 1404 9fbd 5fae 7d3c c2e7 ec3c 5567 44be
00000320: 0edb 763d 394f 9dbd 1e1f be3c 8dc7 c8bd
00000330: c50e 913b 9b41 52bd fb1c 37be 34c5 4bbd
00000340: db97 02bc 32d7 6ebc 8d0b b8bd 988a 90bd
00000350: 966c 3cbd 4a60 ccbc f900 7fbd 32c9 a8bd
00000360: 3ee7 f93d 7e97 6b3d 8f32 c43d 2c09 a0bd
00000370: 2406 2cbe ffbd 413d edbb 413d 0eca d5bc
00000380: 516f c5bc 3d4c 9cbd ebee c8bc e85a 0cbc
00000390: b887 c23d 38c8 71bd 045c 43bd 52e9 23bd
000003a0: 6428 71bd 490a 34bd 7c67 89bc 08e5 0ebd
000003b0: 2497 713d 6f5d 9e3c 8cbd 5c3d 83ba 32bd
000003c0: 6b4d 943d bc23 20bd f6e6 90bc 223c d9bd
000003d0: 90ab 34bc cabf bebd 0578 153c cb41 443d
000003e0: 43fd 0b3d d18a 8e3d 9c22 81bd 8e3c c3bc
000003f0: e5fb 0b3e 47dc 88bc e6fe 8abd b6e7 d4bc
-0.26333728 0.05188478 0.0012657935 0.0091259 -0.000469857 0.009095499 0.019385152 -0.11051592
0.025499618 -0.0852174 0.09411705 -0.10496265 0.056435797 -0.11012527 -0.009142977 0.031370234
0.08718003 0.10817025 0.09254316 0.070305474 0.019688727 0.015866093 -0.010191945 -0.011097682
-0.067251936 -0.019903792 -0.014331534 -0.017223751 0.0014032176 -0.028696274 0.0045602703 0.02269085
0.0351738 -0.15852238 -0.12678623 0.059789058 -0.07244586 -0.14578424 -0.006427501 0.04589393
0.014760186 -0.15867151 0.0053181574 0.1289274 0.025194999 -0.058407187 0.027367238 -0.10281229
-0.058791682 -0.09422106 -0.086320505 0.027571088 0.11895902 0.031128883 0.084020324 0.18532585
0.09953617 -0.14141926 -0.040656384 0.07792348 -0.009740864 -0.059027344 -0.02186098 0.0521032
-0.026680872 -0.02464256 -0.039361916 0.105518796 0.032493036 -0.024063263 -0.032104243 -0.022787606
0.097422905 0.14806224 -0.048344966 -0.11523844 0.031516682 -0.14402401 0.06589789 0.100032546
-0.12287252 0.05898735 -0.11539747 -0.06813043 0.07081506 -0.025681058 0.06668098 0.08480607
-0.10868226 0.14079235 0.13957721 -0.16052316 -0.015736746 -0.039199714 0.023803921 -0.032957222
0.020374442 0.26730382 0.10793664 0.0131645035 0.02722557 -0.012872832 -0.07889517 0.031489223
0.07545775 -0.028242826 0.08439847 0.12225931 -0.03246384 -0.10128122 -0.014776529 -0.124206714
0.029016467 -0.0126891155 0.017610952 -0.006045046 0.11306394 0.067800455 -0.100563064 -0.037481062
-0.06913232 -0.12227515 0.097829714 0.06611158 -0.06954828 -0.10661377 0.018661134 0.06320723
0.18593964 -0.026469825 0.064339735 0.07616657 0.13094895 -0.024422748 0.10440161 -0.059170872
0.027369324 0.027212193 -0.11523102 -0.019437922 0.08347709 -0.019286305 0.15704001 0.048825547
0.09601276 0.04395703 0.0056553725 0.10780533 -0.11817283 0.056434438 0.0596838 0.014987465
0.08180987 -0.0021781644 -0.11166615 -0.016508155 0.019106496 -0.10980916 0.038909923 -0.059681296
-0.028763961 0.06769593 0.08870719 0.021209162 -0.09939716 -0.068950586 0.024627885 0.0150592625
-0.04948912 0.055945784 -0.06878339 0.09210567 0.04011104 -0.040548533 0.09747368 0.057397157
-0.030700061 -0.01829269 -0.026414016 0.07969453 0.018795343 0.086872675 0.043748364 0.07479039
-0.051687945 -0.016544402 -0.015458989 0.20109141 0.032214087 -0.1562365 0.010702606 -0.03348354
-0.06728462 0.07075445 -0.008215101 -0.005244468 -0.0776445 0.015483468 0.028919104 -0.19180043
0.0602675 -0.07681126 0.023208197 -0.09803686 0.0044268095 -0.051332098 -0.17882149 -0.049748614
-0.0079707755 -0.014577674 -0.08986578 -0.07057685 -0.046001993 -0.024948258 -0.062256787 -0.082415
0.12202309 0.05751752 0.09579956 -0.078142494 -0.16799217 0.047300335 0.04729836 -0.026097324
-0.024100931 -0.07631729 -0.024527987 -0.008566596 0.094985425 -0.059028834 -0.047695175 -0.040017433
-0.05887641 -0.04395512 -0.016772978 -0.03488639 0.05898203 0.019331662 0.053891703 -0.043634903
0.07241329 -0.03909658 -0.017688256 -0.106071725 -0.011027232 -0.093139246 0.009122853 0.047914308
0.034177076 0.06960071 -0.06305429 -0.023832586 0.13670309 -0.016706599 -0.06786899 -0.025989395

hid.3.bias f4 [100]
00000000: ad86 603c da36 a3bc 26f0 893b 9b62 a83b
00000010: a40d f1bb 0598 c639 5d21 043c 10ab bc3b
00000020: e2bf 0ebd 9ac3 d03c 35eb 8c3c a2a7 16bc
00000030: 97eb a4ba 28c2 373b ff5b 26bc 25cc 67bb
00000040: 7d5f 913c 442f 43bc e015 3e3c 4c81 58bb
00000050: 603e 803c 232f b3bc 3e7f e33a ccb8 92bb
00000060: 8b1a 12bb 85ea e4ba 6ee5 f33b adff cf3b
00000070: c67f e5bc 4ead 52ba b3f9 273c b625 4235
00000080: a0fb 7abc 5680 133c dc07 8d3a 777e 95bb
00000090: 4fbd 87ba dcbc adbc 8317 c43a 89cc 08bc
000000a0: 0046 903a 3420 0dba 8374 ed3c 3e5b e9bb
000000b0: 950d 0ebb 19f1 463c d96e ea3c 8864 d93a
000000c0: 6597 3cbc cb62 b3bb 6760 06bd 4233 b03b
000000d0: 00ce 8cbc 69eb a53a 76df d1bb 6a0a 10bc
000000e0: 0db7 203c c2bc 37bc 19c6 473b 05fa be3c
000000f0: ca8d 5f3c cc4f 703c 0680 813c 7a3f 8fbb
00000100: 53ec 22bc e1a7 9d3c cf90 d53b 1738 f2ba
00000110: cc59 3ebb afc3 82bc 12f1 173b abbb 63bb
00000120: 2a45 843c c9dc 7b3c ed1d 003c cd4b 5fbb
00000130: 4481 5dbc 142e debc b0b4 dcbc d1e8 c23b
00000140: 1e44 ca3c 863b 25bb 1bf7 313a 8f15 edbc
00000150: 5617 b0b9 3860 47bc a326 bdbc c7c0 153b
00000160: afc2 fdb9 e13e 9bbb ff7f b4bc 5c6e 88bb
00000170: 8151 6fbc 639e b7ba a2e8 13bc 2ba8 e9bb
00000180: 1462 0d3b 1351 acbb c149 26bc 1e61 083c
0.013703984 -0.019923616 0.004209536 0.005138708 -0.0073563624 0.00037878766 0.008064595 0.005757697
-0.034850962 0.025483895 0.017202 -0.00919524 -0.0012582418 0.002803931 -0.0101537695 -0.0035369482
0.017745728 -0.0119131245 0.011601895 -0.0033036051 0.015654743 -0.021873062 0.0017356647 -0.004477596
-0.0022293653 -0.0017464912 0.0074431216 0.0063476176 -0.028015029 -0.00080366887 0.010252404 7.232551e-07
-0.015318781 0.009002766 0.0010759789 -0.004562195 -0.0010356101 -0.02120822 0.001496062 -0.008349546
0.001100719 -0.0005383522 0.028986221 -0.0071214726 -0.0021675576 0.012142443 0.02861731 0.0016585747
-0.011510705 -0.0054744235 -0.03280678 0.005377204 -0.017188072 0.0012658659 -0.0064048124 -0.008791545
0.009809268 -0.011214437 0.0030483066 0.023312578 0.013644645 0.014667463 0.015808117 -0.0043715807
-0.009944039 0.01924509 0.0065175067 -0.0018479851 -0.0029045222 -0.01596245 0.002318446 -0.003474931
0.016146261 0.0153724635 0.007819635 -0.003407228 -0.013519589 -0.027121581 -0.026941627 0.005948164
0.024690684 -0.002521248 0.0006788836 -0.028940944 -0.00033586723 -0.012168936 -0.023089712 0.00228505
-0.0004840097 -0.0047377204 -0.02203369 -0.0041635465 -0.014606834 -0.0014008995 -0.009027632 -0.007130643
0.0021573352 -0.0052586882 -0.01014942 0.008323936

hid.4.weight f4 [100, 100]
00000000: 1617 0b3b 8e6c f73c 0cb3 bd3d a787 cf3c
00000010: a1ce 923d b32a 3b3d 2b60 3dbd 51ec 24bd
00000020: 0f91 a63d 5048 783d 5170 c73b 8244 13bb
00000030: e5a6 dfbd 2335 98bd 00c7 3b3d 829d 30bc
00000040: 6a69 c7ba b107 b1bd 4396 3f3e cf74 c3bd
00000050: 52c4 d93d 869a 56bc b61a d5bc 3e78 0b3d
00000060: a325 083d 4f3f 4bbd c734 76bb f2c4 fabb
00000070: 915c e83c ff35 82bd 520a aabc 8790 06be
00000080: 8e05 033d 5c51 463d 6172 ae3d 42c7 56bd
00000090: 7cce 0b3d 880d 2cbd 7d12 c1bb 5fc4 06be
000000a0: 468e a33d 0e3c 233e 594a 4ebe 3779 423d
000000b0: 9a30 1bbd 853b 96bb 6b6d aebc 2881 52bd
000000c0: a2b2 86bd ad55 8ebd 4ae8 7f3d 7579 fc3d
000000d0: 4206 263e 77af 2ebd eed5 833d f46b 4abd
000000e0: 8a7e fbbd 1888 3bbc eac1 96bd 380d 5ebe
000000f0: 0c9c f8bd 8191 20bd ee60 de3d e0bc a53d
00000100: 37ed 073e bafc e5bb ad08 febd 8be3 b8bd
00000110: fa74 453d a9cd 023c b997 39bd 89dc c8bc
00000120: da72 963d 7351 613d dd73 4a3d 2db7 393e
00000130: 2779 d6bc d8e3 1ebc 750e 943c 2946 c8bc
00000140: a01c 19bd 9368 1e3c 65a3 313d d130 363e
00000150: 1369 f13c 664a c33c 7877 883d 7808 50bc
00000160: 539f 533e 3b43 81bd e322 f13c 4297 cf3d
00000170: 11ae 603c 649e 733d e66d b0bd fb7f f9bc
00000180: 0654 26bd f011 cc3d 62cd d8bd 6d38 22bd
00000190: abf2 283d 9ed1 b13c 5597 893d 7a69 463d
000001a0: 9d03 19bc b0e5 2e3d e8af 85bd a349 29bc
000001b0: 82fc d63d fd0e 84bd 8830 73bd 6b6f 083d
000001c0: 3df9 7ebd 6169 45bd 64aa 08be c626 cdbd
000001d0: 614d 043e 4a96 83bd 1332 12be 6a12 043d
000001e0: be9d 3dbd 6f65 213d 0a44 7ebb c590 5e3d
000001f0: 1e46 07bd ff50 07bd b454 9cbd 4176 61bd
00000200: b11d 9a3c fc7e 18bd 37c9 52bd ab61 13bd
00000210: e39c 96bd b69b 2e3d ea36 ddbd 4aca babd
00000220: 7ba2 06bd f2ba 0d3e 7ec4 37be 53ca 393c
00000230: ca90 193d 44fd eb3a da0d 79bd d937 8fbb
00000240: 73d4 003d cde3 5ebe 2f8f ef3c 732f 08be
00000250: bbd7 813d 874a a53d eb08 13be a0fc c33c
00000260: 4d56 a1bd ee49 2ebe 3617 e43b 79ee f73c
00000270: 237b f4bc 582d 34bb 96c5 bbbd f8fb 8c3e
00000280: 7c8c e53c dcde 8fbd 7519 a23d 4751 da3d
00000290: 5b37 19be 27ab fb3d b63b 823d 492d bcbc
000002a0: 6fb5 b83c 8ddc 5e3c 6d4f 703c 4e1b 44bd
000002b0: 13d1 413d 8f7a a9bd dc07 01be 97bd 063a
000002c0: 2dad 4e3b 104e 2c3d 5ade a83d 08b7 8bbc
000002d0: 9533 c7bd 8d4a 903d dc62 163d 79c3 003e
000002e0: 540a 243e 6fb9 72bd c21f 4bbc 422f 553c
000002f0: cfc8 13bd c176 7a3d 1c18 bc3c c396 b03b
00000300: a687 27bd 1261 12be 34d2 153e e986 92bb
00000310: ed27 2ebe 2d66 f33d 740e c23d bb82 d43d
00000320: c136 8b3d d3bb 50bc 2c8c c8bd 6a07 5abc
00000330: d397 38bd 2f32 3f3d d6ff d63d 9c3c 8abd
00000340: 34e5 89be 4775 8abd f687 c7bc d369 14bd
00000350: 3c47 da3d 1bb1 873d eec4 05ba f613 7bba
00000360: e41c 22bd 8596 e33d de98 393e 8e7e 16be
00000370: c95e 993d a888 fcbd 005b 3dbd 8784 c13c
00000380: e1da 293e ba32 81bd e4fa 90bd d4ad 0dbd
00000390: d91d a43d a363 95bd 0b25 ce3d 642f 483d
000003a0: 48a5 4bbc 2ce9 9cbb d201 a0bd 4fc2 8d3d
000003b0: 533c cdbc 933e 0cbb e4ed e5bd e584 7b3d
000003c0: ebc0 d7bc 62d3 cebc e55e 5f3d 5c3a 52be
000003d0: a94a 64bd 9e8b dd3d 1605 5a3d db1c 5d3d
000003e0: faa5 bbbd 3433 c53b 3997 183d c9e7 033d
000003f0: 64eb b9bd 6cbe 89bc 0d84 a13d f04d ee3c
0.0021223477 0.03020313 0.09262666 0.025333239 0.071683176 0.045695018 -0.04623429 -0.04026443
0.081331365 0.060615838 0.006086387 -0.0022471254 -0.109205045 -0.0743201 0.045844078 -0.01077974
-0.0015213911 -0.08644045 0.18709664 -0.09543764 0.10633148 -0.013098365 -0.026013713 0.03405022
0.03323902 -0.049620923 -0.003756808 -0.0076528722 0.028364452 -0.06357955 -0.020756874 -0.1314107
0.03198772 0.048417434 0.0851791 -0.05243612 0.034132466 -0.042005092 -0.0058920966 -0.13160847
0.07986121 0.15940878 -0.20145549 0.04747888 -0.037888147 -0.004584732 -0.021292409 -0.051392704
-0.0657704 -0.06949935 0.062477387 0.123278536 0.16213325 -0.042647805 0.06437288 -0.04941936
-0.12279995 -0.0114460215 -0.07361205 -0.2168473 -0.121391386 -0.039201263 0.108583316 0.08092666
0.13274084 -0.0070186527 -0.124039985 -0.090277754 0.04820726 0.0079836035 -0.04531071 -0.024519222
0.07346125 0.055009317 0.049426902 0.18136282 -0.026180817 -0.009697877 0.0180733 -0.024447517
-0.037380815 0.009668487 0.043368716 0.1779206 0.029469049 0.023839187 0.06663412 -0.012697332
0.20666246 -0.06311651 0.02943558 0.10136272 0.013713376 0.059477225 -0.086147115 -0.030456534
-0.040607475 0.09964359 -0.10586049 -0.039604593 0.04124705 0.021706399 0.067183174 0.048440434
-0.00933924 0.042699516 -0.06527692 -0.010332498 0.10497381 -0.06448171 -0.059372455 0.03330938
-0.06224941 -0.0481962 -0.13346249 -0.10017161 0.12920143 -0.0642515 -0.14276914 0.032244124
-0.046293013 0.039403375 -0.0038797879 0.05433728 -0.033025853 -0.03303623 -0.07633343 -0.055044416
0.018812986 -0.037230477 -0.051461425 -0.035981815 -0.073541425 0.042628966 -0.1080149 -0.09120615
-0.032869797 0.13840845 -0.1794605 0.011339742 0.037491597 0.0018004556 -0.060804226 -0.004370671
0.031452607 -0.21766587 0.02924308 -0.1329935 0.063399754 0.080708556 -0.1435887 0.023924172
-0.07877789 -0.1702039 0.006960775 0.03026508 -0.029843872 -0.0027492847 -0.09168546 0.27535987
0.02802109 -0.07024929 0.07915012 0.10660034 -0.14962523 0.12288504 0.06359045 -0.022970812
0.022547452 0.013602388 0.014667374 -0.047877602 0.04731853 -0.08275329 -0.12600654 0.00051399454
0.0031536326 0.042066634 0.08245535 -0.01705505 -0.09726635 0.070454694 0.036715373 0.12574567
0.16019565 -0.059258875 -0.012397708 0.013011755 -0.036080178 0.06114841 0.022960715 0.005389066
-0.04090085 -0.14294842 0.14630967 -0.004471649 -0.17007418 0.11884723 0.09475413 0.10376497
0.06797553 -0.012740093 -0.09792361 -0.013307432 -0.045066666 0.04667872 0.104980156 -0.067498416
-0.2693268 -0.0676065 -0.024356823 -0.036233734 0.10658118 0.06625577 -0.0005102892 -0.00095778645
-0.039578333 0.11112694 0.1812472 -0.14696714 0.07488782 -0.123307526 -0.046229362 0.023622764
0.16587402 -0.063085034 -0.070791036 -0.034589604 0.080135055 -0.07294395 0.10065659 0.04887332
-0.012429543 -0.0047885384 -0.07812847 0.06921827 -0.025053179 -0.0021399602 -0.11227015 0.061406035
-0.026337108 -0.02524728 0.054533858 -0.20530075 -0.055735264 0.108176455 0.053227507 0.053982597
-0.09162517 0.006018067 0.037253592 0.03220347 -0.090781 -0.016814433 0.07886515 0.029089898

hid.4.bias f4 [100]
00000000: e5dc efbc 6380 04bc eab8 a83c 157f 25bc
00000010: 3303 023c fe9f 7e3c 9e5a 02bc 7b43 86bc
00000020: 3284 fb3b 48d9 053c 23a8 d13b c345 e93c
00000030: 3bea c43b 1a49 73ba 908e c2bb 0c5f 82ba
00000040: 5f63 863c 42af 17bc 05d4 503b c4ed 983c
00000050: d56b e0bc 40e8 903a 9ad2 de3c de22 9a39
00000060: 9fb5 0fbc aded a03c 4120 033d 51db dc3c
00000070: 688e 3d3c ae4e ecb9 7d49 5ebb 8523 883c
00000080: f3d0 893c 98ec 023a 91df 36ba 6391 7b3a
00000090: 751b 80bb 6403 583c 9a56 04bd ead5 773b
000000a0: 7668 be3c c081 88bc 51c6 003c 5192 893a
000000b0: 910b ec3a b9f2 923b 2295 69bc 0218 e13a
000000c0: 6484 a0ba 8dc0 b13b 6467 74bc 8ee9 20bc
000000d0: 297e 053c d34f 5ebc c1fd 5f3c 7e22 7ebc
000000e0: c123 5f3c 7b86 973a f306 593c fe5e 733c
000000f0: 3abc 72bb 327f c7bb bf14 203b 2098 cf3c
00000100: 4fd0 3cbb 954d 263d f748 373c 0182 d839
00000110: 38d6 8d3b 28fb 1bbc b8f4 443d 212c 0fbd
00000120: 81b8 40bb b6d2 e9bb a33d febc 7076 8abc
00000130: b20b 253d 5984 bc3c 5c40 2cbc ef1f 5abc
00000140: 7b8a 83bc f1f8 c8bb 850c d9bb 7822 233c
00000150: 45bf 083c 83c5 833c cf11 9cbc 2e1f e93b
00000160: 0661 383c e4f5 443c e49e dabb 8104 9439
00000170: cbff 54bc 4df3 b3bc 890a 203c 1d1f da3c
00000180: 3070 16bb 5517 80bc 4e06 f0bc 63e6 a5bc
-0.029280135 -0.00808725 0.020595986 -0.0101010995 0.007935333 0.015541075 -0.007956175 -0.0163896
0.007675671 0.00816948 0.0063982173 0.028475648 0.0060093678 -0.00092806073 -0.005937405 -0.0009946539
0.016404806 -0.009258093 0.0031864655 0.018668063 -0.027395168 0.0011055544 0.027200032 0.00029399147
-0.008771329 0.019644583 0.03201318 0.026960047 0.011569597 -0.0004507205 -0.0033918314 0.0166185
0.016823268 0.00049943617 -0.0006976063 0.00095965544 -0.003909523 0.013184402 -0.032309152 0.0037816712
0.02324317 -0.016663432 0.007859782 0.0010495876 0.0018008818 0.004484501 -0.014256747 0.0017173293
-0.0012246487 0.005424565 -0.014917228 -0.009821309 0.008147755 -0.013568836 0.0136713395 -0.015511153
0.013619364 0.0011560464 0.013246286 0.014854191 -0.0037038461 -0.006088161 0.0024426428 0.025341094
-0.0028810685 0.04060133 0.01118683 0.0004129559 0.0043285154 -0.00952033 0.048084944 -0.034954194
-0.0029406848 -0.0071357144 -0.03103525 -0.016902179 0.040294357 0.023012327 -0.010513391 -0.013313278
-0.016057244 -0.0061331918 -0.006623807 0.009956948 0.008346383 0.016085392 -0.01905146 0.0071143126
0.011253601 0.0120215155 -0.0066717733 0.00028232115 -0.013000439 -0.0219666 0.009768137 0.026626164
-0.0022955053 -0.015636126 -0.029299881 -0.020251459

hid.5.weight f4 [100, 100]
00000000: d0f5 90bc 2813 bdbd bd1f 1abe 52fb 78bc
00000010: d805 b9bd 0717 f9bc e087 88bc a941 98bd
00000020: 38ca 24bc 83ca f1bd f400 d83a 59d8 1f3d
00000030: b6f7 17bc 7cac 6e3d 1a71 fe3d 2e4a a3bd
00000040: f51d 9b3d 16d4 563d 4cb1 13bd 717f 46bc
00000050: 421d 0e3e 9d62 ebbd 19c7 b2bd 922a 3bbd
00000060: 1a04 bfbd 274b 3ebe daf9 193d 31e4 15bb
00000070: decb c53d db07 c7bc 6059 aabd 684c 303d
00000080: 6a57 bbbd 4d5b 53bd 7c9d cabd 6294 a23d
00000090: 99ff a93b 6c35 c03d 66fe bfbd 5110 e9bc
000000a0: c4c5 bb3d c282 73bd 1fc3 bdbc 4989 963d
000000b0: 61c4 3dbd 22d4 193d 6362 c9bd 7fbe 65bd
000000c0: 1597 c23d 8dec 46bd a006 29be 4532 b13d
000000d0: c487 a43c 79a0 e23d 58de 8abe 1cff 90bd
000000e0: c582 1d3e 374f e1bd 3118 44bd 647a f1bb
000000f0: dda7 9fbc ec7c 9cbd 75f2 1fbd b371 863b
00000100: 24cc 95bd 38b3 20bd c376 f5bc 0972 363d
00000110: 6ccd d03d fc77 463e 7ce8 56bc 6b07 673d
00000120: 61d3 c8bd 5471 edbc 774f 8a3d e332 ab3c
00000130: 2f5a 093c a5cf a7bc bd27 c3bd fdef 1d3e
00000140: dfe8 2bbc 3df5 fdbc c6f4 8f3d c4d3 38be
00000150: 654d 743b 7744 c8bd 4cc2 f73c 93ed 323d
00000160: d14e 3cbd 102b cc3d e5af ad3d 652f 23be
00000170: 8e6b ee3d e493 613c 9d4e 9d3d 978b 09bc
00000180: d294 c33d 9c33 a0bc 70cd aa3a ff41 763d
00000190: 6b56 46bc ccc9 97bc 811e 46be bb72 263e
000001a0: 9292 9dbd 74e8 973d 4bc7 13bd 39c6 b73c
000001b0: e163 053d 6f58 36bd 3b11 263c 8d34 e83d
000001c0: 3cbf 473d b2fd d33d 07b8 ba3b f24f 5d3d
000001d0: 5bc4 67bd 4229 523d e2ba 263d dab0 84bd
000001e0: 81dc 71bd dd5c c13c 7e00 0dbc f14a 97bd
000001f0: c823 173d 99f3 653d df8b 193e 7dd0 34bd
00000200: e71d a5bc 7e56 0eb9 3ecb 913d a309 dbbd
00000210: c3c0 07be d985 e43d 30b0 2bbd 3e27 28bd
00000220: 4755 2dbc 548f 9bbd 7e77 b2bd 3bf9 b83d
00000230: b6f8 68bc 4076 88bd 7cfa 8dbd 4055 cebb
00000240: bfac e2bd 6678 d93b d3d6 b73c e9d1 2fbd
00000250: 9959 a7bd a28e 33bd 940f 44bc 4f41 babd
00000260: a51e df3d 4b5b 283c e21c b03d e637 34bd
00000270: 1e44 5f3d 3537 d7bd c5a9 f6bc f669 0d3e
00000280: 1b45 8bbd 6098 0fbd deb1 0e3d d53c 00be
00000290: 24e4 993d 3a29 e03d 6a65 a2ba 56e2 ccbc
000002a0: 5735 26bd 6b39 c7bd 9323 9ebb e8dd 9a3c
000002b0: b1e4 b43d a563 25bd 293e 2fbe 4674 d3bc
000002c0: 6d78 8bbd a504 71bd e02e df3d f21c 17be
000002d0: 3f3f 3c3e 35cf 563d 8fea 97bd 8de2 053c
000002e0: 8e4b 963d c140 033e dd35 463c 2363 cf3c
000002f0: fe34 bebd c065 b4bd 28fa 45bd 0668 84bd
00000300: a4a0 cebd 2547 d73c 1b5c aabd 5804 cebb
00000310: a2ca c93d d414 0dbd 5b38 71bd b006 93bd
00000320: a6a7 b0bd de4e 6cbd aa9c c13c 3414 963b
00000330: 2793 fbbd fee4 86bd 674b 0bbe eb0a 753d
00000340: 5014 c8bc bfa0 2a3d eea5 8a3d b91c 443c
00000350: ed5f 28be b94a 5c3d 6b34 a0bd 5500 a73d
00000360: 6119 afbd 9cf7 b6bc 53d5 9abd 550f 3cbb
00000370: 0e41 413e ac15 323e 90b6 95bd 4111 dd3d
00000380: b275 243d 87ee 413d 7ff4 553b 87b6 073e
00000390: 0f93 d7bd 15e2 02bd e256 b7bd d512 4fbe
000003a0: 4548 8d3c 7c4e 963c ae3c 503d 12d7 9ebd
000003b0: 2647 14bc 4344 4d3e b35e 0f3e ddec fbbd
000003c0: a2e8 a8bd 5518 973c 3a3c 963d 21fb 86bd
000003d0: 62d7 e6bd 093c 0abd 03bf 4f3e a516 a2bd
000003e0: d2cc 913d a37a b13d b825 c9bd d22a cdbc
000003f0: b1fb 60bd 8769 583d ec5d 793d 39ab 853d
-0.017695338 -0.092321694 -0.1505117 -0.015196638 -0.09034318 -0.030406488 -0.016666353 -0.07434399
-0.010057978 -0.11806204 0.0016479776 0.039024685 -0.0092753675 0.058269963 0.12423916 -0.07973133
0.07574073 0.052448355 -0.036057755 -0.012115345 0.13878348 -0.11493418 -0.08729381 -0.045694895
-0.09326954 -0.18583356 0.037591793 -0.0022871608 0.09658025 -0.024295738 -0.08317828 0.043041617
-0.09147532 -0.051600743 -0.09893319 0.07938458 0.0051879403 0.093851894 -0.093746945 -0.028450163
0.0916858 -0.059450872 -0.02316433 0.07350404 -0.04632986 0.03755582 -0.09833219 -0.056089874
0.09501473 -0.048565436 -0.16506433 0.08652166 0.02008427 0.11065764 -0.2712276 -0.07079908
0.15381916 -0.11001437 -0.047874633 -0.0073693264 -0.019489223 -0.076410145 -0.039049584 0.0041029095
-0.07314327 -0.039233416 -0.029963857 0.044542346 0.10195431 0.19381708 -0.013116952 0.05640356
-0.09805942 -0.028984703 0.06753438 0.020898288 0.008383318 -0.020484755 -0.09529064 0.1542358
-0.0104925325 -0.031000728 0.07029109 -0.18049532 0.0037277576 -0.09778684 0.030244015 0.0436836
-0.045973603 0.09969151 0.08480815 -0.15936048 0.11641608 0.01376817 0.0768101 -0.008395097
0.095498696 -0.01955586 0.0013031196 0.060121533 -0.012105565 -0.018528841 -0.19347574 0.16254704
-0.07693972 0.07417384 -0.036078732 0.022433387 0.032565955 -0.04451793 0.010135944 0.11338148
0.04876636 0.10351123 0.0056982073 0.05403132 -0.056583744 0.051308878 0.04070557 -0.06479044
-0.05904818 0.023603851 -0.008606074 -0.07387341 0.036899358 0.056140516 0.14994763 -0.044144142
-0.02015586 -0.00013574396 0.071188435 -0.106951974 -0.13257127 0.11158342 -0.041916072 -0.04105305
-0.010579414 -0.07595697 -0.087141976 0.09031912 -0.014219454 -0.066631794 -0.06932542 -0.0062967837
-0.11068105 0.006636667 0.022441303 -0.042924795 -0.08171386 -0.043837197 -0.011966605 -0.09094488
0.10894517 0.010275672 0.08599259 -0.04399862 0.05450832 -0.10508577 -0.03011025 0.13809952
-0.0680029 -0.035057425 0.034837596 -0.12523206 0.075142175 0.10945363 -0.0012389843 -0.02501027
-0.040578213 -0.097277485 -0.004826018 0.018904641 0.08832682 -0.04037823 -0.17113556 -0.02581228
-0.06810079 -0.05884232 0.108976126 -0.14757136 0.18383501 0.0524437 -0.074177854 0.00817169
0.0733863 0.1281767 0.012097803 0.025315827 -0.09287451 -0.0880847 -0.04833427 -0.064651534
-0.100892335 0.026279042 -0.08318349 -0.006287139 0.09853102 -0.03444369 -0.058891635 -0.0717901
-0.086257264 -0.0576924 0.023634274 0.004580045 -0.122839265 -0.065866455 -0.13602982 0.059824865
-0.024423748 0.041657206 0.0676993 0.011969739 -0.16442843 0.0537822 -0.07822498 0.0815436
-0.085497625 -0.022334866 -0.075602196 -0.0028695662 0.18872473 0.1739108 -0.07310212 0.107943065
0.040151305 0.047346618 0.0032646952 0.13253222 -0.10526096 -0.03195389 -0.089521185 -0.20222028
0.017246375 0.018347971 0.05083912 -0.07755865 -0.009050166 0.20045571 0.14000969 -0.123010375
-0.08247496 0.01844422 0.07335706 -0.06590868 -0.1127155 -0.03374866 0.20287709 -0.07914475
0.071191445 0.08665969 -0.098216474 -0.025044832 -0.05492753 0.052835014 0.060880587 0.06526799
