rk_ckpts_v4/model_N100_L6_g0p9_lr0p075_seed1.pt (torch, 209389 bytes, 13 tensors)

hid.0.weight f4 [100, 2]
-0.38823187 0.6862324 -0.33869165 -1.0882708 -0.10262034 0.3909196 -0.18555894 -0.91446817
1.1833315 0.23298818 -0.22151671 0.08265699 0.40192965 0.6678181 -0.51801395 1.1086134
0.058919776 0.053006154 -0.8672409 -0.20350955 0.24496678 0.13966328 -0.7188841 -0.7712683
-0.27658588 -0.0078543695 0.0428493 0.10202769 0.8136331 1.1943806 1.210776 -0.28483784
-0.96338296 1.5738385 0.6220101 -1.0274304 -0.44577006 0.8900424 0.104659535 1.1809049
-0.049956467 1.1746062 0.68707204 -0.80281967 -0.5770136 0.13073388 -1.6921685 1.1219183
0.035597052 0.061228503 0.14711149 -0.509085 -0.7376717 -1.373899 1.4763563 0.9365443
0.74622583 0.27038312 1.0266165 0.8358734 -1.285668 -0.19944163 -0.22741717 0.3262184
-1.3037274 0.058478054 0.71539444 0.37606037 0.043175925 -0.20941374 0.10273845 0.024985498
0.057970263 0.074779466 -0.47555122 0.6145685 -0.0335863 -0.78940266 0.522355 0.75031537
-0.105396025 0.12116329 -0.17414339 0.4068337 0.9725395 -0.7281918 0.026878772 -0.23382036
0.12156382 -1.795724 -0.14682133 -0.044603128 -1.4037447 0.40903032 0.34244645 -0.14818908
-0.1723498 -1.1842773 0.06254435 -0.11658818 -1.6415793 -0.5780021 -0.28165662 -0.755442
0.7818923 -0.19801751 -0.23243614 -0.035722677 0.015184448 -0.4228605 0.06180884 -0.22611348
-0.020248627 -0.88482875 -0.9505461 0.37394565 0.31947312 0.31908458 -0.028655626 0.39027494
-0.5320098 -0.9598198 -0.06791096 -0.103563614 -0.5072903 -0.64299583 -1.1238242 0.07998115
0.9450049 0.26166338 1.1383208 -1.241913 -1.4767537 0.35474542 0.6126048 -0.71204007
0.19773647 -0.99198383 0.5814602 -1.6077583 0.8180977 -1.0128624 -0.47989064 -0.77393335
-0.15263271 -0.039072834 1.1315755 0.74362624 0.4253771 0.4001056 -0.58303255 0.65223145
-0.20607688 -0.9200622 0.32197797 -1.3785722 0.8049516 0.08921484 -1.4967666 0.9021717
-0.40494826 -1.1295092 1.3682094 -1.4363377 0.6847097 -0.6776585 0.04965117 -0.14878315
-0.31859326 -1.1556993 0.6192257 0.15200809 0.3833326 -0.49202114 -0.44993174 0.00095331273
-0.25735566 0.34166628 1.4742117 0.6614781 0.35781777 -0.11336377 -0.7974736 -0.98726296
0.5552702 0.22703944 -0.3748283 -0.11815595 -0.22201043 0.52755946 0.6295042 0.0918477
-1.1129589 0.3982291 -0.79652506 0.10027437 -0.15183057 -0.5384821 1.4600277 -0.2795218
00000000: 54c6 c6be edac 2f3f fe68 adbe 754c 8bbf
00000010: 9d2a d2bd 9d26 c83e 2a03 3ebe 961a 6abf
00000020: 6877 973f 7494 6e3e 47d5 62be 1148 a93d
00000030: b9c9 cd3e 21f6 2a3f 909c 04bf 0be7 8d3f
00000040: dd55 713d fb1c 593d 8003 5ebf cf64 50be
00000050: 92d8 7a3e e403 0f3e ca08 38bf d771 45bf
00000060: aa9c 8dbe 9daf 00bc bf82 2f3d e5f3 d03d
00000070: 424a 503f 77e1 983f b5fa 9a3f 44d6 91be
00000080: 44a0 76bf 8a73 c93f 0e3c 1f3f d782 83bf
00000090: f93b e4be d2d9 633f bd57 d63d e427 973f
000000a0: 279f 4cbd 7f59 963f f4e3 2f3f 9785 4dbf
000000b0: 2ab7 13bf 1adf 053e fa98 d8bf 059b 8f3f
000000c0: 37ce 113d bdca 7a3d 65a4 163e 6553 02bf
000000d0: 0dd8 3cbf ecdb afbf 3ef9 bc3f 5ec1 6f3f
000000e0: a808 3f3f a86f 8a3e 2b68 833f cdfb 553f
000000f0: c590 a4bf 6d3a 4cbe 0ce0 68be 1906 a73e
00000100: 8ae0 a6bf af86 6f3d 1724 373f fc8a c03e
00000110: 3dd9 303d 8e70 56be 8968 d23d 63ae cc3c
00000120: 3a72 6d3d fa25 993d 737b f3be 5c54 1d3f
00000130: ca91 09bd 4b16 4abf 0fb9 053f ab14 403f
00000140: dfd9 d7bd 7624 f83d a552 32be 824c d03e
00000150: 59f8 783f c76a 3abf df30 dc3c 9b6e 6fbe
00000160: 74f6 f83d 49da e5bf 5558 16be c5b1 36bd
00000170: e8ad b3bf 6c6c d13e 2455 af3e e1be 17be
00000180: 777c 30be 6696 97bf 4117 803d c9c5 eebd
00000190: 451f d2bf f2f7 13bf 4c35 90be a664 41bf
000001a0: 182a 483f 1ac5 4abe bd03 6ebe f151 12bd
000001b0: 31c8 783c 2c81 d8be 442b 7d3d 4b8a 67be
000001c0: 73e0 a5bc 2384 62bf fd56 73bf ce75 bf3e
000001d0: fb91 a33e 0e5f a33e 34bf eabc 1ed2 c73e
000001e0: cb31 08bf c0b6 75bf e714 8bbd 2919 d4bd
000001f0: c7dd 01bf 609b 24bf 79d9 8fbf 28cd a33d
00000200: d7eb 713f bef8 853e 7fb4 913f 01f7 9ebf
00000210: 4406 bdbf 31a1 b53e abd3 1c3f 4248 36bf
00000220: 6e7b 4a3e a7f2 7dbf 93da 143f 06cb cdbf
00000230: da6e 513f 7aa5 81bf 3ab4 f5be 7f20 46bf
00000240: c04b 1cbe d60a 20bd 77d7 903f 4a5e 3e3f
00000250: 07cb d93e a4da cc3e 9f41 15bf a4f8 263f
00000260: d105 53be 3289 6bbf 4cda a43e 0e75 b0bf
00000270: 4f11 4e3f 45b6 b63d 0c96 bfbf b9f4 663f
00000280: 6155 cfbe c293 90bf 7c21 af3f ead9 b7bf
00000290: 2349 2f3f 077b 2dbf 065f 4b3d 9c5a 18be
000002a0: a81e a3be f4ed 93bf 9385 1e3f 02a8 1b3e
000002b0: 2c44 c43e 32ea fbbe 745d e6be bce7 793a
000002c0: 1fc4 83be e2ee ae3e f8b2 bc3f a156 293f
000002d0: e433 b73e 442b e8bd 3b27 4cbf 44bd 7cbf
000002e0: 3026 0e3f 077d 683e 7fe9 bfbe bffb f1bd
000002f0: b456 63be 230e 073f 3027 213f a61a bc3d
00000300: 7075 8ebf afe4 cb3e 11e9 4bbf a65c cd3d
00000310: 7979 1bbe f7d9 09bf 30e2 ba3f 7b1d 8fbe

hid.0.bias f4 [100]
0.2036356 -0.3024787 -0.024243915 0.16802502 0.47861874 -0.38442853 0.12745912 -0.020409461
0.42274842 -0.00012305356 0.28208122 0.3083017 -0.42001447 0.13527435 0.4489058 -0.21042831
0.55771303 -0.030229699 0.24690734 -0.16445135 -0.11224317 0.2740322 0.12414583 0.7793324
0.18045518 0.20660321 -0.19341016 -0.6408792 -0.25180334 0.5415609 0.35522842 0.13652666
-0.43772605 0.036719337 0.114613496 0.10610943 0.3285508 0.21073505 0.13501571 -0.10903174
-0.0677173 0.014820991 -0.5501719 -0.13465793 0.21518563 0.3399355 -0.5315179 -0.32565328
0.42946598 -0.16844349 -0.29943377 -0.042781297 -0.13915813 -0.34607366 -0.027499376 0.4180356
0.19743346 -0.3515078 -0.009590354 0.26808015 0.06889038 0.020354817 0.039790243 -0.050780702
-0.044018034 -0.17220338 -0.5240239 0.06039371 0.34014305 -0.6973394 -0.20906831 0.11756077
0.1064488 -0.26080495 0.03322935 -0.17817016 0.4522328 -0.46342072 0.19812433 -0.09955221
0.4757474 0.24019358 -0.023610998 -0.124987334 -0.40447444 -0.003873186 0.15659218 -0.011023446
0.1494385 -0.44324282 -0.028553644 -0.18719609 -0.150808 -0.118928544 0.053999852 -0.15297021
-0.27379832 0.050316 -0.2833697 -0.48357007
00000000: da85 503e 7dde 9abe 2d9b c6bc c00e 2c3e
00000010: 840d f53e d1d3 c4be a584 023e be31 a7bc
00000020: 7b72 d83e f007 01b9 f36c 903e b8d9 9d3e
00000030: 230c d7be 5c85 0a3e fbd6 e53e 857a 57be
00000040: 48c6 0e3f 46a4 f7bc 47d5 7c3e ef65 28be
00000050: bfdf e5bd f34d 8c3e 2b40 fe3d 5482 473f
00000060: 3ec9 383e cb8f 533e 500d 46be a910 24bf
00000070: 5eec 80be bca3 0a3f 80e0 b53e a5cd 0b3e
00000080: a11d e0be 0467 163d 7bba ea3d e74f d93d
00000090: cf37 a83e eeca 573e 8f41 0a3e 084c dfbd
000000a0: 5eaf 8abd bed3 723c 11d8 0cbf c5e3 09be
000000b0: 9f59 5c3e 070c ae3e 8f11 08bf 07bc a6be
000000c0: f7e2 db3e 737c 2cbe 624f 99be 713b 2fbd
000000d0: 787f 0ebe 9130 b1be 5f46 e1bc c308 d63e
000000e0: ff2b 4a3e d5f8 b3be dc20 1dbc cd41 893e
000000f0: 6616 8d3d 25bf a63c 18fb 223d 6dff 4fbd
00000100: 414c 34bd 1556 30be 6e26 06bf 655f 773d
00000110: 3b27 ae3e d684 32bf 0116 56be b3c3 f03d
00000120: d401 da3d 3a88 85be 801b 083d 3d72 36be
00000130: 0f8b e73e 7b45 edbe 1be1 4a3e 07e2 cbbd
00000140: 2a95 f33e 4ef5 753e da6b c1bc 5cf9 ffbd
00000150: 4617 cfbe 47d5 7dbb b359 203e af9b 34bc
00000160: 6806 193e b9f0 e2be 55e9 e9bc 55b0 3fbe
00000170: 6a6d 1abe cf90 f3bd f32e 5d3d 39a4 1cbe
00000180: 4b2f 8cbe 2618 4e3d d515 91be 7f96 f7be

hid.1.weight f4 [100, 100]
-0.06557741 0.022695528 0.08094612 0.027262157 -0.021491682 0.02495117 0.1817545 -0.05965813
0.079018846 -0.022267098 0.026569989 -0.042604823 -0.016660128 0.0062488937 -0.17760587 -0.10761511
0.032716103 -0.08480825 -0.1326064 0.11597602 -0.023483459 0.16522413 -0.08137254 -0.06928867
0.19872333 -0.053195678 -0.0015175422 -0.01608882 -0.010781442 0.06999702 -0.02393332 -0.039761648
-0.07368828 0.13319145 -0.055145845 -6.013543e-05 -0.021186389 0.08198377 -0.12567958 0.01582452
0.09514674 -0.07342884 -0.06656124 0.06470788 -0.13777329 0.08349765 0.049879637 -0.0038133957
0.054757416 -0.045638163 0.08886961 -0.014592417 0.063058764 0.15169507 0.06344638 -0.03271248
0.0141012175 0.22712363 -0.11724284 0.057494707 -0.14741534 -0.060108863 -0.054204363 -0.12258122
0.11045279 -0.12886095 -0.12845847 0.00409179 -0.009698844 -0.07412946 -0.2277745 0.04019726
-0.06894941 0.06638035 0.013351385 -0.2154867 -0.026293699 -0.022157669 0.09084277 -0.073368125
-0.007642541 0.072289675 -0.07137389 -0.08829859 0.025611388 -0.006042552 0.08071485 0.07954664
0.0017484052 0.020808265 0.0044919597 -0.034404885 0.14526936 -0.0659337 0.046311364 -0.010677827
-0.10195753 0.071987264 -0.040500335 -0.008842569 -0.13042794 0.033749025 -0.04680434 0.15724514
0.08282261 0.020608084 0.012369706 -0.022477623 -0.025600148 0.11239155 -0.07842993 -0.09980897
0.005731334 0.09782035 -0.007049401 0.015804522 -0.0609154 0.056170817 0.033965766 0.11234785
-0.06415093 0.011381366 -0.0057451916 0.17536546 0.046931937 -0.18263784 0.06385709 0.06514569
0.031762987 0.010675889 -0.072673775 0.0665622 0.05320085 0.013827475 0.17159192 0.15296675
-0.05909706 0.09853374 -0.019385941 0.11363212 0.09907361 0.097875424 -0.07880341 0.10098531
-0.06816492 0.0720256 -0.07680749 0.18059489 -0.12342879 0.0034117026 0.039325558 -0.011254083
-0.06597574 -0.12719597 0.0060266783 -0.026239054 -0.12652208 0.11834633 0.01349436 -0.022313373
0.115998216 0.037571132 0.093180805 -0.028948374 0.09876387 0.04633114 -0.030921333 0.13871738
-0.09546734 -0.14879273 0.07812782 0.16717418 0.095961295 0.18320659 -0.029094683 -0.1794705
-0.056995954 -0.10033028 0.02545468 0.029958762 0.06774157 0.08391697 -0.11074851 0.014091615
0.019143041 -0.011890512 0.053540934 -0.15405737 0.061787143 -0.09984528 -0.12677895 0.061459187
-0.04451046 0.14682588 -0.080991104 -0.049925596 0.04561106 -0.067170165 -0.042932853 0.009450183
-0.0451569 0.0008715578 0.070757225 0.055532813 0.07813772 0.037964515 0.04185017 -0.07967604
-0.057500515 -0.025560005 0.05766162 -0.027964389 0.07300458 -0.12258808 0.0034079363 0.026956933
0.04303484 -0.058480285 -0.041759156 -0.019634614 0.066011176 -0.079483345 -0.01412098 0.030634023
-0.01363262 -0.06521096 0.03501772 -0.009280903 -0.07205167 -0.13806617 -0.11550951 -0.15501116
-0.09195617 -0.04726411 -0.15260844 0.16723512 -0.0008577845 0.07443236 -0.054008413 -0.06272365
-0.031117052 0.05328873 -0.046543192 0.064670466 0.041300304 0.0073773335 -0.07953691 -0.118492916
0.023297818 -0.17579609 -0.03592677 -0.06355625 0.032232706 0.21747814 -0.09686534 -0.03297036
00000000: 734d 86bd f9eb b93c 14c7 a53d e354 df3c
00000010: 530f b0bc 6566 cc3c da1d 3a3e 155c 74bd
00000020: a2d4 a13d 7d69 b6bc 4ea9 d93c 6582 2ebd
00000030: d27a 88bc 85c3 cc3b 50de 35be 5065 dcbd
00000040: 5201 063d f3af adbd f9c9 07be d684 ed3d
00000050: 6260 c0bc 8430 293e a5a6 a6bd 38e7 8dbd
00000060: 217e 4b3e b6e3 59bd 44e8 c6ba b3cc 83bc
00000070: a5a4 30bc 995a 8f3d cf0f c4bc 1cdd 22bd
00000080: e2e9 96bd 5763 083e 9ce0 61bd ed39 7cb8
00000090: 148f adbc 1be7 a73d 26b2 00be 6ca2 813c
000000a0: 4bdc c23d dc61 96bd 4251 88bd 9185 843d
000000b0: 7114 0dbe d100 ab3d 974e 4c3d 2aea 79bb
000000c0: 5049 603d 15ef 3abd 4501 b63d 0815 6fbc
000000d0: f424 813d f455 1b3e 2df0 813d 85fd 05bd
000000e0: cb08 673c 1993 683e 041d f0bd 927f 6b3d
000000f0: 0cf4 16be b634 76bd 6505 5ebd dd0b fbbd
00000100: 1335 e23d 20f4 03be 9e8a 03be 6c14 863b
00000110: e6e7 1ebc 30d1 97bd b83d 69be e2a5 243d
00000120: 5935 8dbd 6cf2 873d c4bf 5a3c 8ca8 5cbe
00000130: e265 d7bc 0084 b5bc c60b ba3d 0742 96bd
00000140: 486e fabb 9c0c 943d 792c 92bd e4d5 b4bd
00000150: f9ce d13c 9a00 c6bb d44d a53d 59e9 a23d
00000160: be2a e53a 1876 aa3c 4a31 933b 23ec 0cbd
00000170: 7ec1 143e 3f08 87bd fcb0 3d3d 0df2 2ebc
00000180: 1ccf d0bd 0f6e 933d aee3 25bd 6ce0 10bc
00000190: e78e 05be 6b3c 0a3d e8b5 3fbd df04 213e
000001a0: e79e a93d 49d2 a83c 4faa 4a3c fe22 b8bc
000001b0: 67b7 d1bc 8a2d e63d df9f a0bd a568 ccbd
000001c0: eacd bb3b 0956 c83d a9fe e6bb 7c78 813c
000001d0: 6d82 79bd 5f13 663d b01f 0b3d a116 e63d
000001e0: 9061 83bd e978 3a3c 2942 bcbb 0193 333e
000001f0: b43b 403d 6a05 3bbe 82c7 823d 1b6b 853d
00000200: e819 023d ede9 2e3c fdd5 94bd c351 883d
00000210: 22e9 593d a28c 623c cbb5 2f3e 51a3 1c3e
00000220: c20f 72bd 0fcc c93d 44cf 9ebc f5b7 e83d
00000230: 1be7 ca3d e972 c83d af63 a1bd 63d1 ce3d
00000240: 0d9a 8bbd 2882 933d 3f4d 9dbd deed 383e
00000250: 3cc8 fcbd df96 5f3b d613 213d 0c63 38bc
00000260: 4a1e 87bd a93f 02be 717b c53b 49f3 d6bc
00000270: 018f 01be 905f f23d 7317 5d3c 89ca b6bc
00000280: 7990 ed3d 30e4 193d 94d5 be3d 2425 edbc
00000290: b644 ca3d b9c5 3d3d bc4e fdbc ee0b 0e3e
000002a0: 6184 c3bd 1f5d 18be 7a01 a03d b52f 2b3e
000002b0: 5b87 c43d 829a 3b3e f957 eebc 1dc7 37be
000002c0: 9774 69bd f679 cdbd 5586 d03c 146c f53c
000002d0: 18bc 8a3d a9dc ab3d 1dd0 e2bd 84e0 663c
000002e0: ded1 9c3c 6cd0 42bc bd4d 5b3d 37c1 1dbe
000002f0: 8414 7d3d af7b ccbd 57d2 01be a1bc 7b3d
00000300: 9a50 36bd 8659 163e aade a5bd c87e 4cbd
00000310: aad2 3a3d 8390 89bd 5cda 2fbd f1d4 1a3c
00000320: 71f6 38bd 4179 643a 2ae9 903d 6076 633d
00000330: ab06 a03d ae80 1b3d 156b 2b3d 312d a3bd
00000340: a985 6bbd 3763 d1bc 972e 6c3d 9315 e5bc
00000350: 6d83 953d 760f fbbd af57 5f3b c9d4 dc3c
00000360: 4d45 303d 0689 6fbd a60b 2bbd c5d8 a0bc
00000370: de30 873d 2ac8 a2bd af5b 67bc 34f4 fa3c
00000380: 5a5b 5fbc 538d 85bd be6e 0f3d ee0e 18bc
00000390: d38f 93bd 3861 0dbe 4090 ecbd 3fbb 1ebe
000003a0: 8453 bcbd 0398 41bd 6345 1cbe af3f 2b3e
000003b0: f1dc 60ba fe6f 983d ed37 5dbd 4275 80bd
000003c0: 30e9 febc 4945 5a3d 13a4 3ebd f371 843d
000003d0: 822a 293d 8fbd f13b 3fe4 a2bd 6aac f2bd
000003e0: 11db be3c e403 34be f327 13bd c729 82bd
000003f0: 7106 043d 97b2 5e3e 5661 c6bd ee0b 07bd

hid.1.bias f4 [100]
-0.004810681 0.00032823207 -0.008329172 0.0014548715 0.004471188 -0.0009499255 -0.00083513075 0.001465527
0.0012633706 -0.0017702659 0.010247189 -0.00022640347 0.0012059741 -0.0032632363 -0.0029853054 0.0009813777
-0.009035815 0.0037402723 -0.007836659 0.0105690565 0.0015738785 0.02108341 0.0007878072 0.0014327166
2.743456e-05 0.0020841786 0.018877378 -0.0022054478 0.0024336365 0.0005213407 0.0010088994 -0.0058777407
-0.007968221 0.007491369 -0.00076693966 -0.0010532176 -0.002640374 -0.0061713895 0.0017349549 0.0023128334
-0.0074101407 0.0017074964 -0.007281639 0.009384638 -0.0009320816 0.0004143436 0.002495648 -0.0030565092
0.0020480745 0.008889048 0.012265937 -0.005413846 0.0029581923 -0.0006424516 0.010548165 -0.0009665477
-0.0044460655 0.0052254777 -0.010702186 -0.0105427485 -0.0077981073 -0.018065136 0.0013345544 -0.0011761994
0.004758714 0.0017736163 0.011356681 -0.011216025 0.00019652846 -0.0017734744 -0.00042021112 -0.009236561
-0.00033380443 0.0023314 -0.0131917065 0.0077352216 -0.0005431514 -0.0016656544 -0.019692974 -0.0059338333
0.010626885 0.0014819378 -0.001439607 -0.0023640587 -0.006178776 -0.0026477478 -0.0012430182 -0.0071182465
0.006421936 0.004096357 -0.00022101801 0.004944974 0.011261408 0.0111498 0.00013569625 -0.007745375
0.0010619299 0.007626997 0.003970841 0.0013572737
00000000: eba2 9dbb 9016 ac39 1477 08bc 63b1 be3a
00000010: 0b83 923b 6c04 79ba adec 5aba ed16 c03a
00000020: af97 a53a 4408 e8ba d3e3 273c b866 6db9
00000030: c711 9e3a 05dc 55bb 1da5 43bb 92a1 803a
00000040: f40a 14bc 5b1f 753b 5565 00bc d629 2d3c
00000050: 994a ce3a 1eb7 ac3c d984 4e3a fec9 bb3a
00000060: 4523 e637 b796 083b bba4 9a3c 4689 10bb
00000070: a57d 1f3b 95aa 083a 0c3d 843a 109a c0bb
00000080: 248d 02bc 287a f53b 730c 49ba 1e0c 8aba
00000090: 200a 2dbb 5e39 cabb 6d67 e33a e892 173b
000000a0: c4d0 f2bb 12ce df3a d19a eebb 06c2 193c
000000b0: f056 74ba 423c d939 078e 233b b74f 48bb
000000c0: fd38 063b 5fa3 113c 12f7 483c a266 b1bb
000000d0: 3bde 413b 326a 28ba 36d2 2c3c eb5f 7dba
000000e0: 4db0 91bb 7c3a ab3b 3958 2fbc 7ebb 2cbc
000000f0: 4487 ffbb 56fd 93bc 37ec ae3a b42a 9aba
00000100: fdee 9b3b b078 e83a 5f11 3a3c 6bc3 37bc
00000110: 3513 4e39 ed73 e8ba c84f dcb9 f254 17bc
00000120: 7902 afb9 67ca 183b 0722 58bc be77 fd3b
00000130: 4662 0eba 1652 daba 2953 a1bc 9a70 c2bb
00000140: 631c 2e3c 953d c23a 32b1 bcba 53ee 1abb
00000150: 5477 cabb d685 2dbb c5ec a2ba 2e40 e9bb
00000160: 1b6f d23b bc3a 863b 12c1 67b9 7309 a23b
00000170: c581 383c a7ad 363c af49 0e39 eacc fdbb
00000180: 7430 8b3a e3eb f93b d41d 823b 8ce6 b13a

hid.2.weight f4 [100, 100]
-0.014464634 0.23599912 -0.028411696 0.054959238 0.11367511 0.08921216 -0.08620241 0.0705274
0.0892809 -0.0044034882 0.054492004 -0.13537265 -0.008564557 -0.04211641 -0.06707661 0.0014576282
0.036156353 -0.15048821 -0.036817256 0.07870699 0.05947613 0.042284805 -0.100867875 0.09438041
0.12461648 -0.005940097 -0.021762528 -0.016205618 0.008759789 0.12960021 -0.043496944 -0.12413849
-0.11365191 -0.00498117 -0.14103 0.13441019 -0.23082572 -0.11176718 0.041747946 0.059767194
0.14904267 0.11913096 -0.07934688 -0.08832345 -0.08744527 0.062326506 0.14086092 -0.14151168
0.013348036 0.034213956 -0.024946135 0.094756216 -0.100483984 0.028539713 0.052096933 0.13000157
-0.020724226 0.15400389 0.13738272 -0.14329197 0.01671219 -0.04253886 -0.08850319 0.05278199
0.20580345 0.07827019 0.070308656 0.080772206 -0.13793175 0.009885258 -0.045743797 -0.033249058
-0.06451393 0.033989638 -0.00014100535 -0.03098626 0.18166338 0.01786131 0.083281286 -0.04400634
0.075318046 -0.051000074 0.15316258 -0.036243625 -0.08304732 0.043847445 -0.039768495 -0.02090341
-0.017562767 0.0018971526 -0.18137394 0.049212642 -0.1162658 -0.010178752 0.056599718 0.015429405
-0.14695862 0.022932488 0.087157145 0.13958631 -0.030075038 0.013304036 -0.1554952 -0.097783595
0.13691086 0.019510644 -0.08792796 0.0017548252 -0.061341267 -0.046787433 -0.004618399 -0.07048305
0.1827072 0.005385543 0.0046169423 -0.12091331 -0.12499086 0.018715343 -0.081347264 -0.011344617
0.09331556 0.05221646 -0.05048032 -0.007353382 -0.067147486 -0.10973088 -0.1111378 -0.05733403
-0.07410278 0.05829837 0.0057679503 -0.005463752 -0.035638124 0.07789859 0.078082055 0.17831817
0.11958091 -0.13218893 0.044797022 -0.0033459049 0.06263039 0.024760729 -0.0322132 -0.11587346
0.14877951 -0.014147569 -0.07477232 0.12636729 0.041005194 -0.06992865 0.17196535 -0.1625499
0.059071325 0.06896299 -0.029544594 -0.18440777 0.08419602 -0.04142505 0.0061673936 0.086512126
0.14085352 -0.21164933 -0.05866446 -0.03961575 -0.083840095 0.032905404 -0.005948978 0.14566591
0.021874012 -0.06680964 -0.03361867 0.03106986 -0.021070214 0.22495086 0.01563228 -0.112773985
-0.11826849 0.06866268 0.064488426 -0.04363241 0.0033946368 0.04195213 0.09922381 -0.012359141
-0.025213692 -0.13666482 0.03462644 0.015141431 -0.07941569 -0.0126779 0.09455143 -0.024623098
0.115456715 -0.110659726 -0.02879938 -0.04061007 -0.12823848 0.19870782 -0.06613329 -0.107685834
-0.03198996 0.0902524 0.051562734 0.092053324 0.1867685 -0.1450763 0.04568304 -0.05394755
-0.10429473 -0.19659676 0.008127444 -0.09382652 -0.040859643 0.012624001 -0.06513316 0.08069569
0.12529306 0.004581891 0.088207446 -0.21238273 0.20707536 -0.047894955 0.051145636 0.01074802
0.13454844 0.08743791 -0.09049078 0.018971289 -0.146824 -0.080316365 -0.03248408 0.06535986
-0.015624744 -0.01964328 -0.26831058 -0.02968593 -0.01625423 0.15632279 0.09274896 -0.01696974
0.12657693 0.099787205 0.06604019 0.10165855 -0.046011157 -0.04506956 0.09659382 0.0361426
-0.13869137 -0.26863703 -0.094905816 0.07013603 0.023613885 -0.09157213 0.0398815 -0.07645467
00000000: 12fd 6cbc c1a9 713e a5bf e8bc f01c 613d
00000010: 7fce e83d ddb4 b63d e48a b0bd ab70 903d
00000020: e8d8 b63d 234b 90bb 0233 5f3d 219f 0abe
00000030: 5b52 0cbc 4282 2cbd 765f 89bd e30d bf3a
00000040: af18 143d 9519 1abe b1cd 16bd 2131 a13d
00000050: 3e9d 733d d532 2d3d d193 cebd 844a c13d
00000060: ed36 ff3d 25a5 c2bb 5447 b2bc a5c1 84bc
00000070: 3885 0f3c ebb5 043e da29 32bd 523c febd
00000080: 55c2 e8bd 1539 a3bb 2b6a 10be d3a2 093e
00000090: 945d 6cbe 31e6 e4bd e5ff 2a3d 72ce 743d
000000a0: a49e 183e effa f33d 9e80 a2bd ede2 b4bd
000000b0: 8116 b3bd 144a 7f3d d83d 103e 70e8 10be
000000c0: b9b1 5a3c ef23 0c3d d65b ccbc 8c0f c23d
000000d0: 8cca cdbd 1ecc e93c 9863 553d 221f 053e
000000e0: dac5 a9bc 32b3 1d3e 0eae 0c3e 21bb 12be
000000f0: 01e8 883c 3a3d 2ebd 2941 b5bd ee31 583d
00000100: 24be 523e 1f4c a03d fcfd 8f3d e66b a53d
00000110: fb3d 0dbe c7f5 213c d95d 3bbd 2a30 08bd
00000120: e11f 84bd b838 0b3d d6da 13b9 e6d6 fdbc
00000130: f705 3a3e e251 923c 618f aa3d fe3f 34bd
00000140: 5940 9a3d 74e5 50bd a7d6 1c3e 3274 14bd
00000150: b714 aabd 6199 333d 4ae4 22bd a13d abbc
00000160: cbdf 8fbc e1a9 f83a 17ba 39be 3293 493d
00000170: c41c eebd c8c4 26bc 1bd5 673d 9dcb 7c3c
00000180: 527c 16be eadc bb3c 727f b23d b7ef 0e3e
00000190: ed5f f6bc 2cf9 593c 223a 1fbe c442 c8bd
000001a0: 5c32 0c3e c9d4 9f3c 9313 b4bd 2a02 e63a
000001b0: fb40 7bbd 2ea4 3fbd f055 97bb 6b59 90bd
000001c0: 9917 3b3e 3679 b03b b849 973b 66a1 f7bd
000001d0: 35fb ffbd eb50 993c 6599 a6bd c6de 39bc
000001e0: 3a1c bf3d ede0 553d 74c4 4ebd a4f4 f0bb
000001f0: 9f84 89bd 95ba e0bd 379c e3bd 16d7 6abd
00000200: 33c3 97bd 46ca 6e3d 1301 bd3b 4609 b3bb
00000210: 48f9 11bd 4c89 9f3d 7ce9 9f3d 0a99 363e
00000220: d6e6 f43d 895c 07be 157d 373d f846 5bbb
00000230: 5d44 803d 03d7 ca3c fdf1 03bd 114f edbd
00000240: a859 183e 35cb 67bc 3b22 99bd 6d66 013e
00000250: 10f5 273d c136 8fbd af17 303e 7b73 26be
00000260: c6f4 713d 783c 8d3d 8107 f2bc 64d5 3cbe
00000270: f76e ac3d 50ad 29bd d917 ca3b 452d b13d
00000280: e83b 103e 9aba 58be 254a 70bd 2044 22bd
00000290: 5bb4 abbd d1c7 063d a5ef c2bb 7229 153e
000002a0: 2131 b33c 7ed3 88bd bbb3 09bd 3886 fe3c
000002b0: 719b acbc 8559 663e 440f 803c 0cf6 e6bd
000002c0: c036 f2bd 059f 8c3d 8212 843d e6b7 32bd
000002d0: 8e78 5e3b ffd5 2b3d da35 cb3d ff7d 4abc
000002e0: f28c cebc ddf1 0bbe 74d4 0d3d c413 783c
000002f0: b1a4 a2bd f7b6 4fbc 2ea4 c13d 61b6 c9bc
00000300: 9274 ec3d 91a1 e2bd adec ebbc bf56 26bd
00000310: f350 03be 107a 4b3e e470 87bd 648a dcbd
00000320: e807 03bd 40d6 b83d 7233 533d 7486 bc3d
00000330: 3e40 3f3e e28e 14be 241e 3b3d 1bf8 5cbd
00000340: 7a98 d5bd a950 49be f928 053c 1e28 c0bd
00000350: 715c 27bd e6d4 4e3c 8964 85bd c843 a53d
00000360: d34c 003e b023 963b 1ba6 b43d dc7a 59be
00000370: 900b 543e 802d 44bd 167e 513d 7718 303c
00000380: 11c7 093e a612 b33d 3b53 b9bd ad69 9b3c
00000390: 0859 16be e87c a4bd 070e 05bd 64db 853d
000003a0: edfe 7fbc f2ea a0bc 0160 89be e82f f3bc
000003b0: 9727 85bc 1513 203e 2bf3 bd3d 2004 8bbc
000003c0: 629d 013e 3c5d cc3d 1440 873d 5c32 d03d
000003d0: 3276 3cbd dc9a 38bd fbd2 c53d 430a 143d
000003e0: 1c05 0ebe cb8a 89be fb5d c2bd 7ba3 8f3d
000003f0: e871 c13c 2b8a bbbd c95a 233d 4494 9cbd

hid.2.bias f4 [100]
-0.008446785 0.011743817 -0.016441783 0.0006347805 0.0007242327 -0.014172323 -0.030016076 -0.004835483
0.0106653115 0.015696995 -0.0059126304 -0.005388623 -0.014154855 0.0070637246 0.0009878188 0.0030379568
-0.003640916 -0.005622206 0.008515657 -0.0013332816 0.01235517 -0.0035351561 -0.0059969476 0.005009651
-0.01346617 -0.00035605888 0.011484918 0.0031423771 0.00077107083 -0.007089433 0.011442723 -0.0006916308
0.00094942976 -0.0074371807 0.000877475 0.018060476 0.014361207 0.011847016 0.0029171254 0.00044288536
0.00782984 0.012366009 0.015011237 -0.01832915 -0.010123968 0.005868164 0.0019636916 0.0060843765
0.007712405 0.005099085 -0.008395677 0.010789944 0.0046778503 -0.009328914 0.0029777554 -0.0024478321
-0.007091899 0.0008999365 -0.0030222374 0.0064610206 0.011334164 0.012886176 -0.010012423 -0.006361102
-0.0074950056 0.0068182885 -0.026687074 0.018486695 0.016535373 0.00287171 0.018845614 -0.0016028185
-0.005044534 0.013748288 0.00070907036 -0.011905008 -0.014550958 0.0076203076 -0.00247818 0.0032363783
0.008005375 0.026574433 -0.0017335314 0.013682948 0.0010523807 0.0028376183 0.010318414 -0.0048820176
0.024951762 0.0031685869 -0.0057564313 0.01541059 -0.00026469733 -0.017674515 0.004627722 0.0109615335
0.00015774359 -0.02408901 0.002828995 -0.0020707536
00000000: 6264 0abc 2369 403c ebb0 86bc 6667 263a
00000010: 6fda 3d3a 0833 68bc 46e4 f5bc f972 9ebb
00000020: 8fbd 2e3c fc96 803c bdbe c1bb 0c93 b0bb
00000030: c4e9 67bc d176 e73b b379 813a 7518 473b
00000040: 6f9c 6ebb 7b3a b8bb 4185 0b3c 82c1 aeba
00000050: 576d 4a3c 14ae 67bb 0b82 c4bb 0028 a43b
00000060: 36a1 5cbc 6aad bab9 3d2b 3c3c 57f0 4d3b
00000070: b021 4a3a 794e e8bb 427a 3b3c 8f4e 35ba
00000080: 27e3 783a 98b3 f3bb 5a06 663a 90f3 933c
00000090: 454b 6b3c fd19 423c 3e2d 3f3b 1133 e839
000000a0: bb48 003c cd9a 4a3c b1f1 753c 0327 96bc
000000b0: 00df 25bc ba49 c03b 47b1 003b 735f c73b
000000c0: 58b8 fc3b 3a16 a73b 068e 09bc 4ec8 303c
000000d0: a748 993b 4dd8 18bc 7226 433b cf6b 20bb
000000e0: 2963 e8bb b7e9 6b3a bb10 46bb f8b6 d33b
000000f0: eeb2 393c 8a20 533c 250b 24bc cb70 d0bb
00000100: aa98 f5bb f36b df3b da9e dabc 6971 973c
00000110: 3175 873c 4d33 3c3b 1e62 9a3c aa15 d2ba
00000120: 9e4c a5bb 8040 613c e8e0 393a 390d 43bc
00000130: 2467 6ebc c6b3 f93b f668 22bb 6b19 543b
00000140: fa28 033c a0b2 d93c a937 e3ba 722e 603c
00000150: 09f0 893a 56f7 393b 910e 293c 55f9 9fbb
00000160: a367 cc3c 11a8 4f3b 72a0 bcbb b37c 7c3c
00000170: 13c7 8ab9 25ca 90bc 25a4 973b 0198 333c
00000180: f967 2539 5156 c5bc a966 393b 7bb5 07bb

hid.3.weight f4 [100, 100]
-0.03614531 -0.0451219 0.07242633 -0.120917186 -0.10746672 0.049797744 -0.10932964 0.07161132
-0.09243547 0.020031504 -0.032334153 0.059964582 -0.07826686 -0.00042952638 -0.017644797 0.022495637
0.07648572 -0.057108536 -0.063847266 -0.06849213 0.00351144 -0.03371389 0.007085981 -0.018011164
-0.15702437 -0.05491213 -0.026450785 -0.07052296 0.17544039 -0.099833734 -0.04875088 0.033677693
0.07373884 -0.020243166 0.008709031 -0.084404886 -0.021751694 -0.15647326 0.08099582 0.16801168
-0.054173082 0.15385306 -0.038999945 0.07995834 0.07967534 0.12688917 -0.02920671 0.0032315964
0.19540505 -0.12414176 0.13208935 0.088079676 -0.042279005 0.0016601932 0.014430426 0.014993715
0.048746165 0.101111054 0.002027264 0.10832636 0.13597472 0.06993869 -0.13763486 -0.2262404
-0.036923107 0.041346587 -0.05782949 0.048430387 0.019584464 0.016075958 -0.11887241 -0.11554536
0.10841299 -0.17186977 -0.055610236 -0.056013297 -0.016156007 0.0790674 0.019809753 0.037457447
-0.12988576 0.05913281 0.12503658 0.008193943 -0.049849704 -0.09737328 -0.0036433153 -0.08882936
0.04136764 -0.12351128 -0.010465167 0.21795377 0.07368962 -0.04972202 0.12038001 0.01274332
0.010368765 -0.09601991 -0.049868453 -0.13937883 0.033008106 -0.07336093 -0.059674673 0.0254177
-0.004846548 0.05110444 0.014608957 0.07224234 0.02327605 -0.022323636 0.20944431 -0.055532854
-0.112485416 0.15093197 -0.057013497 0.052889407 -0.00013207021 -0.115746185 0.15524621 -0.1205078
0.045418736 0.08546225 -0.0076685804 -0.006415974 -0.0085669765 -0.07409152 0.07201888 0.11077992
0.15804954 0.12347759 -0.0086168805 0.052339207 0.09116765 -0.074277416 -0.08542182 -0.025264354
-0.104503326 0.06383517 -0.10462137 -0.09344047 0.02726189 0.031317703 -0.09460325 0.000655465
-0.043230195 -0.09526047 -0.028332002 0.043616533 0.05579126 0.052520018 -0.04387594 0.04324281
-0.03290474 0.012624726 0.042728465 -0.08426652 0.03936267 -0.104401134 0.17580749 0.20645536
0.058838207 0.080153376 0.2008279 0.074574485 -0.058511637 -0.10320409 0.10119752 0.014142836
-0.09927211 0.054815557 -0.0034560717 -0.049464736 0.08184912 0.0004923574 0.037484016 0.09772144
0.08199859 0.056857746 -0.0103538735 -0.08570151 -0.07854269 -0.012880508 0.041046638 0.04081766
0.08222831 -0.17346919 0.079902254 0.026270982 0.028267412 -0.03736694 0.10287339 0.019418217
0.026576782 -0.17481124 0.029620135 -0.078831844 -0.11229412 0.10164367 -0.040431492 -0.03706784
-0.06392148 -0.051066905 -0.057132244 0.035426416 0.22071682 0.025636638 -0.00063359714 -0.023895197
-0.16366598 0.09951115 -0.017476184 -0.12230607 -0.01763022 -0.09266911 -0.0682589 0.1919836
-0.03321867 0.10822351 0.1454934 -0.024145028 -0.103722885 -0.101090185 -0.051880673 0.07844046
-0.13141032 0.1986287 0.07138 -0.06401408 -0.095530696 -0.061089877 0.068724684 0.008459508
-0.031823356 -0.03372213 0.024124732 0.09045632 -0.0009753809 0.09341019 0.16436763 -0.05374198
0.009615798 -0.20311147 0.15058312 0.024559831 -0.11814185 -0.07721136 0.024764882 -0.024178892
0.016792946 -0.12041499 -0.1210692 -0.08187127 0.0036816096 -0.14186107 0.18817021 -0.07449235
00000000: 1b0d 14bd bed1 38bd 4154 943d 6ea3 f7bd
00000010: 8317 dcbd b8f8 4b3d 38e8 dfbd f5a8 923d
00000020: cf4e bdbd 1c19 a43c d170 04bd 6c9d 753d
00000030: 604a a0bd 0e32 e1b9 d28b 90bc c548 b83c
00000040: 8ca4 9c3d a4ea 69bd 5bc2 82bd 9a45 8cbd
00000050: 3020 663b 9317 0abd 8431 e83b 268c 93bc
00000060: ffca 20be 8beb 60bd 51af d8bc 576e 90bd
00000070: a5a6 333e a175 ccbd 01af 47bd 9ff1 093d
00000080: 6404 973d ffd4 a5bc 53b0 0e3c 78dc acbd
00000090: 9c30 b2bc 873a 20be 23e1 a53d 410b 2c3e
000000a0: 98e4 5dbd a88b 1d3e 68be 1fbd 33c1 a33d
000000b0: d32c a33d 3cef 013e e942 efbc 31c9 533b
000000c0: 4318 483e 093e febd 6e42 073e 1e63 b43d
000000d0: c02c 2dbd d79a d93a 986d 6c3c 33a8 753c
000000e0: 0faa 473d 5013 cf3d d9db 043b 36da dd3d
000000f0: f53c 0b3e 043c 8f3d 27f0 0cbe 90ab 67be
00000100: af3c 17bd 0a5b 293d 9ede 6cbd f15e 463d
00000110: 996f a03c bab1 833c 6173 f3bd 0ca3 ecbd
00000120: a107 de3d a1fe 2fbe 8fc7 63bd 336e 65bd
00000130: 9a59 84bc 17ee a13d 1048 a23c fb6c 193d
00000140: c600 05be 3f35 723d 9709 003e e33f 063c
00000150: 342f 4cbd a46b c7bd b0c4 6ebb 2bec b5bd
00000160: 1d71 293d 7bf3 fcbd 1876 2bbc 462f 5f3e
00000170: 95ea 963d 51a9 4bbd cb89 f63d 5cc9 503c
00000180: c1e1 293c 16a6 c4bd dd42 4cbd 53b9 0ebe
00000190: 8233 073d 413e 96bd 6e6d 74bd c838 d03c
000001a0: cbcf 9ebb e452 513d 685a 6f3c cbf3 933d
000001b0: 6aad be3c 0fe0 b6bc 9278 563e 6b76 63bd
000001c0: c15e e6bd e98d 1a3e fc86 69bd 90a2 583d
000001d0: 547c 0ab9 560c edbd ddf8 1e3e cbcc f6bd
000001e0: ff08 3a3d d506 af3d b748 fbbb 173d d2bb
000001f0: 815c 0cbc 4bbd 97bd a27e 933d 95e0 e23d
00000200: bdd7 213e d2e1 fc3d d12d 0dbc a361 563d
00000210: 1bb6 ba3d c21e 98bd a3f1 aebd 31f7 cebc
00000220: d705 d6bd 03bc 823d bb43 d6bd b85d bfbd
00000230: 5454 df3c fe46 003d 59bf c1bd 83d3 2b3a
00000240: 2512 31bd ec17 c3bd 8418 e8bc 40a7 323d
00000250: 6085 643d 3b1f 573d 42b7 33bd 5f1f 313d
00000260: 1fc7 06bd f0d7 4e3c 0b04 2f3d ed93 acbd
00000270: c03a 213d 43d0 d5bd e106 343e 0969 533e
00000280: 5500 713d 7427 a43d d4a5 4d3e 82ba 983d
00000290: e6a9 6fbd aa5c d3bd a540 cf3d 5bb7 673c
000002a0: 2d4f cbbd 4786 603d 437f 62bb 899b 4abd
000002b0: 83a0 a73d 8c11 013a d788 193d 2e22 c83d
000002c0: e0ee a73d abe3 683d 4ba3 29bc 4684 afbd
000002d0: fdda a0bd c408 53bc 8520 283d 6b30 273d
000002e0: 5167 a83d e8a1 31be cba3 a33d 3e36 d73c
000002f0: 0f91 e73c 140e 19bd 49af d23d f412 9f3c
00000300: 8db7 d93c b801 33be eda5 f23c 9772 a1bd
00000310: 76fa e5bd 8e2a d03d 7e9b 25bd 73d4 17bd
00000320: 44e9 82bd 882b 51bd 8003 6abd 4a1b 113d
00000330: 9703 623e ed03 d23c fc17 26ba dcbf c3bc
00000340: 0e98 27be 80cc cb3d 372a 8fbc 9b7b fabd
00000350: 406d 90bc 4dc9 bdbd 52cb 8bbd 5997 443e
00000360: 4d10 08bd 4aa4 dd3d 39fc 143e cbcb c5bc
00000370: aa6c d4bd 5f08 cfbd d480 54bd 64a5 a03d
00000380: 6d90 06be 5265 4b3e ad2f 923d d019 83bd
00000390: 99a5 c3bd 6139 7abd 87bf 8c3d c099 0a3c
000003a0: 3559 02bd 3720 0abd 3ba1 c53c 2a41 b93d
000003b0: b4b0 7fba d74d bf3d fd4f 283e 8d20 5cbd
000003c0: 948b 1d3c 74fc 4fbe 7632 1a3e b331 c93c
000003d0: 5bf4 f1bd fd20 9ebd b9df ca3c d012 c6bc
000003e0: 5c91 893c 229c f6bd 21f3 f7bd 20ac a7bd
000003f0: 2947 713b 0744 11be b1af 403e 728f 98bd

hid.3.bias f4 [100]
0.015638672 0.0038235413 0.03237878 0.010237746 0.0017877176 0.00077807246 0.021999931 0.0066123004
0.032796267 0.01889985 0.0043765497 0.019610418 -0.0040654023 0.043912366 0.011356936 0.0065555507
0.016827513 -0.020783905 -0.01974354 -0.012626667 -0.0064756153 0.013082091 -0.010104435 -0.0104939565
-0.005363341 -0.0034087645 0.013029497 -0.0110889 0.0034994374 0.015180134 0.0057877884 -0.019600123
-0.012053579 -0.003494281 -0.0055820076 0.01714803 -0.012660116 0.013192566 -0.00069108995 0.026682138
-0.0012231615 0.013739586 -0.003643648 -0.0008379406 0.0067489217 0.010837111 0.012855105 0.014971299
-0.00021495577 -0.011571847 -0.015677502 0.002187619 0.003049464 -0.001001189 0.0063043484 -0.009423754
-0.0057111876 -0.014012431 -0.008039008 -0.01081837 -0.011263869 0.03793923 -0.026384367 0.015545154
0.004275541 0.007354171 -0.0185094 0.0055226395 -0.002313065 -0.0025563934 -0.005057985 0.001562214
0.009344069 -0.0037466178 0.0058931266 0.003968402 0.013008357 0.0016724941 0.014464195 0.023147883
-0.005432453 -0.021918288 -0.014612781 0.01257724 0.03244442 -0.004712758 0.0034518186 0.0067170523
0.0048150565 0.024773715 -0.008819843 -0.0038340883 0.016185151 0.021129798 0.011728869 0.0010693059
-0.0043467875 -0.02012069 0.010523274 0.014037615
00000000: ac1c 803c 6194 7a3b 9d9f 043d 38bc 273c
00000010: d951 ea3a 8ff7 4b3a 3339 b43c ffab d83b
00000020: 6155 063d dcd3 9a3c 2969 8f3b 07a6 a03c
00000030: 1137 85bb 74dd 333d 7112 3a3c f2cf d63b
00000040: dad9 893c 0243 aabc 34bd a1bc 14e0 4ebc
00000050: 6631 d4bb 4456 563c 128d 25bc d8ee 2bbc
00000060: f7be afbb 9465 5fbb ac79 553c 38ae 35bc
00000070: d156 653b 19b6 783c 7da7 bd3b 7090 a0bc
00000080: 607c 45bc 4f00 65bb 46e9 b6bb 077a 8c3c
00000090: 606c 4fbc a225 583c 432a 35ba 8094 da3c
000000a0: 7d52 a0ba 001c 613c 45ca 6ebb 3ea9 5bba
000000b0: 0f26 dd3b 238e 313c 389e 523c 2e4a 753c
000000c0: c065 61b9 d897 3dbc 1b6e 80bc 285e 0f3b
000000d0: 84d9 473b 543a 83ba b594 ce3b 1766 1abc
000000e0: ea24 bbbb 6594 65bc 0bb6 03bc 883f 31bc
000000f0: 178c 38bc 2b66 1b3d 0724 d8bc 1ab1 7e3c
00000100: d619 8c3b 42fb f03b 06a1 97bc 42f7 b43b
00000110: cb96 17bb 2a89 27bb 74bd a5bb 34c3 cc3a
00000120: de17 193c d189 75bb 211b c13b 5e09 823b
00000130: 0121 553c 9737 db3a 3bfb 6c3c a1a0 bd3c
00000140: b802 b2bb fb8d b3bc 726a 6fbc c510 4e3c
00000150: 71e4 043d 7b6d 9abb e837 623b b81a dc3b
00000160: 9fc7 9d3b 3ff2 ca3c 1a81 10bc 5445 7bbb
00000170: b996 843c 6618 ad3c 712a 403c f427 8c3a
00000180: 7f6f 8ebb 25d4 a4bc cf69 2c3c 06fe 653c

hid.4.weight f4 [100, 100]
-0.06681346 -0.021666816 0.056862824 0.06500576 0.0043287063 0.023868853 -0.03921045 -0.07735239
-0.043753054 0.030903872 0.021447558 -0.10471007 0.06654754 -0.16213432 -0.026667092 0.16702275
0.13005267 0.18523657 0.10203142 -0.033676796 0.037247505 -0.012266703 0.1619774 0.058134865
-0.11325355 -0.13062154 0.061010975 0.0083519835 0.0077894097 0.03186155 0.07968366 0.08741708
0.043838184 -0.07861024 -0.09593697 -0.057529643 -0.035058577 -0.10603101 -0.015980916 0.08386085
0.07430337 -0.012130762 0.079181835 0.06756066 0.088243514 0.037676346 -0.0073787794 -0.09922359
0.03921496 0.03992172 0.16047777 0.109642945 -0.056873105 0.14329617 0.016720006 -0.1558517
-0.084665634 -0.056983393 0.11829869 -0.12029404 -0.118739374 -0.019691944 0.044426255 0.14648002
-0.096184865 -0.024431909 -0.25237802 0.011287838 0.12911677 0.16354714 0.32054913 -0.026751053
0.053324096 0.13031372 -0.046428643 0.10181612 -0.22083227 -0.07521103 0.04770169 0.025255835
0.023852624 -0.013247952 0.08419346 0.050174557 -0.028518256 -0.090411246 -0.08440882 -0.09201707
-0.15959808 0.029917039 0.022520922 0.022993015 0.18903486 -0.01714101 -0.09379452 -0.0047228835
-0.06324134 0.03848185 0.03671656 -0.2083637 0.06832116 -0.037129793 0.008430754 0.03072943
0.07358895 0.04257837 0.10617252 -0.057909958 0.06130396 0.07367034 0.14965583 0.14804654
0.123621106 0.045475222 -0.22776255 -0.013626958 -0.019986939 0.06959235 -0.061341062 0.00011426121
0.13342464 0.042794883 -0.06496992 0.057853423 0.048613492 -0.045781787 0.048054498 -0.0880741
0.14764069 0.022682713 0.022400955 -0.0026376941 -0.0011969544 -0.19656348 -0.028663462 0.025079558
-0.027359251 -0.04708201 0.04225453 -0.009104262 0.06294056 0.11477597 0.041800868 -0.16107963
-0.14978929 -0.030107426 -0.03634032 -0.15483038 -0.02034238 0.09962305 -0.0385685 -0.045832355
-0.19872077 0.029092588 0.0017993074 -0.088514894 0.0452422 0.104961276 0.075010024 0.02100107
-0.048131555 0.016207453 0.16058071 0.09861606 -0.21162255 0.009899391 -0.012660501 -0.08626274
-0.06953845 -0.104591906 0.08018691 -0.09149284 0.12138972 0.05468578 0.21791428 0.14077437
0.09618465 0.12555978 -0.0039540557 0.044904295 -0.095764674 0.03512098 0.046335462 0.077907056
-0.021245882 -0.33479553 -0.029154256 0.058478516 -0.002646578 0.14006506 -0.13308375 -0.13068068
-0.006680539 0.0102984095 0.00614196 0.14188808 -0.13336866 0.11429133 0.06049263 -0.030941015
-0.24343224 -0.07615372 -0.0050267656 -0.18294807 -0.016923625 0.16284876 -0.0657957 -0.056637555
-0.13593066 -0.026707897 0.12442311 -0.08956238 -0.1324999 -0.029660014 0.107309 -0.14224407
-0.13540375 -0.046137147 -0.053965475 0.04685302 -0.049902 -0.044128366 -0.056037683 0.0688421
-0.19484966 -0.06084492 0.05809655 0.06713097 0.004704454 -0.0019428106 0.082187235 0.036284547
-0.063103475 0.007914159 -0.10579054 0.015775537 0.0545965 -0.017343568 0.011781976 0.045593802
0.07791954 0.048903067 0.024969757 -0.0562327 0.016356803 0.14403029 -0.032463387 0.13295916
0.06728951 0.031756546 0.06733056 0.025961833 -0.1711491 0.003068734 -0.11092469 0.08416124
00000000: 7fd5 88bd 9b7e b1bc fee8 683d bd21 853d
00000010: d2d7 8d3b 9d88 c33c 239b 20bd ee6a 9ebd
00000020: 6736 33bd 1e2a fd3c cab2 af3c 3c72 d6bd
00000030: 144a 883d 8a06 26be f274 dabc 0308 2b3e
00000040: 872c 053e a8ae 3d3e d9f5 d03d aef0 09bd
00000050: d790 183d 48fa 48bc 67dd 253e d31e 6e3d
00000060: 7af1 e7bd a7c1 05be a5e6 793d c2d6 083c
00000070: 4e3e ff3b 4281 023d 3031 a33d ba07 b33d
00000080: ab8f 333d 68fe a0bd 9a7a c4bd 34a4 6bbd
00000090: 9599 0fbd c926 d9bd 69ea 82bc 3dbf ab3d
000000a0: 5e2c 983d 1bc0 46bc 162a a23d 3e5d 8a3d
000000b0: 04b9 b43d 8352 1a3d b0c9 f1bb bd35 cbbd
000000c0: de9f 203d f584 233d 4954 243e 7b8c e03d
000000d0: c6f3 68bd 3bbc 123e 65f8 883c 9797 1fbe
000000e0: 2d65 adbd 6b67 69bd 9546 f23d b95c f6bd
000000f0: a12d f3bd 0051 a1bc 4ef8 353d dcfe 153e
00000100: 92fc c4bd 6d25 c8bc b137 81be a0f0 383c
00000110: 3037 043e e778 273e 041f a43e 0625 dbbc
00000120: 5e6a 5a3d f670 053e f62b 3ebd f884 d03d
00000130: db21 62be 3e08 9abd d962 433d 53e5 ce3c
00000140: 9466 c33c f00d 59bc 9f6d ac3d d683 4d3d
00000150: 1e9f e9bc 8829 b9bd 88de acbd 7273 bcbd
00000160: ae6d 23be 9414 f53c cc7d b83c d95b bc3c
00000170: 5b92 413e 4e6b 8cbc 5717 c0bd 6bc2 9abb
00000180: ad84 81bd 259f 1d3d 1b64 163d 4b5d 55be
00000190: f7eb 8b3d 6915 18bd 2521 0a3c 49bc fb3c
000001a0: ceb5 963d a866 2e3d fa70 d93d fe32 6dbd
000001b0: dc19 7b3d 7ae0 963d 613f 193e 8399 173e
000001c0: 102d fd3d 3a44 3a3d 963a 69be 9b43 5fbc
000001d0: a6bb a3bc 6f86 8e3d c440 7bbd 859f ef38
000001e0: 78a0 083e b049 2f3d f30e 85bd b6f7 6c3d
000001f0: f11e 473d af85 3bbd cbd4 443d 3260 b4bd
00000200: 1f2f 173e 19d1 b93c 3582 b73c 2add 2cbb
00000210: 20e3 9cba f047 49be a3cf eabc a573 cd3c
00000220: 8220 e0bc 11d9 40bd 1613 2d3d 0b2a 15bc
00000230: fbe6 803d aa0f eb3d 6337 2b3d 0ff2 24be
00000240: 5d62 19be d9a3 f6bc 96d9 14bd db8b 1ebe
00000250: 10a5 a6bc 2b07 cc3d 01fa 1dbd b5ba 3bbd
00000260: 757d 4bbe 9453 ee3c bdd6 eb3a 4c47 b5bd
00000270: e34f 393d f0f5 d63d db9e 993d 700a ac3c
00000280: 9825 45bd 7ec5 843c 456f 243e 38f7 c93d
00000290: 95b3 58be 0e31 223c fd6d 4fbc 85aa b0bd
000002a0: 2d6a 8ebd 4834 d6bd 0939 a43d 9960 bbbd
000002b0: 2c9b f83d 32fe 5f3d ec24 5f3e 2827 103e
000002c0: 75fc c43d be92 003e 0691 81bb 91ed 373d
000002d0: 4520 c4bd 04db 0f3d 41ca 3d3d bc8d 9f3d
000002e0: d80b aebc 526a abbe e8d4 eebc 2b87 6f3d
000002f0: 3672 2dbb 376d 0f3e 1b47 08be 28d1 05be
00000300: 6ce8 dabb a9ba 283c 7f42 c93b 1c4b 113e
00000310: cb91 08be 9311 ea3d 1fc7 773d 0378 fdbc
00000320: 4d46 79be 7bf6 9bbd 91b7 a4bb bd56 3bbe
00000330: 6aa3 8abc d3c1 263e e5bf 86bd c8fc 67bd
00000340: 6831 0bbe 85ca dabc 8bd1 fe3d 7b6c b7bd
00000350: 0eae 07be 8ff9 f2bc d2c4 db3d 6ea8 11be
00000360: 48a7 0abe 4efa 3cbd e70a 5dbd f4e8 3f3d
00000370: 0a66 4cbd f2bf 34bd c587 65bd 16fd 8c3d
00000380: ab86 47be 8638 79bd a6f6 6d3d f67b 893d
00000390: d227 9a3b e8a5 feba c851 a83d 1b9f 143d
000003a0: 653c 81bd 64aa 013c b6a8 d8bd b33b 813c
000003b0: 94a0 5f3d 1914 8ebc 3009 413c 91c0 3a3d
000003c0: 4894 9f3d 954e 483d 608d cc3c 4254 66bd
000003d0: b4fe 853c ad7c 133e 54f8 04bd 7226 083e
000003e0: 15cf 893d 2713 023d 9be4 893d e9ad d43c
000003f0: b641 2fbe d01c 493b 7c2c e3bd ba5c ac3d

hid.4.bias f4 [100]
-0.025476715 0.024519356 -0.013956983 0.009116242 0.014600789 -0.011833338 -0.0025952444 -0.007401434
-0.0011706377 -0.017973812 0.0052127745 -0.011014489 -0.0030689025 0.0075557195 0.0035363345 -0.017134264
-0.023239383 -0.013607808 0.016036874 0.0008206106 -0.0128387585 0.045875493 -0.007109704 0.006054145
-0.022240497 -0.010954148 0.009979963 0.004175873 0.0036579676 -0.022281189 -0.00087947014 0.0070199873
-0.0181584 -0.010176337 0.022514014 0.004058121 -0.010921588 -0.009910671 -0.02672104 0.010035889
0.009885356 -0.0036224776 0.018642707 -0.0033257857 0.03817117 0.00892597 -0.009380808 -0.007950562
-0.014914138 -0.00950415 0.009713684 -0.01993814 -0.016723135 -0.019320738 -0.0017440184 -0.015936643
-0.00033877662 0.009214312 0.007277454 -0.018535033 -0.012864779 -0.010081177 0.022959158 0.004278055
0.011480711 0.013897177 0.037488736 -0.0045416756 0.017698904 0.008033506 0.026475253 0.0026712965
0.0023131727 -0.024604158 0.01452723 0.001719754 -0.039328065 0.00880821 -0.0060653123 -0.029823449
-0.002491248 0.028071523 0.0150489425 -0.02909193 -0.021867089 0.0006936841 -0.005732426 0.010963177
0.034793634 -0.0074570086 -0.011645597 0.0005788961 0.01757368 -0.040814184 0.0010917824 -0.015979018
0.011233403 -0.009991804 -0.0010004909 0.0027007714
00000000: 8bb4 d0bc d1dc c83c d4ab 64bc 4a5c 153c
00000010: 2638 6f3c 9ee0 41bc fa14 2abb ba87 f2bb
00000020: 1570 99ba d13d 93bc eccf aa3b 1e76 34bc
00000030: a41f 49bb f895 f73b d9c1 673b 285d 8cbc
00000040: 8560 bebc 49f3 5ebc c35f 833c 3f1e 573a
00000050: a859 52bc f1e7 3b3d 85f8 e8bb d961 c63b
00000060: b431 b6bc 0779 33bc 0083 233c c3d5 883b
00000070: 83ba 6f3b 0a87 b6bc 3e8c 66ba ec07 e63b
00000080: edc0 94bc a7ba 26bc 4f6f b83c fcf9 843b
00000090: 76f0 32bc 5e60 22bc 15e6 dabc 926d 243c
000000a0: 30f6 213c 1767 6dbb 97b8 983c 6df5 59bb
000000b0: 5f59 1c3d 3b3e 123c f6b1 19bc 1343 02bc
000000c0: 6e5a 74bc 4bb7 1bbc 2526 1f3c 4f55 a3bc
000000d0: f5fe 88bc 8646 9ebc 8c97 e4ba 908d 82bc
000000e0: d49d b1b9 a0f7 163c b577 ee3b c8d6 97bc
000000f0: cbc6 52bc 852b 25bc d814 bc3c ed2e 8c3b
00000100: 9819 3c3c fcb0 633c ca8d 193d 56d2 94bb
00000110: 4bfd 903c f79e 033c a1e2 d83c eb10 2f3b
00000120: 9998 173b a98e c9bc 9e03 6e3c 5e69 e13a
00000130: 7716 21bd 4f50 103c 87bf c6bb 4e50 f4bc
00000140: 3544 23bb 40f6 e53c d78f 763c 3352 eebc
00000150: 9c22 b3bc 5ad8 353a 13d7 bbbb e69e 333c
00000160: c583 0e3d ec59 f4bb 2dcd 3ebc 0fc1 173a
00000170: aef6 8f3c c62c 27bd 231a 8f3a 6ee6 82bc
00000180: 4f0c 383c aab4 23bc e722 83ba 6dff 303b

hid.5.weight f4 [100, 100]
-0.097159766 -0.059697296 0.1275452 0.18889405 0.05807842 -0.054899856 0.053565472 0.051086172
-0.052338045 -0.05250473 -0.010191291 0.00554253 0.079065114 -0.061771974 0.16505268 0.03812
0.057811532 -0.08577048 -0.11416721 -0.086742476 -0.0773203 0.010650244 0.19748475 -0.12120347
-0.16722858 0.065411046 -0.12036563 0.07137848 0.04834877 -0.17314234 -0.09615186 0.043858476
0.027931562 0.04731931 0.05718378 -0.002973118 0.18997708 -0.009553241 0.016255243 -0.04150032
-0.05380858 -0.07015605 0.09010586 -0.026701048 0.11416499 -0.2292425 0.13512793 0.0530874
0.04520741 0.19654667 0.029816756 0.029109074 -0.13538235 -0.03700421 -0.014702283 0.048561048
0.01205425 -0.016511261 0.057538386 -0.012645377 -0.022396553 0.010961318 0.0035239907 -0.041742172
-0.109348804 -0.14031415 -0.0036651238 0.045334976 0.062148694 0.068033405 -0.015337342 -0.11567558
0.08148908 -0.034887426 0.04030596 -0.0103263315 0.06218289 -0.00022079333 -0.013304058 0.04853257
0.13542004 0.16948915 -0.065159805 0.00037267766 0.061084054 -0.11241986 -0.0742163 -0.0368485
0.12555727 0.045591738 0.06120269 0.18929484 -0.10176956 0.07926862 0.12432085 -0.029632095
0.016898287 -0.04698878 0.061850127 0.19734237 0.16513744 0.06061181 0.019961588 -0.061732586
-0.06815002 0.060080834 0.049705133 0.086159326 -0.053929433 0.019718677 0.12206544 0.19607157
-0.09406666 -0.07136732 -0.09698448 -0.1110964 -0.011105259 0.21881437 0.011842059 -0.09581969
0.108985655 0.0717849 -0.06516605 -0.019761397 0.114232145 0.012875398 -0.02197945 -0.0378763
-0.017323978 -0.086125545 -0.0939942 -0.02275808 0.040026877 0.025528144 -0.059325818 -0.19416542
0.06617141 -0.14975806 0.00031820277 0.050563317 -0.04743861 -0.09553946 0.16670208 0.1775945
-0.18097857 0.09894591 -0.017514708 -0.13898756 -0.10468733 -0.04208131 0.015136775 -0.09953507
0.009594753 -0.06032274 -0.12793402 0.01213274 -0.004690481 0.08763833 0.0044861375 0.05770697
-0.03749 0.006065377 0.16691627 0.012205595 -0.045756683 -0.059150994 -0.054244116 -0.044309802
-0.08389655 0.032974105 0.067172416 -0.03286345 -0.086761795 0.12941167 0.057579383 -0.15844423
-0.113795124 -0.038549926 0.021643175 0.12661253 0.10421647 0.09565161 -0.18463519 -0.022549752
0.043152213 0.020730726 -0.16143882 -0.07427281 -0.10301487 -0.17692092 0.012745992 -0.0076312874
-0.020501494 0.011412503 0.11441041 0.123560876 -0.06720236 0.04777668 -0.084503084 -0.024059262
-0.0781347 -0.0056456137 0.010387165 0.022171091 -0.03726066 0.053626474 -0.012743865 0.060671482
0.07719028 0.038969703 -0.11370837 0.19977926 -0.14778289 -0.046789527 0.09020376 0.014690164
0.060891435 -0.114382185 0.036333926 0.0034930117 0.13985403 -0.108437985 -0.0099307895 -0.089952745
0.084397994 0.10123522 -0.032283183 0.00050453504 0.09256875 0.17724766 -0.01485782 -0.001127106
0.006307972 0.11629205 -0.043672133 -0.06944405 -0.018836377 0.10866558 0.08137913 -0.054676246
0.01726598 -0.056582864 -0.1976821 -0.06784979 0.0071140653 -0.05687047 -0.14901717 0.028540032
-0.112246625 -0.034698807 0.0019696592 0.026627515 0.10403045 0.015722392 -0.030608976 0.011124336
00000000: b3fb c6bd 2785 74bd 359b 023e 716d 413e
00000010: a3e3 6d3d acde 60bd 7867 5b3d bc3f 513d
00000020: 6b60 56bd 330f 57bd 5ff9 26bc 1d9e b53b
00000030: e4ec a13d 9c04 7dbd 9203 293e b823 1c3d
00000040: c9cb 6c3d 6fa8 afbd 80d0 e9bd 0aa6 b1bd
00000050: 1b5a 9ebd 5c7e 2e3c 7139 4a3e 8639 f8bd
00000060: f83d 2bbe 3af6 853d 4182 f6bd e12e 923d
00000070: 5c09 463d 3a4c 31be 44eb c4bd f2a4 333d
00000080: bbd0 e43c e5d1 413d 8a39 6a3d a5d8 42bb
00000090: 5a89 423e 3285 1cbc b729 853c 3dfc 29bd
000000a0: 6366 5cbd faad 8fbd 6c89 b83d 28bc dabc
000000b0: 56cf e93d 8cbe 6abe fa5e 0a3e 2c72 593d
000000c0: 682b 393d 8843 493e 4542 f43c 2776 ee3c
000000d0: aca1 0abe ba91 17bd d8e1 70bc f3e7 463d
000000e0: 307f 453c a042 87bc 5fad 6b3d 8e2e 4fbc
000000f0: fa78 b7bc 1a97 333c c1f2 663b d7f9 2abd
00000100: 44f2 dfbd 83ae 0fbe 9332 70bb 2bb1 393d
00000110: a18f 7e3d 1955 8b3d 7a49 7bbc 52e7 ecbd
00000120: bfe3 a63d 1ee6 0ebd dd17 253d c62f 29bc
00000130: 7cb3 7e3d c284 67b9 44f9 59bc 17ca 463d
00000140: 8dab 0a3e 908e 2d3e 8172 85bd f363 c339
00000150: 4633 7a3d 623c e6bd b7fe 97bd 74ee 16bd
00000160: 1692 003e 67be 3a3d acaf 7a3d 82d6 413e
00000170: 8f6c d0bd 9657 a23d ee9b fe3d 02bf f2bc
00000180: 476e 8a3c 4f77 40bd 8f56 7d3d 1e14 4a3e
00000190: ca19 293e 1744 783d 7c86 a33c 4fdb 7cbd
000001a0: 3d92 8bbd 5217 763d 9c97 4b3d 4d74 b03d
000001b0: 1ce5 5cbd 1089 a13c 72fd f93d fcc6 483e
000001c0: 05a6 c0bd 0829 92bd cd9f c6bd 8286 e3bd
000001d0: d5f2 35bc e010 603e 3205 423c 1d3d c4bd
000001e0: df33 df3d f603 933d c775 85bd a7e2 a1bc
000001f0: 8bf2 e93d 55f3 523c 3f0e b4bc 2e24 1bbd
00000200: 04eb 8dbc 9762 b0bd 0880 c0bd 276f babc
00000210: 39f3 233d 6620 d13c a1ff 72bd 4dd3 46be
00000220: e084 873d 2d5a 19be 74d4 a639 7b1b 4f3d
00000230: fd4e 42bd 31aa c3bd f3b3 2a3e 55db 353e
00000240: 7252 39be 27a4 ca3d 017b 8fbc c152 0ebe
00000250: 5066 d6bd 745d 2cbd 3c00 783c 0bd9 cbbd
00000260: 5033 1d3c fa14 77bd 2301 03be 66c8 463c
00000270: 9bb2 99bb ba7b b33d 7300 933b 255e 6c3d
00000280: 1d8f 19bd 12c0 c63b 19ec 2a3e faf9 473c
00000290: 5c6b 3bbd 5048 72bd 142f 5ebd 327e 35bd
000002a0: f4d1 abbd db0f 073d b191 893d d39b 06bd
000002b0: 2bb0 b1bd 7e84 043e 5cd8 6b3d 343f 22be
000002c0: 6b0d e9bd 87e6 1dbd 074d b13c b7a6 013e
000002d0: 726f d53d fee4 c33d 0211 3dbe 42ba b8bc
000002e0: 60c0 303d 7cd3 a93c 3850 25be 581c 98bd
000002f0: 76f9 d2bd c22a 35be 91d4 503c e10f fabb
00000300: c0f2 a7bc 82fb 3a3c 0150 ea3d 7c0d fd3d
00000310: 64a1 89bd 7bb1 433d f40f adbd ee17 c5bc
00000320: 1605 a0bd d7fe b8bb ed2e 2a3c 26a0 b53c
00000330: a29e 18bd 6fa7 5b3d a5cb 50bc a982 783d
00000340: f015 9e3d b29e 1f3d efdf e8bd ef92 4c3e
00000350: 6654 17be 60a6 3fbd c0bc b83d 03af 703c
00000360: 4c69 793d 3541 eabd e2d2 143d 03eb 643b
00000370: e535 0f3e bc14 debd c0b4 22bc 2539 b8bd
00000380: dbd8 ac3d 6954 cf3d 5f3b 04bd c642 043a
00000390: af94 bd3d 6980 353e 376e 73bc 67bb 93ba
000003a0: 1bb3 ce3b 872a ee3d 8de1 32bd af38 8ebd
000003b0: bf4e 9abc 0f8c de3d 1aaa a63d 33f4 5fbd
000003c0: 6271 8d3c 6fc3 67bd 2d6d 4abe d5f4 8abd
000003d0: 1b1d e93b 03f1 68bd f597 18be c9cc e93c
000003e0: 8fe1 e5bd 5620 0ebd 6615 013b f221 da3c
000003f0: eb0d d53d 3fcc 803c adbf fabc d942 363c
