rk_ckpts_v4/model_N100_L6_g0p9_lr0p1_seed2.pt (torch, 209349 bytes, 13 tensors)

hid.0.weight f4 [100, 2]
00000000: 760e 6ebe 5b99 863e 71d8 333d 97a4 463e
00000010: 81e8 00bf fe05 03bf 4f61 643f 52e5 103e
00000020: ba4a 31bd fedc 2c3f 130c c8bd d1c3 2a3f
00000030: 09a5 2dbf b4ef 193f 0fc7 303f d725 57be
00000040: 1526 e0be 0d0a e23e 5390 16bd 71d4 88bf
00000050: c421 443f 97aa 0a3e 481e 133d 701d 1abf
00000060: 1115 3ebe 3e21 15bf 2f75 10be c17c 7fbf
00000070: a00f bfbd 6f7e e1bd 22c9 c33f 00b1 323f
00000080: 67c0 af3c e502 28be 851c 20bf f7b0 e7bd
00000090: 9ef6 d73e 95f7 fe3e b35a b43e 51dc 25be
000000a0: f453 b6be df2c 4cbd ebfb 27bf a999 4cbf
000000b0: 23b2 b3bf ae52 26bf 1c73 253f dff1 b1be
000000c0: 2e7f 79bf 79ed 4ebf a8e6 013e 6c42 12bf
000000d0: d586 eebc a10f 76be cd79 923f b886 91be
000000e0: 504e 4ebe d528 dc3d 8393 873f 8409 4b3e
000000f0: 795d 2bbe b702 513f d98c 543f a1da 3fbf
00000100: 24c3 27bf 49e4 11bf f873 a6be 3d3b 14bf
00000110: c615 85bf efa3 873e 2380 cbbe 8127 c13e
00000120: f4eb 8fbe 013f 05bf eb9c 04bf 1eb0 84bf
00000130: 6a00 1d3f e495 9d3e e01d 903d d53b 6c3e
00000140: 2813 ccbe 3ff1 b63e 8389 ab3e 6ac9 babe
00000150: 1fde 93bd 2635 05bc a1b9 03bf fc3c a3be
00000160: 8bfb eebd 7ceb a0bc ddf7 d93f cc66 b7be
00000170: 557c 9ebf 8792 eebd ef05 2a3e 8307 353f
00000180: 2853 2c3e 03d4 763c d8e6 5fbd 1fe2 6bbf
00000190: de7c 353f 5928 4fbe 17d5 7cbf e071 32bf
000001a0: 9728 3b3f de30 9abe f8bb 743e 481e f5bd
000001b0: c6d8 92bf be3e c9be 43e0 253e ed0f dabe
000001c0: 152d ce3e 40b8 023f b356 82bf ab8e c23e
000001d0: 5468 a0bf a213 b9be 10ab df3e 7585 053f
000001e0: 4ffe 8dbf a3f1 31bf 56dc 133e 6ae6 a2bf
000001f0: d7e5 9cbd 4116 8a3e 0e1f af3e 7b5c c33e
00000200: 65cc c33e c780 50bf 5181 11bf e927 6f3f
00000210: 2f44 92bf d9d6 dbbd 54ba d73e 6e0f c7bf
00000220: 28bb 9f3f 2f0a 86be dac8 aebb 347b c7be
00000230: 26a5 45bf adf9 e23d 51be 51bf 16a0 ee3e
00000240: 3efb 37bf c224 38bf 06e7 10be a039 00bf
00000250: b903 013f b840 fabe f332 f53e e0b4 aabe
00000260: 111c 16bf 101d 01bf cfff 02bf e816 11bf
00000270: 664c 79bd 549a 0dbe 8762 bfbe 6e91 a7bf
00000280: 4abc 93bd 37c4 87be 2edc a7be 3a5e b1bf
00000290: fb9c bb3f 3a41 b9be 9c67 9d3f 9036 283f
000002a0: 0ae6 fdbd fd35 513f 5771 f6bc fe35 0dbf
000002b0: 0419 093f baee 8c3d 0d57 bc3e 80ff 6fbf
000002c0: 6c0b bc3d 1273 f5bb c7a3 f63e 878b afbe
000002d0: 316f 15bf 0097 403f 80a5 563f c6f0 b9be
000002e0: 2e57 343c b282 833e f04e 2abf dae7 2abf
000002f0: abff 08bf 7f9d 883f 77df 61bf ce77 e73c
00000300: 2914 173f 27d2 653f 6dd0 8abe 2120 84bf
00000310: dca2 c03f 5214 c03e a5c3 89be 3b81 d23f
-0.23247704 0.26288876 0.043907586 0.19398724 -0.5035477 -0.5118102 0.8921098 0.14149979
-0.043284155 0.6752471 -0.09767928 0.6670504 -0.6782995 0.6013138 0.6905374 -0.21010529
-0.43779054 0.44148293 -0.036758732 -1.0689832 0.7661402 0.13541637 0.03591755 -0.6020117
-0.18562724 -0.5825385 -0.14107202 -0.99799734 -0.09329152 -0.110104434 1.5295756 0.6980133
0.02145405 -0.16407354 -0.6254352 -0.1131305 0.4218034 0.49798265 0.35225448 -0.16197325
-0.35610926 -0.04984748 -0.6561877 -0.79921967 -1.4038738 -0.6496991 0.6462877 -0.34754845
-0.97459686 -0.80831105 0.12685645 -0.571326 -0.029117027 -0.240294 1.1443421 -0.28423095
-0.20147061 0.107499756 1.0591892 0.19827849 -0.16734876 0.8164477 0.83027416 -0.74942976
-0.65532136 -0.5698896 -0.32510352 -0.5790289 -1.039727 0.2649226 -0.39746198 0.37725452
-0.28109705 -0.5204926 -0.5180194 -1.0366247 0.61328757 0.3077842 0.07036948 0.23069699
-0.39858365 0.3573093 0.3350335 -0.36481792 -0.072201006 -0.008130347 -0.5145512 -0.31882465
-0.11669072 -0.019643538 1.7028767 -0.35820615 -1.2381693 -0.116490416 0.16603826 0.70714587
0.16828597 0.015065196 -0.05466351 -0.9214191 0.7089366 -0.20230235 -0.9876265 -0.6970501
0.7310881 -0.30115408 0.2389983 -0.11968666 -1.1472404 -0.3930568 0.1619883 -0.42590275
0.4026877 0.51062393 -1.0182709 0.37999472 -1.2531838 -0.3614779 0.43685198 0.52156764
-1.1093234 -0.69509333 0.1443952 -1.2726567 -0.07661026 0.26970103 0.3420338 0.38156494
0.38241878 -0.814465 -0.56837946 0.93420273 -1.1427058 -0.10734338 0.42134345 -1.5551584
1.247899 -0.26179644 -0.005334002 -0.38961184 -0.7720512 0.11082778 -0.81931025 0.4660651
-0.7186774 -0.7193109 -0.14150628 -0.5008793 0.50396305 -0.488775 0.47890434 -0.33341122
-0.58636576 -0.5043497 -0.5117158 -0.5667558 -0.060863875 -0.13828403 -0.37379858 -1.3091257
-0.07213648 -0.26516888 -0.3278517 -1.3856881 1.4657282 -0.36182576 1.2297244 0.65708256
-0.12397392 0.81723005 -0.030083342 -0.5516051 0.53553796 0.06881471 0.36785164 -0.9374924
0.09181866 -0.007490524 0.48171827 -0.34286138 -0.5837279 0.7523041 0.8384628 -0.36316508
0.011007113 0.2568565 -0.665267 -0.6676003 -0.5351512 1.0673064 -0.88231605 0.02825537
0.59015137 0.8977379 -0.2711214 -1.0322305 1.5049701 0.37515503 -0.26907077 1.6445688

hid.0.bias f4 [100]
00000000: f934 b83e 83d8 993e 4b6c 983c 8d80 d5bd
00000010: c416 fabd 2bf2 5a3e 088e 98bd 5714 723e
00000020: bf77 35bc c019 7d3e 9297 d73d f24e 233c
00000030: 1257 493e 6585 933e 8310 be3d 4ee7 393f
00000040: 1e72 7cbc 55fb 9ebd 54fb c13d 7399 023e
00000050: 7ef9 503e 5017 b6bd 0d1b 28bf e7e8 8fbe
00000060: 3068 f13e 8e05 0e3d 3bf5 973d 25e5 2bbe
00000070: b61d 09be 31f6 c23b 3b69 02be 9fe5 f23e
00000080: 2f50 ce3e 9933 303d 2355 5fbe 1339 c4bc
00000090: 49c1 63bd 0acc ff3d eaad 623d ba60 dfbe
000000a0: bb47 693d 5bae c5bd 0442 6e3e 1e5a f2bc
000000b0: db51 023d 179f e9be d731 353e 8b13 1c3d
000000c0: d409 333e dc38 463e c9b8 3ebe 9499 ef3e
000000d0: 56bc 913e bc67 ddbd f8f3 713e cd86 a0bd
000000e0: 9ee7 c23d 45a2 9abe 8cf6 253f c0e9 bb3d
000000f0: 3c4c c53d fe55 efbd 1b34 893e 0c40 80bd
00000100: 8a13 d6bd a7aa 75be 3517 d03d 00e2 26bf
00000110: 2dcb 7aba 35fa d23c 0cbe 5b3e 6b61 1d3e
00000120: acb6 3cbe 3a8e 613e 3f88 88be 5246 a63c
00000130: a7a3 e2bc efe1 2b3d 9529 debe 9dc6 80be
00000140: a20d 87be 0797 fd3d 60c0 8a3e 6a9c 733d
00000150: 9ddb 743e 9479 f8bd 5eeb 733d bdaf 083e
00000160: 0242 cfbe f809 373e 7731 69be 80db 74be
00000170: 2a8d 9d3e d6d8 74bd 93bc 0c3e cfb6 96be
00000180: 35f8 233e 1ac2 cabd 33b9 1ebf 5557 ef3e
0.35977915 0.30047998 0.018606326 -0.1042491 -0.122113734 0.21381442 -0.07448965 0.23640572
-0.011075913 0.24716854 0.105269566 0.0099675525 0.19662121 0.2881271 0.09280493 0.7261857
-0.015408067 -0.077627815 0.09471765 0.12753849 0.20407674 -0.08891165 -0.65666276 -0.28107378
0.471498 0.034673266 0.07419821 -0.1678663 -0.1339024 0.0059497585 -0.12735455 0.47440812
0.4029555 0.043017957 -0.21809821 -0.023952996 -0.055604253 0.12490089 0.05534164 -0.43628484
0.056953173 -0.09652396 0.2326737 -0.029583987 0.031816345 -0.45629188 0.17694794 0.038104575
0.17484218 0.19357628 -0.18625177 0.46796858 0.28464 -0.108108014 0.23628223 -0.07838211
0.09516834 -0.30201927 0.64829326 0.09175444 0.09633681 -0.116863236 0.26797566 -0.06262216
-0.104529455 -0.2399088 0.101606764 -0.651886 -0.0009567019 0.025754074 0.21459216 0.15369193
-0.18429059 0.22026911 -0.26666448 0.020297203 -0.027665926 0.041963514 -0.433911 -0.2515153
-0.2637759 0.12382322 0.27099895 0.05947534 0.23911901 -0.12132564 0.059550636 0.13348289
-0.40480047 0.17874897 -0.22772776 -0.23911858 0.30771762 -0.059777103 0.1374381 -0.29436347
0.16012652 -0.09900303 -0.6200134 0.46746317

hid.1.weight f4 [100, 100]
00000000: 1084 c7bd d133 9f3b e08c 293d 3c02 b3bd
00000010: 256f 073e 38c1 8abd cf38 e3bd 82e5 eabd
00000020: 60df 323e aa5d 0c3c 2434 8d3d a1f2 55bd
00000030: 01ed 1dbc 2ee3 63bd d1f7 803d 6d5f 7abd
00000040: 3030 8abc d050 e6bd b82c cebd 83c2 9cbc
00000050: 1ab4 e5bd 0cc4 183d f4dc 08bd b628 06bc
00000060: e69c babd 07f1 5e3d 9260 abbd cd2e 213e
00000070: a3bb 1e3d b618 68bd 5427 68be f9b2 2cbd
00000080: 3040 0d3d 4e2e 82bd 3e07 fd3d 39d4 733e
00000090: 39b6 6a3d 6183 89bd 7faf 883d 62df e73d
000000a0: 90e8 babb 6df5 133e 9a41 ae3d eec0 d1bd
000000b0: b7fc f5bd 622b 243d 828a 013e f118 bc3c
000000c0: 2329 bdbc ce69 a23d ddaa 37bc 0d82 cbbd
000000d0: 6b10 adbd 14bc 223d 9337 3b3b 07c7 a73c
000000e0: efa1 a93b 0e93 84bd 859b 093d 8480 cb3c
000000f0: 18f7 66bd 6987 a0bd 2534 a33d ddfb 193e
00000100: 37ff febd 5c49 0abe f72e e83d 5a91 d33d
00000110: b55c 333d 760e e6bd 3852 2dbe 93e5 1abd
00000120: 82fc a9bc efa8 243d 11f1 70bd 2cb7 bc3d
00000130: 5c31 1abe 49ff d83d 1de4 8d3d 2070 a6bd
00000140: 7ca8 083d b474 1e3d 44e4 083e 4096 32bd
00000150: 0abf 43be b022 a2bd ec3b 18bd 53e6 45be
00000160: 2ae8 33bd 5c37 353e 7d0b d2bd 8886 003d
00000170: 7e86 a23d 67f5 f9bd 3783 abbc 5f74 813d
00000180: 1370 453d 0ea3 db3d 014c 48be 9520 31bb
00000190: c185 91bd c411 ce3d 3b27 dd3d 6911 0a3d
000001a0: 066b 74bd 9965 91bd 970b a73d 88ec e63d
000001b0: bbc2 b4bd 3575 de3c 36ed 9fbd b0d9 2a3e
000001c0: 3192 c8bc ac73 e5bd d998 8d3c b23e 94bd
000001d0: 4cc0 16bc 7a53 56be d2c1 ab3d 5483 b53d
000001e0: aa79 a23b 0b8f a4bd b0ad 913c cd13 ea3c
000001f0: 3584 81b9 f7cd b5bd 6b36 a0bd 85c6 c2bd
00000200: a413 16bd 7f44 67bc 5b63 04be c2a9 313d
00000210: 362d 88bc a98b aebd f814 053e 1be8 133d
00000220: 250a 96bc ad77 f4bc 5bd3 4bbd 9c01 0c3d
00000230: 8c73 98bc a987 a23d 15b5 efbd ecbd aebd
00000240: a937 a2bd 2778 7bbc 93ae 0a3e 6690 b8bd
00000250: 32fe 79bc 2594 9abd c08c c13d 7301 853d
00000260: 1eb6 b5bd 4879 afbd c15a c4bd d1a2 363d
00000270: b1db 16be 2380 76bb 7437 d53d 2f59 6b3d
00000280: 7f7d 963d f759 223d b5e1 103d 247b b0bc
00000290: bfb1 00be 8e6a ccbd 85a2 ffbc 1c61 833c
000002a0: 4cf6 b73d f61d 99bd a017 dd3d cf11 e5bd
000002b0: 9f88 f63c b7c6 7dbc ea59 a5bd ffe3 3ebe
000002c0: 0235 863d a55b 9bbc 516b 22bd f34d 983c
000002d0: fea9 69bd 2034 8c3d 1455 2dbd e6e6 a4bd
000002e0: 9461 8bbd 2571 68ba 454b 6cbd b122 c2bc
000002f0: 9c64 683e 1a0c 8a3d 8b4c e8bc 2e93 793d
00000300: f094 dcbc 6938 a63d 9f39 593d 6e65 00bd
00000310: b3cb d7bb 5757 fb3d 3af5 17bd 1e51 e33d
00000320: 31c4 263a fdbd 7a3d 5b19 38bc 274a 14be
00000330: 4737 f93d 1530 44bd f803 49bd 21ff 393c
00000340: 79dd f83c 1128 d83b c6bf 143e a9dd 28bc
00000350: f4db c9bd af72 d0bc f7f6 a13c a76c f33d
00000360: c5e6 edbd 0e33 183e 9aeb f43d bca6 763c
00000370: e4b9 95bd e6b9 76bc dabc 253e 9b24 10be
00000380: 411c 483c e398 dabd cb3d 1fbd c2c8 fdbd
00000390: 3079 6b3d 103e 3dba b5fc 4fbe 2dc4 eabd
000003a0: 0acf c1bd d1eb 4cbc 10be 58bd b839 7c3d
000003b0: 1761 113e dd5a 583e cd72 97bb 3247 033e
000003c0: 28f7 e03d f4b8 673d ac96 90bd f72f f83c
000003d0: 3085 693d c0b8 6cbe 8f80 73bc 02da a1bd
000003e0: 8454 8dbd 8d54 20bd 2c5e 623d 0d35 b93d
000003f0: 1e87 9a3c b66e d2bd 6a5d 833b ea98 fcbd
-0.09741986 0.004858472 0.041394114 -0.087406605 0.13225992 -0.06775135 -0.1109482 -0.114695564
0.17468023 0.008567253 0.06894711 -0.052233342 -0.009639026 -0.055636577 0.06297267 -0.06112616
-0.01686868 -0.112458825 -0.10067123 -0.01913572 -0.11215992 0.03729634 -0.033413842 -0.008188417
-0.09111957 0.05442908 -0.08368029 0.1574051 0.038753163 -0.05666419 -0.22671252 -0.04216287
0.034485042 -0.06356488 0.12354897 0.23811425 0.057302687 -0.06714512 0.06674098 0.11321904
-0.005703993 0.14449091 0.08508606 -0.102418765 -0.12011092 0.040080436 0.12650493 0.022961112
-0.023090905 0.07930337 -0.011210171 -0.099369146 -0.08450397 0.039730147 0.002856706 0.020480646
0.0051767747 -0.06473361 0.03359558 0.024841554 -0.05638799 -0.078383274 0.0796893 0.15037484
-0.12451022 -0.13504547 0.11337083 0.10330458 0.043789584 -0.11233227 -0.16925895 -0.037816595
-0.020750288 0.04020017 -0.05882365 0.09214625 -0.15057892 0.10595567 0.06928275 -0.08126855
0.033363804 0.038685516 0.13368326 -0.04360032 -0.19115844 -0.07916772 -0.03716652 -0.19326143
-0.04392258 0.17696899 -0.102560975 0.0313783 0.079358086 -0.1220501 -0.020936592 0.06321024
0.048202585 0.107244596 -0.19560243 -0.0027027477 -0.0710559 0.10061982 0.10798498 0.03370801
-0.059672378 -0.07099456 0.081565075 0.112755835 -0.088262044 0.027155498 -0.07808916 0.16684604
-0.024483772 -0.11203703 0.017284798 -0.07238521 -0.009201121 -0.20930281 0.08386578 0.088629395
0.004958351 -0.08035096 0.017783016 0.028573895 -0.000247033 -0.08877175 -0.078228794 -0.09510521
-0.036639825 -0.014115452 -0.12928526 0.043374784 -0.01662312 -0.08522732 0.1299628 0.036110025
-0.018315384 -0.029842222 -0.04976211 0.034181222 -0.018609785 0.07936031 -0.117044605 -0.085323185
-0.079207726 -0.015348471 0.13543157 -0.09011917 -0.015258359 -0.075477876 0.09450674 0.06494417
-0.08872627 -0.085680544 -0.095876224 0.044588868 -0.14732243 -0.0037612997 0.104109675 0.0574581
0.07348155 0.03963658 0.0353715 -0.021543093 -0.12567805 -0.09981261 -0.031205425 0.016037516
0.08982524 -0.07476418 0.10795522 -0.11185037 0.030094443 -0.015489272 -0.0807379 -0.18641661
0.06553079 -0.018964598 -0.039653126 0.018591857 -0.057046883 0.068458796 -0.042317465 -0.08051853
-0.06805721 -0.00088669575 -0.05768897 -0.023698183 0.2269463 0.067405894 -0.028356811 0.060931377
-0.026926488 0.08116228 0.053033467 -0.03134673 -0.006585562 0.12272518 -0.0370991 0.11099456
0.0006361632 0.061216343 -0.011236514 -0.14481412 0.121687464 -0.047897417 -0.04907605 0.011352331
0.030379044 0.006596573 0.14526281 -0.010306754 -0.09856406 -0.02544531 0.019771082 0.11885958
-0.116162814 0.14863226 0.11959 0.015054401 -0.073108464 -0.01505897 0.16185322 -0.14076464
0.0122137675 -0.10673692 -0.03887729 -0.12391807 0.05748862 -0.0007219026 -0.20311244 -0.11463199
-0.09463318 -0.012507395 -0.052915633 0.061578482 0.14197193 0.21128412 -0.0046218396 0.12820128
0.10984641 0.05657287 -0.070599884 0.030296309 0.057011783 -0.23117352 -0.014862194 -0.0790291
-0.06900886 -0.039143134 0.05526559 0.09043322 0.018863257 -0.10275023 0.0040089386 -0.123338535

hid.1.bias f4 [100]
00000000: e85d 11bc 3390 f9bb b1a8 48bc 2f46 a5bb
00000010: 3cd2 373c 4308 db3b 5ddc 273b bbe4 7ebc
00000020: 2698 94bb 2e88 a93a 7a98 493b 8148 503b
00000030: 5cd6 9fbb cf83 033c f8b8 cdbb 3841 30bc
00000040: 0452 183c f743 4fbb c4b3 033a d765 f9ba
00000050: 2788 1dbb 42dd 52bb 34cb 363b c968 723b
00000060: bee5 543c 24ee 94bb 1c7b 503a c7ad 18ba
00000070: c876 063a e0c5 6cba 00f2 963b 9827 913b
00000080: 5051 f8b8 0b21 f5ba 2d3e 86bb a027 ce3b
00000090: 97d7 303b dcf4 c4ba 62c3 d63b e27c 3e3a
000000a0: 2281 a93b 4ba1 5fbb 1591 ba3a 02c6 233c
000000b0: 128d ec3b 595b d8bb 184f 7aba 0d0d 32bb
000000c0: b564 76bb 9174 0bbc 6bd9 48b7 47fd 2cba
000000d0: 6e99 043b b14e 62ba 5e26 873b 10ff 313c
000000e0: bd63 1ebc dd92 533b 613d b8ba c7a2 a339
000000f0: 4998 ffb9 ebdf 8eba cfd9 c1ba 6197 993c
00000100: 4d88 2d3b b5f6 02bc 9808 03ba 18aa 3abb
00000110: 5951 903b 94d6 86bb f73f fb3a f575 b239
00000120: 7108 4a3c a319 853b a1c8 6aba fcd2 393c
00000130: 3536 9c3a ccb9 83bb 06a7 b33a 7e75 32bc
00000140: 4f35 4bbc 6322 653c 3409 8b3b fa8b c53b
00000150: 7d13 9dba a5d8 133c db02 263b 76f8 2cbb
00000160: bef7 a8ba e74a 083b 07f7 efba 2212 8d3a
00000170: 5e77 603b b5fb 08ba ad00 653b d33c 25b9
00000180: 1503 a33b 6d27 32bb 91a0 0fbc e346 9e3b
-0.008872487 -0.007616067 -0.01224725 -0.005043767 0.011219557 0.0066843345 0.0025613524 -0.015557463
-0.004534739 0.0012934261 0.003076105 0.0031781497 -0.0048778486 0.008027031 -0.0062781535 -0.010757737
0.009296898 -0.0031626204 0.00050240406 -0.0019027543 -0.0024037452 -0.0032175337 0.0027892115 0.0036988726
0.012994228 -0.00454499 0.0007952915 -0.00058242347 0.0005129394 -0.0009032171 0.0046064854 0.004429769
-0.00011840707 -0.0018701864 -0.0040967674 0.0062913448 0.002698397 -0.0015026587 0.006554053 0.0007266534
0.0051728645 -0.0034123238 0.0014233912 0.009995939 0.0072189653 -0.0066026864 -0.0009548529 -0.0027168423
-0.0037596647 -0.008511678 -1.19715505e-05 -0.00065990206 0.0020233053 -0.0008632942 0.004124447 0.010864034
-0.009667334 0.0032283582 -0.0014056378 0.0003121106 -0.0004875085 -0.0010900473 -0.0014789643 0.01874894
0.0026478947 -0.00799339 -0.0004998534 -0.0028482731 0.0044042286 -0.004114935 0.0019168843 0.0003403869
0.012331114 0.004061894 -0.00089562876 0.0113418065 0.001191801 -0.0040199514 0.0013706393 -0.01089227
-0.0124028465 0.013985249 0.0042430405 0.0060286494 -0.0011983957 0.00902382 0.0025331292 -0.0026393211
-0.0012891216 0.0020796598 -0.0018307873 0.001076285 0.0034250836 -0.00052254956 0.003494303 -0.00015758285
0.0049747326 -0.0027184144 -0.008766309 0.0048302277

hid.2.weight f4 [100, 100]
00000000: ae0d 233e 6930 8b3d 45f2 273b d416 26be
00000010: 0425 c3bc 2602 2d3d d208 d1bc f86f a4bc
00000020: 1216 9e3d 879f ad3d 9336 923a eb6f fabc
00000030: 3156 e3bb 4a7a bdbc c9fd 9a3d 17bb 8ebc
00000040: 105c 2d3c 35c4 b33c 835c a03c 5029 21bd
00000050: 0078 26be 88c4 82bd 3a47 a53b 2a03 f23c
00000060: f382 ae3d 3554 a43d 5c4b 8e3d 19e9 9a3d
00000070: ebdd 9b3c 4ba9 303e 15ef b53d 73d9 e7bd
00000080: 8dfd 653d 2956 26bd a23d d23d 1c50 c93d
00000090: 50a8 dfbd 1de8 133e 8940 86bd 70d4 dcbd
000000a0: d14e 8e3d 6b3e 83bd e084 c43d e5a6 d3bb
000000b0: b789 e23c dd8b f0bc 20cc b73d e14f 85bd
000000c0: fa06 05be cd4e 2bbe 1c88 1cbe e69b 3e3d
000000d0: 46bf 9cbd 07ca ad3b 8b27 3d3d 5bc8 c1bd
000000e0: fabf 903d 59e6 2ebe c510 a6bc b814 90bc
000000f0: e047 5ebc 2700 60bd 0b63 d73d 3503 5dbd
00000100: 4f93 abbd 2764 26bd a907 9ebe 8e86 323e
00000110: 62e5 50be f46e debd b2d2 8bbd 9c08 07be
00000120: ac61 103e 8eb8 6e3c 46f1 acbd 4c0e c4bd
00000130: 5473 5c3e a519 ba3d 953b 8a3d d1f5 53bd
00000140: 8f0e 5f3d 4020 b73d 59da e23d 2778 52bd
00000150: d3c3 0d3c 75a1 883d 3510 253e 2158 a13d
00000160: d72f 6e3d bb4e 63bc 9fe3 0cbe 0cb4 9b3d
00000170: f305 073d bebb 7c3d 4d0e 993d b278 22bc
00000180: 99eb 34bd 0ae5 e43c 0612 f9bd 9b34 ed3c
00000190: 5b43 c13d 8d9c d53d 07a2 4c3e 536f ab3d
000001a0: d408 c6bc e1a9 41bc c9fe 083c 684a 18be
000001b0: 033e 96bd e487 18bc c40f 49bd 62ba 19bd
000001c0: b666 893c 3447 ccbc 3fb2 8a3c 009c 9dbd
000001d0: 761c 51be b385 40be 98a0 e1bd c47d 9e3c
000001e0: e85b 8b3d b4a7 1dbd da88 febd 4840 373d
000001f0: b56d f4bc 8ee2 10bd 445e 8f3d 4ec8 613c
00000200: 50f2 013d cd76 4d3d 5b6d bbbd aef3 163e
00000210: eaef 663d 7960 a43c 552c 9bb9 c6cd d43d
00000220: fd77 efbc 3596 02be b62e 78bd b79c 9c3d
00000230: b051 303e dd34 50bd 47b6 fabd 29fa e6bc
00000240: a137 d8ba c794 8a3c 274e 053d 1357 14be
00000250: e42e 5b3d e4bf d13d cfd9 c23d ecd6 bbbc
00000260: 247c 313e 4ec3 2dbd 01a6 8ebd 605b ac3d
00000270: 3cd4 733d 3fa0 473d d2e4 ca3c 4a27 2a3e
00000280: 1785 a73b 37ae a13c 1406 edbc 2d82 1dbc
00000290: 81b7 403d f6ff 7fbd 29b3 973c 4ec1 e5bd
000002a0: a211 78bc e8e4 d4bd 58d5 953d f717 b2bc
000002b0: d87f f5bc 52fa fc37 2027 a5bd a324 04be
000002c0: b589 9dbd bbd1 efbb 2505 8dbc 7f3a 03be
000002d0: 6a55 00be ddbc 39bd 02f5 093e a164 8a3c
000002e0: 545a bbbd 72c3 413d 946c c5bc 006c e03d
000002f0: fe3b 0cbe 14bb 783d abb1 c8bd 7786 ab3d
00000300: 99f5 bcbd 6a4f 563c d277 383d 9846 3b3e
00000310: 1201 cc3d 5863 3a3d ef1a 853d 5a7d af3d
00000320: 750d 353e 803a 34bd bea7 de3d caf1 79bd
00000330: 50c4 a43d 437e b03d c4f3 f4bd a277 513d
00000340: 4a17 413e c945 e43d ff40 d1bc 76a7 4bbd
00000350: d6ad f4bd 4579 50bc 5956 4d3e 79cf 2f3c
00000360: 7a43 a9bc 11fc ad3c bb57 72bd e585 c43d
00000370: 2ae7 b3bb 674f 243e 2486 81bd b28a 583d
00000380: f9dd 423d 2489 b6bd 101a 203e 2927 0f3e
00000390: b844 f6bd 6b64 853d 0d64 ce3c 215c 183e
000003a0: d9d0 a73d 3bb4 423e 573d 673e 6e75 c6bd
000003b0: 5f7e 9ebc 157f d1bd 07d2 263c 5f9a 093d
000003c0: 1bcc 413d 09da 95be 3943 d1bd 4b86 8c3c
000003d0: 4d8c 503d b201 a13d a22f bfbd c0a3 8ebd
000003e0: d591 083c 1bc2 973d 1ae3 5a3d 9ac1 6a3c
000003f0: 4f19 4bbc 0398 5a3c 6c74 55bd 9f09 f23c
0.15923187 0.06796343 0.0025626582 -0.16219646 -0.023821361 0.042238377 -0.025516901 -0.020072922
0.07719053 0.08477693 0.001115518 -0.030570945 -0.006937765 -0.023129601 0.07567937 -0.017423196
0.010581031 0.021944145 0.019575363 -0.03934604 -0.16256714 -0.063851416 0.0050438913 0.029542524
0.0852107 0.08023874 0.069479674 0.07563991 0.019026717 0.1725208 0.08883492 -0.11320772
0.056150008 -0.040609512 0.10265662 0.09829733 -0.10920775 0.14444013 -0.06555278 -0.10782707
0.06948627 -0.0640839 0.095956564 -0.0064591044 0.027653558 -0.029363567 0.08974481 -0.06509376
-0.12990943 -0.16729279 -0.15286297 0.046535395 -0.0765367 0.0053036246 0.04618029 -0.09462043
0.070678666 -0.17080058 -0.020271668 -0.017588004 -0.013566941 -0.054687645 0.10516938 -0.053958137
-0.08377706 -0.040622856 -0.3086522 0.17434141 -0.20400003 -0.108610064 -0.06827296 -0.13186878
0.14099759 0.014570368 -0.08444457 -0.095730394 0.21528369 0.090869226 0.067496456 -0.0517481
0.054457244 0.08941698 0.11076803 -0.051384117 0.008652645 0.066714205 0.16119464 0.078781374
0.058151092 -0.013873751 -0.13758706 0.076027006 0.032964658 0.061702482 0.07473431 -0.009916471
-0.044169996 0.027941246 -0.12161641 0.028955748 0.09436675 0.1043025 0.19983684 0.08370843
-0.024174131 -0.011820287 0.008361527 -0.14872134 -0.073360465 -0.009309743 -0.0490873 -0.037531264
0.01677261 -0.024936296 0.016930697 -0.0769577 -0.20421013 -0.18801002 -0.11016959 0.01934708
0.06804639 -0.038490012 -0.12428446 0.044739038 -0.029837469 -0.03537231 0.070004016 0.0137806665
0.031725228 0.050162125 -0.09151717 0.14741394 0.056381144 0.020065533 -0.00029596934 0.10390811
-0.02923202 -0.12752612 -0.060591422 0.076470785 0.17218661 -0.050831664 -0.12241798 -0.028195458
-0.0016496071 0.016916646 0.032545235 -0.14486341 0.053511515 0.10241678 0.095142 -0.022929631
0.17332512 -0.042422585 -0.069652565 0.08415866 0.059528574 0.048736807 0.024767313 0.1661655
0.005112301 0.019736392 -0.028933562 -0.009613556 0.047050003 -0.062499963 0.018518047 -0.112185106
-0.015140923 -0.10395223 0.07316083 -0.021739943 -0.029968187 3.0157305e-05 -0.08064103 -0.12904601
-0.07692281 -0.007318703 -0.017214367 -0.12815283 -0.12532583 -0.04534613 0.1347237 0.016893687
-0.09148088 0.04730553 -0.024099626 0.10958099 -0.1369476 0.060725287 -0.097995125 0.083752565
-0.092265315 0.013080457 0.045036145 0.18288648 0.09961142 0.045504898 0.06499278 0.08568831
0.17680915 -0.044001102 0.10871838 -0.061021604 0.08045256 0.086178325 -0.11960557 0.05113948
0.1885654 0.11146123 -0.025543688 -0.04972025 -0.11947219 -0.012724225 0.2005247 0.010730618
-0.020662058 0.021238359 -0.059165698 0.09595851 -0.0054902034 0.16045915 -0.063244134 0.052866645
0.04757497 -0.08912876 0.15634942 0.13979782 -0.12024826 0.06513294 0.025194192 0.14878894
0.081941314 0.19014065 0.22581993 -0.09690367 -0.019347368 -0.10229317 0.01018191 0.033594485
0.04731379 -0.2926791 -0.102179 0.01715388 0.05091505 0.078616515 -0.09335257 -0.069648266
0.00833555 0.074100696 0.053439237 0.014328385 -0.012396171 0.0133419065 -0.05211298 0.029545603

hid.2.bias f4 [100]
00000000: a237 1b3c 9892 98bb 1923 f03b fff2 ed3a
00000010: 4cb4 a33b 3134 0bbb 18d7 463c 8a37 7fbb
00000020: 4aff d3bc ea1f 8bbc 6249 ff3a fdb5 57bc
00000030: 0f38 963c ee7e 01bb 2271 b5bb f4f3 553c
00000040: 966c 5dbc 4e4c 983b 2cb7 11bc 7b25 483c
00000050: bb33 95bb c9b8 a2ba 5a01 87bc 8036 fcbb
00000060: b474 593a 330c a2bc 7792 b43b 718b 9bbc
00000070: 63b7 80bc e4fc abba 7209 d2bb a173 8d3c
00000080: 4915 bebb f0ce c63b 59b2 773b 42a2 92bc
00000090: 41ea 6a3b a4cf f13b 751b 81bc f6db 0fbc
000000a0: b819 df3b 0a03 873c 3db9 3e3c 9b5b b5bc
000000b0: 64db 943c 6c5d 1d3b 8737 9c3b 2b0f 103b
000000c0: 882e 633c 482c 263c 8f44 0c3b 4e15 393c
000000d0: 57e5 0b3b e9b2 56ba b3f8 143a 7e19 0dba
000000e0: c3a3 08bc d9c1 e0bc c818 993b bfdf 2e3c
000000f0: 0107 863c 5d29 19bc 8a49 0a3b 4d7a 5cbb
00000100: f752 20bc bf74 3ebc 2c8a 973c 6e00 20bc
00000110: 5fca 56bc 0870 6e3c 1840 4b3c 350b 9f3b
00000120: 3502 82ba c158 283c 75b1 df39 d3a7 2bbc
00000130: 0446 cc3c eaeb 90ba 7b1d 75bb abdd 9dbb
00000140: 1403 afba 4fb9 d6ba e79b 34bb b77d 8b3c
00000150: 5cd0 bdbb ef16 20bc f708 d93a b631 94ba
00000160: 162d bcbb 953a 2abb 24d8 1fbc fe3a 1339
00000170: ccfe 7f3b 2779 89ba 030b 95bc baa2 f9ba
00000180: ba39 a63b 2431 88bc d786 d23c ad88 06ba
0.009473713 -0.004656147 0.0073284027 0.0018154084 0.0049958583 -0.0021240825 0.012136243 -0.0038943016
-0.025878567 -0.016982991 0.0019476826 -0.013165948 0.018337278 -0.0019759494 -0.005537168 0.013058651
-0.013514658 0.004647768 -0.008893769 0.012215967 -0.004553286 -0.0012414689 -0.016480137 -0.0076969266
0.0008295283 -0.019781208 0.005510624 -0.01898739 -0.015712446 -0.0013121632 -0.0064098174 0.01726705
-0.005800877 0.0060671493 0.0037795512 -0.017899636 0.0035845193 0.007379489 -0.015760163 -0.00878047
0.006808486 0.016480941 0.011640844 -0.022138407 0.01817102 0.0024011983 0.0047673616 0.0021981697
0.013866074 0.010142393 0.0021403169 0.011296583 0.0021346414 -0.0008190112 0.0005682811 -0.0005382522
-0.008339825 -0.027436184 0.0046721436 0.010673462 0.016360762 -0.009348241 0.0021100962 -0.0033642233
-0.009785405 -0.011624514 0.018498503 -0.009765727 -0.0131097725 0.0145530775 0.012405418 0.004853631
-0.0009918871 0.010275067 0.0004266609 -0.010477024 0.02493573 -0.0011056636 -0.0037401605 -0.0048176846
-0.0013352358 -0.001638213 -0.0027558745 0.017027719 -0.0057926606 -0.009771093 0.0016558458 -0.0011306319
-0.0057426794 -0.002597486 -0.009756122 0.00014040989 0.0039061783 -0.0010488377 -0.018193727 -0.0019045689
0.0050727995 -0.016624995 0.025699062 -0.00051320606

hid.3.weight f4 [100, 100]
00000000: db18 dbbd a756 5cbd 8ca8 f13d 7cb0 cbbc
00000010: 7c1d 713c 44ac 95bd dfb0 2d3e 8944 883d
00000020: 72b2 b93c b323 d8bd 2656 78bd 7d0a dbbb
00000030: 3e8c 14be 2abc aabd 2dc2 90bd c265 42be
00000040: 694f 83bd 3c8c 5d3c 57c0 85bc 0000 993d
00000050: d6cd 9ebc 6884 cebd 284e 15bd 4d78 263d
00000060: d5cf 173e 20a9 943d 0dce 8bbe 95e8 293e
00000070: 261d ed3d 043f 46bc 9aec 09bd 6d46 1b3d
00000080: 65a6 87bc bbde ef3d 937e 4bbe 6e32 b03d
00000090: 6e4c a93c eff2 b73c f2ad 5f3d c482 683c
000000a0: 2f2d ec3c 2539 263e 0eda 4dbc 2ab4 6d3d
000000b0: 23c6 f93d 8b31 b93d bc36 c73d 95b4 79bd
000000c0: e4f8 813d f2b8 7cbd 88db f83d 6691 c23d
000000d0: 9107 52bc 1831 133d 7a32 813d 7b98 40bc
000000e0: 486b 67bd 21c0 25bd 7b02 f33a a79c 48bb
000000f0: 7738 063d 8aa5 cf3c 821c 16be e45d ad3d
00000100: af8e b6bd d5c9 1c3e 63f1 80bc 590e 1b3e
00000110: df82 77bd 1229 a23d 0c8c 26bd 6bef 0b3e
00000120: 1d53 86bd 02c8 f73d f9e7 d7bc 62e4 91bb
00000130: 20de 0b3e 8f27 e9bd 9946 c23d 504e 7dbd
00000140: 9ca1 dd3d 0798 22bd e9fb 61be f464 1fbd
00000150: eef7 d73d 77be 75bd 7ab1 1abe 26e5 aa3c
00000160: 2f6c 8ebc 7e33 ccbc f96e 02bc e172 2e3d
00000170: 78b5 143c 45ce d6bd 68e5 413e 382b 253d
00000180: 925e a3bc 0edd 1dba 0f10 a93c 2a88 123d
00000190: 645a 96bc 33c8 a6bc 51fb 163d 054f 603d
000001a0: d4ec 2f3e 4d68 943b 2709 8d3d 4552 393d
000001b0: ede7 db3c 402d e23d 79ae 35bd dcff 4c3d
000001c0: 796a b43d 82b3 303e 5c0f 99bd e034 adbc
000001d0: 83ad 8ebd 3e29 40bd 955f 2a3e 415d 3cbe
000001e0: 6d7a 51be df9b 343b 5209 1d3d f4ab bd3d
000001f0: 9a39 2e3c 86fe a5bd c380 05be 4103 703d
00000200: 618d 173e 6bb2 113e 5baf 8e3d e8ef 423e
00000210: 01db a5bd b38a fc3d e56c 92b9 d022 3f3c
00000220: adb2 033d 248c a6bd feec fdbd b0ea 453d
00000230: 736d 0abd df52 bebc 5612 09be 8d13 5c3d
00000240: 8dc6 45bd a04a dcbd 1c43 99bd a9eb 9d3d
00000250: 17ec 223d b4dd 2dbe 5862 5c3d 4e36 723d
00000260: c209 653d 2980 803d 04dd 6c3d 156b 58be
00000270: f6cd bd3d 4e96 b9bd f663 e3bd f654 84bd
00000280: b56f bfbc 92d5 233e 9e20 233e 12fb 10be
00000290: 0477 84bc 5d06 3a3e fe46 fcbd b86c 0f3d
000002a0: eab9 5bbe 983c a6bd dc00 413d 6ad4 933d
000002b0: f925 9dbd 1fba 233c d51a b6bd 44ee 133c
000002c0: 119c 26bd 3440 b6bd d298 b5bc 70cb ce3c
000002d0: 471d 98bd b821 8b3d ba16 b6bd f718 c23d
000002e0: 5b5b 29bd 3f21 51bd 6094 513d cd4e bebd
000002f0: 8aba 0d3d d24b 8d3c 516e 4b3d 6697 22be
00000300: 6300 963d 5909 a8bd 0708 d83d 8eeb 823d
00000310: 909c bbbd e821 183e ad1d 01bd ef6e 543d
00000320: 8f3a 8b3d 1f8c 163e 49c2 32be ed42 443d
00000330: 78d8 bb3c 08f6 c23d 1526 3a3e 20c6 453e
00000340: d72f bfbd 2251 dabd 9983 d03c 8a61 853d
00000350: 24dd 463d 9101 e1bb 12a4 123d d799 e73d
00000360: 7259 ac3d f483 3f3d c907 8ebd 30bc 373d
00000370: 6bef 05be 95c6 b53c 99c9 e7bb e525 433c
00000380: 97b1 033d c73c b23c 39a0 66bd fc48 9f3c
00000390: 2c6a 6fbd fba1 3abc 4b0f 2b3e 4c85 83b9
000003a0: 1dd8 2cbd 0609 9dbd cb4d 56bd bf54 22be
000003b0: f550 c23d e0b6 c8bd ba9e 19bc 9158 a2bd
000003c0: e87c 80bd c985 8bbd 0d4c 603e 1bad 5b3e
000003d0: 84fb 91bc 026e 913d be0e 8e3d 2270 33ba
000003e0: d0a7 753d 15c9 553d 3461 24bd b4b4 c53b
000003f0: 3a15 cabc d821 bc3c 330a 7f3c be03 67bd
-0.106981 -0.053793576 0.11799726 -0.024864428 0.014716502 -0.07308248 0.16962002 0.06653697
0.022668097 -0.10553684 -0.060629033 -0.0066846 -0.14506623 -0.08336671 -0.07068286 -0.1898413
-0.06411631 0.013522204 -0.016327066 0.07470703 -0.01938526 -0.10083848 -0.03645149 0.04064207
0.14825375 0.072588205 -0.27305642 0.16592629 0.11577825 -0.012099985 -0.033672906 0.03790896
-0.016558835 0.11712404 -0.19872503 0.08603369 0.020666327 0.022454707 0.054609247 0.014191333
0.028830139 0.16232736 -0.012564195 0.058033146 0.12195995 0.09042653 0.09727237 -0.060963232
0.063463 -0.061699815 0.12151247 0.09500389 -0.012819187 0.03593549 0.06308456 -0.011755104
-0.056498796 -0.04046643 0.0018540168 -0.003061095 0.032768693 0.02534749 -0.14659312 0.08465174
-0.089139335 0.15311368 -0.015740102 0.15142192 -0.060427543 0.0791799 -0.040660903 0.1366555
-0.06558821 0.12098695 -0.02635573 -0.004452274 0.13658953 -0.11384498 0.09486122 -0.061842263
0.1082184 -0.039695766 -0.22068752 -0.038914636 0.10545336 -0.059996095 -0.15106764 0.02086122
-0.01738557 -0.024926897 -0.007961028 0.042590026 0.009076469 -0.104885615 0.18935168 0.04032442
-0.019942556 -0.00060220144 0.02063754 0.035774387 -0.018353648 -0.020359134 0.036860768 0.05476286
0.17180187 0.004529035 0.06886511 0.045244474 0.02684399 0.11043787 -0.044355843 0.050048694
0.088093705 0.17255977 -0.07473633 -0.021143377 -0.069666885 -0.04691433 0.16638024 -0.18394949
-0.20456858 0.0027558727 0.038338967 0.09261313 0.0106338505 -0.08105187 -0.130374 0.058596853
0.14800026 0.14228217 0.0696704 0.1903683 -0.08098412 0.12331142 -0.00027928423 0.011666015
0.03215282 -0.081321985 -0.12398718 0.04831952 -0.033795785 -0.023232875 -0.13385901 0.053729583
-0.048285056 -0.10756421 -0.07483503 0.07710964 0.039775934 -0.16979104 0.053804725 0.05913382
0.05591751 0.062744446 0.057827964 -0.21134599 0.092677996 -0.090618715 -0.111030504 -0.064615175
-0.023368696 0.1599944 0.15930411 -0.14158276 -0.016170032 0.1816649 -0.12318228 0.03501579
-0.2145764 -0.08117026 0.04711996 0.07218249 -0.07673258 0.009993105 -0.088918366 0.009028975
-0.04067618 -0.088989645 -0.022167597 0.025243491 -0.07427459 0.06793541 -0.088910535 0.09477418
-0.04134689 -0.051057097 0.051166892 -0.09292374 0.034601726 0.017248068 0.049665753 -0.15878066
0.073242925 -0.08204908 0.10548406 0.06392585 -0.09160721 0.14856684 -0.03152244 0.051863607
0.067982785 0.1470189 -0.17456926 0.047915388 0.022930369 0.09519583 0.1817859 0.1931386
-0.093352966 -0.10660006 0.025453376 0.06512745 0.04855074 -0.006866642 0.035801 0.113086395
0.08415498 0.0467567 -0.06935079 0.044857204 -0.13079612 0.022189418 -0.007073593 0.01191089
0.032151785 0.021757497 -0.056305144 0.019443981 -0.058450863 -0.011391158 0.16705053 -0.0002508558
-0.04219829 -0.07667737 -0.052320283 -0.1585264 0.094880976 -0.09800506 -0.009376222 -0.07927049
-0.06273824 -0.06812627 0.21904011 0.21452753 -0.017820127 0.071010605 0.069364056 -0.0006845017
0.05997449 0.05219372 -0.040131763 0.0060335044 -0.024668325 0.022965357 0.0155663965 -0.056400053

hid.3.bias f4 [100]
00000000: 86a9 feba 6517 de3a 5c7a 893c bb23 3e3c
00000010: b270 08bb 6f6b efba fee9 293c 5aa8 0b3c
00000020: 5a69 11bc c5b5 903b ce9f 0d3c bee7 0e3c
00000030: 549b 063c 93ff 0dbc 29ff f53a 4447 23bc
00000040: 23b7 82bc fbc6 423c eb91 543c e519 7ebc
00000050: 8683 d3ba 396d febb d009 2abb 3ae4 fc3c
00000060: f368 c4bb 1358 98bb eda4 3cbb 668a 40bb
00000070: 98cf e13c e9c0 853b e4e6 9bbb d7a8 14bc
00000080: f488 313c 7ac6 663b 5b09 b9ba 8cf3 4bba
00000090: 1296 28bb abfe d7bc 3ee6 50bc 0b9a 903b
000000a0: a2b2 d3bb fd66 893a 523d 8d3b 4e37 20bb
000000b0: cfb3 6a3b fa0c 37bc 1cf3 27bc b4bf 2c3b
000000c0: c747 a93b a050 263c ddb0 78bc 661e 843a
000000d0: b8cb 88bc b355 1a3c 074a 45bc 2930 ee3b
000000e0: bf7d cfbb 2f84 9fbb 740c 3f3d 7fe0 89b8
000000f0: a950 623c ca04 0bbb 9e29 dcbb 4d1d 39bb
00000100: 7517 1fbc 3536 db3b 8e61 12ba f01c 47bc
00000110: 177e 673c 9f08 d63c a865 15bc 9f6f 0bbb
00000120: 9bba f9bb c6d6 bebb 4128 1e3b ea5b d13b
00000130: 8fe4 6cbc 0ecb 55bc 8cd3 efbc d814 4f3c
00000140: 3ce5 30bc 8c04 21bc 070d b4bb 6353 6dbc
00000150: 9f8c e439 7472 3a3b f1fb c23b 3073 03bb
00000160: b3c6 e8bc 430d 7cbc 36ab 463c 74e2 f93b
00000170: 279a 3cbc 2ecd 013b 65af cf3c 56a1 54bb
00000180: a6fe 9dbb 05f6 a93b 64f3 8fbc 4703 fa3a
-0.0019429184 0.0016944228 0.016781978 0.0116051985 -0.0020819125 -0.0018266271 0.0103707295 0.008524025
-0.008875215 0.0044162 0.008644057 0.008722244 0.008215744 -0.008666891 0.001876806 -0.0099657215
-0.015956467 0.011888261 0.012974243 -0.015509103 -0.001613722 -0.007764485 -0.002594579 0.030870546
-0.0059939562 -0.004649171 -0.0028784827 -0.0029379367 0.027564809 0.0040818346 -0.004757749 -0.009073458
0.010835875 0.0035213516 -0.0014117168 -0.0007780127 -0.0025724215 -0.026366552 -0.0127502065 0.0044128946
-0.0064605037 0.0010482963 0.0043102885 -0.0024447027 0.003581274 -0.011172527 -0.010250833 0.002635938
0.005166027 0.010151058 -0.015178886 0.001007986 -0.016698703 0.009419846 -0.012041575 0.0072689247
-0.006332129 -0.0048680524 0.046642736 -6.574485e-05 0.013813176 -0.0021212571 -0.0067188283 -0.0028246224
-0.009710182 0.0066898116 -0.0005583995 -0.012152895 0.014129183 0.026127158 -0.009118475 -0.0021276248
-0.007621122 -0.005823943 0.002413288 0.006389131 -0.0144587895 -0.0130489 -0.029275678 0.012639247
-0.010796841 -0.009827744 -0.005494717 -0.014485213 0.0004359232 0.0028449567 0.005950444 -0.002005767
-0.02841506 -0.015384021 0.012125781 0.0076258723 -0.011511362 0.0019806135 0.02535219 -0.0032444797
-0.004821616 0.0051867985 -0.017572112 0.0019074463

hid.4.weight f4 [100, 100]
00000000: 5590 813d 1096 b23d b4db 963d 6420 443e
00000010: a01f 34bd 5828 81bd 5fad 0d3d d958 213e
00000020: 8aba c53c 3331 59bc 1677 483d 11ea dd3c
00000030: 87c6 75bd 9d86 0b3e c9ae 773c 16d8 6dbe
00000040: 62d2 033e 02c5 5abd 13ab 2a3d f92e a13d
00000050: 1911 d4bd 4ffc 3c3d b676 7b3d 194d 513e
00000060: 5a07 b5bd 19ef 543d e639 9fbd 407e 7e3e
00000070: cf65 093c 312e ecbd 83d1 34be e16d e4ba
00000080: d724 c7bd 8002 d9bd a0fe f1bc c631 2f3d
00000090: b491 e63d 590e 063e 2b84 383d 2189 5e3d
000000a0: 93c3 9abd 8e4e 223e 9be8 9dbd 6e06 043d
000000b0: b616 d2bd 3409 21bb f1cd cebc 26d8 f2bc
000000c0: 3e6a e6bc e31e d4bc f6f4 ccbd 071a 663c
000000d0: ff22 f0bc b9f4 aa3d bde7 9c3d bf72 bb3d
000000e0: 3b46 efbc cd2e dd3c cc52 6f3e bc14 82be
000000f0: 2539 9bbd 176d 8c3c 8bff 88bd d439 233d
00000100: e368 9cbd 685c b6bd f389 8cbd f696 0ebd
00000110: e169 1bbe d51e 6e3d bab6 4cbd 2399 c8bd
00000120: d185 323d 5a16 b5bd 3498 23bd d560 01be
00000130: f330 023d c39b 4a3c bb3e 4abd b53b b93b
00000140: 75c9 aabc 4c3b 17bd 8a79 b23d c3bc 123e
00000150: b121 d4bd 6598 0b3e 1a01 823e cd21 0a3e
00000160: 5ef5 41bb 7af1 45bd dae7 3bbd d6eb 993e
00000170: 7585 d43d d38c 1d3e d8b1 573d 8f1e 2c3e
00000180: f9ea 9bbd 8ca2 2d3d 9a10 3ebe cbeb a43d
00000190: 90f1 d8bd b998 8dbb 5399 713d 6dc0 10be
000001a0: 059a 693d f828 ee3c ad79 05be b378 0bbc
000001b0: ac61 27bd 5c2a 96bd e336 6c3a 2fc5 333e
000001c0: 38ee 2dbc a9a7 11bd 26f7 9d3d cba7 78bd
000001d0: 89bf c4bd fb7a bcbd 2e6b b5bd 3918 19bc
000001e0: 23da a1bd eae0 15bc bf0c 893c 7ede 54bd
000001f0: 2e68 46bd ccc2 0fbd 1e21 a03d 9c62 91bc
00000200: 9204 bd3d ffcc 9e3d 46f7 be3d bd51 74bd
00000210: 0652 9d3e 72b6 92bd 180a 1dbe 30a2 b03d
00000220: b727 f4bd d2cc c43d 0611 043c 682a b2bd
00000230: 02cc 3e3d d8cb 813d dd65 3fbd c64f 5c3d
00000240: b69a 303b e03d 023d eca3 ffbb 86ef a7bd
00000250: 907d 56bd e376 fdbd 0fa4 973d b344 993d
00000260: 68ce 30bd 8485 113e fd75 ddbd f007 d73d
00000270: abdc 1c3d 15cc b63d e338 a73c 3874 15be
00000280: 9929 0bbe a4ba 0f3e d373 1bbc ca75 313d
00000290: 613c 7c3c 65fc df3d 96a3 793c 892e a6bd
000002a0: 4f46 a53d 466d edbc 83ef b1bd fb62 e63b
000002b0: 680d 723d 9dcc 9c3d 231c a7bd 9d15 16be
000002c0: 8cc4 89bd 8f20 cc3c cf8e ee3c c871 323d
000002d0: c705 8d3d b88d a8bc e4f2 8cbc a3e4 bbbc
000002e0: 8f55 84bb 678b 53bd 33b3 37bc fe8d be3d
000002f0: 4e47 24be 25b6 11be ff5b 1dbe 5e54 7abd
00000300: aefa 273e 4da8 75be 8403 adbc fc33 62bd
00000310: f718 53bd ec5d c7bd 9da9 47bd 0781 e1bc
00000320: ad36 c83d 6dc8 133e 99d6 2bbd c4f5 68bd
00000330: 56cc 013d 9fe3 74bc a2ae 63bd 0ca7 adbd
00000340: 50c4 5ebd f469 893c 7ba5 b1bc 01f6 333d
00000350: eb36 2abe 8ac4 ffbd d503 11bc 414d f53c
00000360: ea62 003e b105 a9bd 7e6e 9a3d 82c1 a43d
00000370: af6f 983d a095 aa3d 3d4d d5bc 1aa0 96bd
00000380: b2fc 333e 21fb 90bd 763f dcbc 97f4 133e
00000390: 9c49 653d 40ab 76bd aa15 f8bd 2d68 1e3d
000003a0: 09a5 8b3d 5304 4cbc 66a7 05bd 35fe 58bd
000003b0: 9b06 cebd 6178 6bbd 0ed5 f6bd 3b76 0cbc
000003c0: 174e d4bd b06d 0ebc 2927 083d 898b dcbd
000003d0: 6f23 60bd 8422 91bc a92d 4f3d 8c0b 833d
000003e0: ba57 a3bd 394f 40bc 96b1 313c 366d 1f3e
000003f0: 5633 323c 8e69 113d 39f0 74bd d08d 52bd
0.06326357 0.087200284 0.07366124 0.19152981 -0.043975472 -0.06306523 0.034589168 0.15756549
0.0241368 -0.013256359 0.048941694 0.02708915 -0.060003784 0.1362557 0.015117356 -0.23226961
0.12873223 -0.053410538 0.041667055 0.078702874 -0.103548236 0.046139058 0.06139251 0.20439567
-0.08839293 0.051985834 -0.07774715 0.24852848 0.0083860895 -0.11532248 -0.17658047 -0.0017427766
-0.097238235 -0.1059618 -0.02954036 0.042772077 0.112582594 0.1309141 0.04504792 0.054329995
-0.07556834 0.15850279 -0.077103816 0.032232694 -0.10258238 -0.0024572136 -0.025244685 -0.029644083
-0.028126832 -0.025893634 -0.1000766 0.014044291 -0.029313562 0.083474584 0.07661388 0.091527455
-0.029208293 0.026999855 0.23371428 -0.25406444 -0.07579259 0.017141862 -0.06689366 0.03985007
-0.07637193 -0.08904344 -0.06862249 -0.034811936 -0.15177108 0.058134872 -0.04997895 -0.097948335
0.04358465 -0.08842154 -0.039940074 -0.12634595 0.031784963 0.012366238 -0.04937623 0.0056528696
-0.020848015 -0.036921784 0.08714588 0.1432982 -0.103579886 0.13632353 0.25391465 0.13489456
-0.0029595713 -0.048325993 -0.045875408 0.3006274 0.103770174 0.15385751 0.05265984 0.16808532
-0.07613177 0.042391345 -0.1856102 0.080527864 -0.105929494 -0.0043211845 0.058984112 -0.14135905
0.05703165 0.02907227 -0.13034697 -0.008512664 -0.04086463 -0.07332298 0.00090108643 0.17555688
-0.010615878 -0.035560284 0.077131554 -0.060706895 -0.09606845 -0.09203144 -0.088583335 -0.009344154
-0.079029344 -0.009147862 0.01672971 -0.051969998 -0.048439197 -0.035097882 0.078188166 -0.017747216
0.09229387 0.07753944 0.093245074 -0.059648264 0.3072664 -0.07163705 -0.15335882 0.08624685
-0.119216375 0.09609379 0.008060699 -0.086994946 0.046581276 0.06337708 -0.046728004 0.053787015
0.0026947684 0.03179729 -0.0078015234 -0.08199982 -0.05236584 -0.123761915 0.074043386 0.074838065
-0.043165594 0.14211088 -0.1081352 0.10499561 0.038296383 0.08925644 0.020412868 -0.14595115
-0.13590087 0.14036041 -0.009488064 0.043325223 0.015395255 0.10936812 0.015236756 -0.081143446
0.08070051 -0.02898277 -0.08688261 0.0070308424 0.059094816 0.076562144 -0.081596635 -0.14656682
-0.067269415 0.024917869 0.02912083 0.04356554 0.068858676 -0.02057539 -0.017205663 -0.02293617
-0.0040385197 -0.051646616 -0.011212158 0.093044266 -0.16042826 -0.14229639 -0.15367125 -0.061115615
0.1640422 -0.23989983 -0.02111984 -0.055225357 -0.05153748 -0.09734711 -0.04874574 -0.027527345
0.097760536 0.14431925 -0.041952703 -0.056875005 0.03168901 -0.014946847 -0.055586465 -0.08479127
-0.054386437 0.016774155 -0.021685353 0.04393578 -0.16622512 -0.12488659 -0.008851011 0.029944064
0.12537733 -0.08253039 0.07540606 0.08044721 0.07443177 0.0832932 -0.026037807 -0.07354756
0.17576864 -0.07079149 -0.02688573 0.14448772 0.055978402 -0.06022191 -0.12113507 0.03867357
0.06818587 -0.012452203 -0.032630347 -0.052976806 -0.10059854 -0.05748785 -0.12052356 -0.00857311
-0.10366457 -0.008693144 0.03324047 -0.10768802 -0.054721292 -0.017716654 0.050580654 0.06398687
-0.07975717 -0.011737638 0.010845562 0.15569004 0.010876497 0.035501055 -0.059799407 -0.051404774

hid.4.bias f4 [100]
00000000: 92cc 00bb 2400 643c 2ad1 40bb 2486 9dbb
00000010: 3f9e 7e3c 550d ac3a e18b a83c e114 6ebc
00000020: 1c2b e3bb 6775 1abb b27a 163c 72c0 2f3c
00000030: 0794 ee3c 0b50 d53c 4b27 cd3c 2135 8e3c
00000040: 7812 5d3b 4b6b 2abc c335 293c 8709 cc3b
00000050: c5f9 89bc ed30 0fbc d2bb 2ebc 5878 753c
00000060: 695f 703b 00a7 263c 03d9 d93c a24b d13a
00000070: 159c d9bb 603f bf3a 97d2 8abb eb20 263c
00000080: a292 0c3c 0809 98bb 0ccb 86bc 7365 873c
00000090: 1670 8ebc 585a fd3b 9156 4b3c c362 17bc
000000a0: 5c8c 993c 8971 14bc 52ea 783c fe38 0c3c
000000b0: f664 78bc f080 2cbc 999b 023c aac7 1a3c
000000c0: bb98 70bc 40c7 50bc 0520 783b d083 513c
000000d0: 11f2 a83c 0735 92bc c99f 8f3c 13a5 5c3c
000000e0: d872 01ba 9626 deba 3815 1f3c b7d1 043c
000000f0: 803e 84bc 890f 6dbc b78f 393c 2c80 ca3b
00000100: a099 78bb 3f54 adbb ade6 0d3b 8689 b9bc
00000110: c274 b73b 56ef a03a 8ba0 85bb 43ad d5bb
00000120: ec9f 843b 5eed 23bc 4bf4 de3c cb70 563c
00000130: 9a1a 38ba 19c8 94bc de47 813b f4e4 cdbb
00000140: f7b5 dabc d210 553c deb5 46bc f8da 183c
00000150: 2b76 89bc d07a 3c3b 7aec 3dbc 035f 993c
00000160: 976f f9bb 84b3 603b 7d9c cbbb b68e 203c
00000170: f323 9a3b d9cb 50bc 73e4 a7bb 015e 8ebb
00000180: 6743 e73c 4589 df3c 1986 c33b d0ff 243c
-0.0019653183 0.013916049 -0.0029421546 -0.0048072506 0.0155406585 0.0013126532 0.020574512 -0.014531345
-0.0069326293 -0.0023568512 0.009184526 0.010727035 0.02912332 0.026039144 0.02504315 0.017359318
0.0033732932 -0.010401557 0.010327759 0.0062267217 -0.016842732 -0.008739692 -0.010664897 0.0149823055
0.0036677963 0.010171652 0.026592737 0.0015967975 -0.006640921 0.0014591031 -0.00423653 0.010139684
0.008579882 -0.0046397485 -0.016454242 0.016527867 -0.017387431 0.007731717 0.012410776 -0.009239855
0.018743686 -0.009060272 0.015192585 0.00855851 -0.01516079 -0.010528788 0.007971668 0.009447018
-0.014684851 -0.012742817 0.0037860882 0.012787774 0.020623239 -0.017847551 0.017532246 0.013467091
-0.00049380725 -0.0016948755 0.009709649 0.008106641 -0.016143084 -0.014469036 0.011325768 0.00617983
-0.0037933365 -0.005289584 0.0021652386 -0.022648584 0.0055986354 0.0012278359 -0.004077976 -0.0065208985
0.0040473845 -0.010005323 0.027216097 0.013088415 -0.0007023007 -0.01816182 0.003945335 -0.006283397
-0.026698096 0.013004499 -0.012128321 0.00932955 -0.01677998 0.0028759725 -0.011592025 0.018722063
-0.0076121795 0.0034286687 -0.006213723 0.00979965 0.0047039925 -0.012743914 -0.005123669 -0.004344702
0.028230382 0.027287135 0.0059669134 0.010070756

hid.5.weight f4 [100, 100]
00000000: 4757 1bbd 5ce5 8e3d 4d27 9abc a319 1a3d
00000010: 3491 04be 00fc 893e 476a afbd fd42 9c3d
00000020: 72a1 a8bd 0607 51bb f539 e4bd cd1f 3dbe
00000030: 270e 51bd e4fc 19be a42b 26be 4ff9 8ebd
00000040: 219e 99bd 591c 1dbe 5928 83bd 8e7d b5bd
00000050: ed7b d73d 3298 6f3d c691 91bc b8d8 2abd
00000060: a05f 893d 6577 143e b450 3bbd 4842 99bb
00000070: 15fc 0a3c 162a ebbd 69e9 223d a462 633d
00000080: 16e7 ec3d 5419 75bb 0d81 f83d 950a 5cbe
00000090: 6925 8cbd 21be cb3d 61ec 673d 36ab 883d
000000a0: 2f17 aebc 7097 c9bd 6b94 1a3e 0060 c23d
000000b0: c2f1 88bd 30a6 f6bc 3a54 e03d f609 e63d
000000c0: 753c c3bd f100 853d 0c75 1c3d 5e07 9dbd
000000d0: 019f 5abd df92 5bbd e785 c4bd f0d7 03be
000000e0: 3e0a 5ebd c696 ecbb 1431 9a3d 6f08 50bd
000000f0: c0d2 223b 4702 2c3e 1dc8 1c3c 7fae 92bd
00000100: 6760 303d b86b f73b 85ee 14be a833 8bbd
00000110: 38af 733e f5b7 cdbc a037 83bd 4f10 a53c
00000120: e26a 293c 55ca 0f3d d003 8b3d cafe c93c
00000130: 9091 0bbd 5987 843c 3bd3 433d 4d57 c83d
00000140: b4cd b43c 2f02 8e3d def4 193e 86a9 ac3d
00000150: 4ed3 153b 5999 9c3e b84b 9e3d cc57 243b
00000160: 9fbe 6c3d b5b7 8c3d 85af 883c a26c 0ebc
00000170: 5ee9 14be 97f6 d4bc 5875 3b3e 197e 17bb
00000180: abe9 013b 1ae1 853d dea2 86be 8837 c33d
00000190: a41d 17bd 8a9e 493d 86d0 8dbd 8461 02bc
000001a0: f4cd 5f3d f12e 3abc 0e41 3cbd e205 7dbd
000001b0: f1c9 61be 34f7 ff3d d12e 80bc ad00 d43b
000001c0: a33e 223e e219 02bb cee5 fe3d bd9c f1bd
000001d0: 0589 283e 2b44 95bd cbc2 eebc 9e64 653c
000001e0: 7777 b53d 2b65 8cbd 68db 4a3e 1291 823d
000001f0: 4b0d 35bd bb27 afbd b9f1 96bd 5253 6dbd
00000200: 4179 093e 33c0 dbbc 6050 f5bd baa1 2e3d
00000210: c223 093e 71e2 7a3d 84bf 963d b6df c93d
00000220: 2547 bbbd e90c 293e c8c5 063d 4d45 2ebe
00000230: a110 803c 308e 083d fd7a 373d e5ff 433e
00000240: 20bf 8f3c 0426 68bd 3f56 243d 01bf 2a3d
00000250: 1420 83bc 6866 f7bc 9099 083d e540 89bd
00000260: 6f77 883e d409 bbbd 9214 383d cb2a c03d
00000270: 64d8 38be 1e93 afbd b36d cf3c dfe0 b83d
00000280: 88fe 85bd e44a 2c3d 31a0 5c3d 61ce 8d3d
00000290: 3206 473d efaf 1f3d ea82 e3bd 3dbd 12be
000002a0: c9fa 113e 1b49 b93d ac37 9b3d 17f2 b03c
000002b0: 63ab b53d f39c cbbd 95b9 2cbd e960 833d
000002c0: f0e2 c2bd 7e55 f2bd 5754 b0bd 1832 92bd
000002d0: 2e1f 64bc f4be 84bd d273 de3d 6075 9d3d
000002e0: dc19 46bd 29ee a43b 6372 b1bb 533d 9cbc
000002f0: 5f26 94bd cb4b 0abe eead 91bd 4918 0c3d
00000300: a22f f5bd a4a2 6ebd b294 e2bc 65c6 e9bd
00000310: 7fb8 af3e 2d03 163e e2ff cbbc 17fa c9bd
00000320: 2259 69bd d6b9 20be 5629 cb3c e917 7a3d
00000330: 09d1 31bd a3d2 70bd 98da 3d3d 0ce2 833c
00000340: 8972 933d bf9c b0bd 665b bfbd 00c1 18be
00000350: 970d a33d d8bc 493d b27f a23d 8d63 1abd
00000360: 945d 263c 07dd 833d 303b 7b3d ab5d 2e3c
00000370: 3388 f43c 58d6 fdbb d9cf 55bd 849f 2d3d
00000380: 5e4b f8bd 4b43 f6bc 0662 963b adb4 d13d
00000390: 5615 3abd 9bb6 d0bd d929 c33d 9996 35bd
000003a0: 9fcb 933c c787 f33c d8e1 3fbe ec54 b5bc
000003b0: 34b9 2c3e 80db 833d 8c88 963d 6fe9 9fbd
000003c0: ff22 74bc 8386 bebd 0b7a 40bd 4f40 063e
000003d0: db1d 6e3d f0a9 8fbc c15e 733d a04c 90bd
000003e0: 1b6e 31bd 219a d73c 48e8 92bd 69f2 18bd
000003f0: 0fe4 1cbe 2b05 91bc 36a1 3abe d967 97bd
-0.03792503 0.069773406 -0.018817568 0.037622105 -0.12946016 0.26950073 -0.08565193 0.076299645
-0.08233918 -0.0031895055 -0.11143867 -0.18469162 -0.051038887 -0.15037876 -0.16227585 -0.069811456
-0.07500864 -0.15342845 -0.0640418 -0.08861838 0.10521684 0.058494754 -0.017769706 -0.041710585
0.06707692 0.1449867 -0.04573126 -0.004677091 0.008482953 -0.11482637 0.03977338 0.055513993
0.11567514 -0.003739913 0.121339895 -0.21488412 -0.06843073 0.099483736 0.056621913 0.06673281
-0.02125129 -0.098433375 0.1509568 0.09490967 -0.06686737 -0.030108541 0.10953565 0.11232369
-0.09533016 0.0649432 0.038197562 -0.07667421 -0.053374294 -0.053606864 -0.09595852 -0.12875342
-0.054208986 -0.007220122 0.07528892 -0.050789293 0.0024844855 0.16797744 0.009569195 -0.07162189
0.043060686 0.007550683 -0.14544113 -0.06796962 0.2379731 -0.025112132 -0.06407094 0.020149378
0.010340424 0.03510507 0.067878366 0.024657626 -0.034074366 0.01617782 0.047808867 0.09782276
0.022070743 0.0693401 0.15034816 0.084307715 0.0022861543 0.30585745 0.07729286 0.0025076745
0.057798978 0.06870977 0.016685257 -0.008692892 -0.14542148 -0.02599649 0.18306482 -0.0023115932
0.0019823115 0.06537075 -0.26296133 0.09532076 -0.036893502 0.04922346 -0.06924538 -0.00795782
0.05463977 -0.011363731 -0.04596048 -0.06177319 -0.22049691 0.12498322 -0.015647324 0.006469807
0.15844207 -0.0019851853 0.124461755 -0.117974736 0.16458519 -0.07288393 -0.029145619 0.01400104
0.08860677 -0.06855234 0.1981026 0.06375326 -0.04420213 -0.085525 -0.07370324 -0.05794079
0.13425161 -0.026825046 -0.11978221 0.042634703 0.13392547 0.061251108 0.073607475 0.098571226
-0.09144429 0.16508831 0.032903463 -0.17018624 0.01563293 0.033338726 0.044795025 0.19140585
0.01754719 -0.05667688 0.040121313 0.04168606 -0.016006507 -0.030200198 0.033349574 -0.06701831
0.2665362 -0.09132734 0.044941492 0.09383162 -0.18051296 -0.08572982 0.025320863 0.09027266
-0.065426886 0.04206361 0.053863708 0.06924129 0.048589893 0.038986143 -0.11108954 -0.14330001
0.14255823 0.09047147 0.07578978 0.021599812 0.0887058 -0.09942045 -0.042169172 0.064149685
-0.09515941 -0.118327126 -0.086098365 -0.07138461 -0.013923449 -0.06481734 0.10861935 0.07688403
-0.048364505 0.0050332737 -0.0054152473 -0.01907221 -0.07233881 -0.13505475 -0.071132526 0.034202848
-0.11971976 -0.058260575 -0.027658794 -0.11414794 0.34320447 0.14649649 -0.024902288 -0.09862154
-0.05696977 -0.15695891 0.024799984 0.06105796 -0.043412242 -0.05879463 0.046351045 0.016098998
0.0719958 -0.08623647 -0.09343605 -0.14917374 0.079615764 0.04925236 0.07934512 -0.037692595
0.010154147 0.06438642 0.061335742 0.010642449 0.029850101 -0.007746499 -0.052200172 0.042388454
-0.1212375 -0.030061385 0.004589322 0.10239539 -0.045430504 -0.10191079 0.09529466 -0.044333074
0.01804143 0.02972783 -0.18738496 -0.02213522 0.16867524 0.06438351 0.07350263 -0.07808196
-0.014900922 -0.09303 -0.04699139 0.1311047 0.05813394 -0.017537087 0.059416536 -0.07045865
-0.043317895 0.026318612 -0.071732104 -0.037340555 -0.15321372 -0.01770266 -0.1822556 -0.07392854
