rk_ckpts_v4/model_N50_L6_g0p9_lr0p025_seed0.pt (torch, 57561 bytes, 13 tensors)

hid.0.weight f4 [50, 2]
00000000: 7f08 223e 82f6 173e 20a3 253f 9391 333f
00000010: 9c54 4dbe bafa bbbe a4a6 6b3e c68b 12bf
00000020: 9975 013f 4370 8dbf 504c 833f 9c89 49bd
00000030: 306f afbe 5b01 0fbf b783 fabe ac91 bfbe
00000040: 209a 333e 3893 1f3f 5c00 82bf b7cd 8b3f
00000050: fd26 543f 5e8b 343f a05d 473f d15d 8b3e
00000060: da0b d33d ae23 c33f 9c5b 8fbf 2c13 87be
00000070: f7c1 5f3f 07ea 8a3e 4c6a c13e 968d 94be
00000080: 756b 2dbc b125 1c3f f301 843e d8c2 643c
00000090: bd9a 453f 522a 04bf 5977 3abd 43ee fbbe
000000a0: 2cd5 7dbe 2942 47bf 6ab1 043d 1703 bb3f
000000b0: 9a66 74bf d706 c43e b29f 393e c004 653d
000000c0: 14e7 bbbf f89a 35bf 8d69 c2bd 9ccd d63e
000000d0: ae74 ccbf 7687 c03e 4c4e 1c3f 6548 af3c
000000e0: 2b1e bb3e 1332 5abf 8009 193f 1976 263f
000000f0: 4b78 023d 4684 0dbf 2e46 61bf 76a1 b43f
00000100: 9dad 61bf 227e c3bd 80b2 223f 985b c0be
00000110: 9973 d4bb 321f 75be ef76 45be 2b2d 6dbf
00000120: f097 133d b49b b2bf 1358 08bf b618 643e
00000130: 3055 1f3f 61b9 453f bb44 f03e 63f4 21bf
00000140: 9ff5 413e 446c 6e3f 8be6 06bd c928 20bf
00000150: 463a 2e3f 6cb8 08be 5582 46bf 4866 153e
00000160: dc12 81bf 492d 71bf 77cf c93e f611 9abd
00000170: 0906 eabc 3804 a83f 489f ee3d 93bc ce3e
00000180: a440 e5bd 60f1 abbd 4932 b3bd c482 6c3f
0.15823554 0.14840129 0.64702034 0.70144004 -0.20051807 -0.36714727 0.23012787 -0.5724453
0.50570065 -1.1049885 1.0257664 -0.0492035 -0.34264517 -0.55861443 -0.48928615 -0.37415826
0.17539263 0.62334013 -1.015636 1.0922154 0.8287199 0.7052516 0.77877235 0.27220014
0.10304995 1.5245264 -1.1199832 -0.26381814 0.8740534 0.27131674 0.3777641 -0.29014271
-0.010584702 0.6099501 0.25782737 0.01396247 0.77189237 -0.51627076 -0.045523975 -0.49205217
-0.2478835 -0.7783533 0.032395758 1.4610318 -0.9546906 0.38286468 0.18127325 0.055912733
-1.4679894 -0.7093959 -0.094927885 0.41953743 -1.5973108 0.37603348 0.6105697 0.021396825
0.36546454 -0.8523266 0.5978012 0.6502395 0.031853 -0.5527996 -0.8799771 1.4111774
-0.8815554 -0.09545542 0.6355362 -0.3756988 -0.006483507 -0.23937681 -0.19283651 -0.92647046
0.03603357 -1.3953767 -0.5325939 0.22275051 0.6223936 0.7723599 0.46927437 -0.6326353
0.18941353 0.9313395 -0.032934707 -0.62562233 0.6805767 -0.13351601 -0.7754262 0.14589798
-1.008388 -0.94209725 0.39416096 -0.07522957 -0.02856733 1.3126287 0.11651474 0.40378246
-0.1119397 -0.08395648 -0.087498255 0.9238703

hid.0.bias f4 [50]
00000000: 7f8a 5dbe 8923 7fbd 3c5b 5f3e 8177 2f3d
00000010: aa8b a0be e8af 98be c56b a8bd 0622 89be
00000020: 647c 873e cd6f c43e 5a99 92bd adc6 eebc
00000030: 5337 6c3e 7a7d e53e c437 4d3e 0842 e23c
00000040: 278a b1bb ba5b d1bc 7a94 8cbd 645e 563e
00000050: cc70 1ebe c833 02bf 4eda e1bd f3bd 20be
00000060: 6be3 443f 5bc5 07bd d9f4 26bf a8f4 abbe
00000070: 4720 53be 3fb3 bd3e 182d c03d 4882 fd3e
00000080: 651c 9abe 6dc8 c83d 1824 de3e aece 88bc
00000090: fe32 3d3f c5a6 81be 0df8 91ba d343 323e
000000a0: 458b cd3e 079a 3b3d 38d1 073d 54ad a13d
000000b0: 702f 17be efbb 3dbe eb86 e4be 2ef5 28be
000000c0: 0034 e9bd d7b4 653d
-0.21634863 -0.06228975 0.21812147 0.042838577 -0.31356555 -0.29821706 -0.082236804 -0.2678377
0.2646209 0.38366547 -0.07158156 -0.02914747 0.2306798 0.44822294 0.20040804 0.027619377
-0.0054180804 -0.025556434 -0.06864257 0.20934445 -0.15472716 -0.5086026 -0.110279664 -0.1569746
0.7690951 -0.033147197 -0.6521736 -0.33585095 -0.20617782 0.37050816 0.09383601 0.4951346
-0.30099788 0.09803853 0.43386912 -0.016700115 0.7390593 -0.25322548 -0.0011136547 0.17408685
0.40145317 0.04580119 0.03315851 0.07894388 -0.1476419 -0.18528722 -0.44634184 -0.16499779
-0.11386871 0.056080665

hid.1.weight f4 [50, 50]
00000000: 45e5 0e3d ba0c 7b3e 5ce4 0d3e 1c55 4e3d
00000010: 8e32 72be 4721 b03d 16bb bf3d a915 5c3a
00000020: 3c79 bf3d 1f31 0f3e 0ad7 18be 1dcd 253e
00000030: d2eb 0fbe 80c3 eabb 4f86 2c3d e4bf 193e
00000040: 6f18 79be 8103 09bd 1605 3e3e 439a 32be
00000050: d6c5 11bd 2ad9 1fbe 1a3f 653e ab71 b9bc
00000060: e85d 323e eaac 693b ea6f a3b9 5632 a53a
00000070: 2407 343d 66fd 55be 3c90 b1bc ebae 5ebe
00000080: 0946 2c3e f5aa e9bd 0b25 32bd d241 233d
00000090: 7e2e 273c 2d72 98ba 8ac2 783d a536 803e
000000a0: 03eb 483d eda7 2abe 119f b7bc 1674 5e3c
000000b0: bd45 35be 01b2 f8bd afe1 433e f0f3 d4bd
000000c0: ad91 4c3d f3ef 8e3e b44c 1bbe 7466 bebd
000000d0: b2a7 21bc 3ac3 2ebe c5de d13c e530 093c
000000e0: a2e4 aabc 2764 253e cbcd c63d 6b18 e93b
000000f0: 20e6 6abc 6299 9dbd c7c8 38bc 82e9 3d3e
00000100: 9a71 633d 88d5 38be f938 89bb 0fca 393c
00000110: 20b9 e2bc f3f6 fb3c f158 e23d e5c1 61bd
00000120: 6031 103e a45f a03d aaea aabd eed5 4d3d
00000130: c5e4 4b3e 96eb 4bbc 0803 eb3c 2ab4 ffbd
00000140: 8611 353e 3592 55bd 4cf5 46be 1c37 a4bd
00000150: 6860 173e 47a4 ac3c 491b 94bd c847 f53d
00000160: a91c 173e 5cf6 54be 82e8 0fbe e42c 2abe
00000170: 8481 42bd f802 e03c 3e22 443e 573e ab3a
00000180: a7cf 123e 9394 aabd 7570 d8bc 6da9 6abd
00000190: ce61 f3bd 5165 973d 8f9c d93d b8e2 eebc
000001a0: 742f 29be 9c98 41be 3704 c13c 1299 5dbe
000001b0: cb48 313d 7f39 c63d 32f1 14be 0d33 cf3b
000001c0: 043b 513e fad5 0b3e 2fd3 edbb 1d8a 12bc
000001d0: 91e7 e83d c943 c03c bfd9 bb3d bdaf f2bd
000001e0: d254 243e 8b04 543e 806b be3d dc40 493e
000001f0: 6726 b73c 1a54 98bd 7ee8 01be f50e 973d
00000200: 6226 f8bb c459 56bd ebb2 7c3e e688 9dbd
00000210: 158d acbe f7b0 0dbe 5bad 2b3e 537a 983e
00000220: 8f95 823d 188c 92be 4642 3a3e bce9 eebd
00000230: 1404 a9bc f474 173d 426e 87bd cd5d e1bd
00000240: d5e2 db3d 3fea d0bc 8d69 b83d 1532 22bb
00000250: efcf cf3c 67da f8bd b717 cc3b 2097 7a3d
00000260: 8659 aebd 0bef 59be 9e25 7d3e 098f 1c3e
00000270: ecc6 d4bd c86a 82be b6e7 53bd 449e 18be
00000280: 51e6 c4bd acff 92ba 9ed8 c8bc 4c13 263d
00000290: 07ad 043e 40bd a23d 4ff7 403d 84cb aebc
000002a0: 97dc 513c 69a7 66be 6634 e43c 4b05 7b3d
000002b0: cd8b 19bd 0a44 8dbc 8ff9 31be 2395 babd
000002c0: 71c0 3d3e 5664 133e 2ca1 1c3e aa94 0f3d
000002d0: 8465 f23c 9893 d73d ccb3 a1bd 692a c23a
000002e0: 8172 acbd 6cac dd3d c237 0d3d b6db b73d
000002f0: 79fa 88bd 58e0 da3d 4c86 b13c 5671 0abd
00000300: b328 633d f61d b3be 872f ddbd 10ad 17be
00000310: 9a21 18be b1b7 36bc 5437 5fbd 23c8 233c
00000320: 1440 dabd b6d4 1f3e 2625 02bd 343b c5bd
00000330: 714d f73d b56c d83d c770 06bc 6f42 c8bd
00000340: 7566 043e 8cdd cabb 9a22 86be 3730 413c
00000350: c8f3 f03d 7022 f4bd a35d 81bc 9910 bb3d
00000360: 37fb 583d d081 c53d 3939 fbbd ecfc b83c
00000370: b18b 8dbd ca1c 083e 35f8 1a3e fe8b d5ba
00000380: 0565 b73d c41a 2c3d 7e3c 2f3e bbb1 e63d
00000390: 6c6d 32bb 602d b23d 2298 93bd fa24 0a3d
000003a0: 5fea e0bd 5c8e 63be 2d47 223e 6c8b 10be
000003b0: 6421 ad3d 4e78 80bd d4e5 8b3d 7f65 223e
000003c0: 76d6 66bd 518f 0ebe 8dd4 b93c c64b 623c
000003d0: b249 47bd 0aa3 cf3d 8531 c23c c03e e6bd
000003e0: 12b3 f6bd 473b 6fbc 1d31 c93b b15b b53d
000003f0: e07b 4d3c 1a18 25be be02 f73d d0b0 b23c
0.034886617 0.24516574 0.13856643 0.050374135 -0.23652098 0.08600097 0.09361856 0.00083955616
0.093492955 0.13983582 -0.14925781 0.16191526 -0.14054802 -0.0071644187 0.042120274 0.15014607
-0.24325727 -0.033450607 0.18556628 -0.17441659 -0.03558906 -0.15610185 0.22387353 -0.022637209
0.17418635 0.0035656043 -0.00031173165 0.0012603502 0.043952122 -0.20897445 -0.021675222 -0.21746413
0.16823591 -0.114095606 -0.04349236 0.039857693 0.010203956 -0.0011630707 0.060732402 0.2504169
0.04905225 -0.16665621 -0.022414716 0.013577482 -0.17702384 -0.121433266 0.1912906 -0.1039809
0.049943615 0.27917442 -0.15165979 -0.09296885 -0.009866642 -0.1706666 0.02561892 0.008373474
-0.020860974 0.16151486 0.09707221 0.0071135066 -0.014337093 -0.07695271 -0.011278338 0.18546107
0.05552826 -0.18050206 -0.0041877 0.011339678 -0.027676165 0.030757403 0.110521205 -0.055116553
0.14081335 0.07830742 -0.0834554 0.050252847 0.19911487 -0.012446305 0.028687969 -0.124855354
0.17682466 -0.052141387 -0.19429511 -0.08018324 0.1478287 0.021074427 -0.07231767 0.11976582
0.14757027 -0.20797104 -0.14053538 -0.16618687 -0.047486797 0.027345166 0.19153687 0.0013064843
0.14337026 -0.083291195 -0.026420811 -0.057290483 -0.11883889 0.073923714 0.10625564 -0.029160842
-0.16522008 -0.18905872 0.02356158 -0.21640423 0.04328231 0.09678935 -0.14545134 0.0063232244
0.20432669 0.13655844 -0.007257841 -0.008944062 0.11372293 0.023469822 0.09172391 -0.11849926
0.16047981 0.20704858 0.09297848 0.19653648 0.022357179 -0.07437916 -0.12686345 0.073759
-0.007572935 -0.0523317 0.24677627 -0.07692127 -0.33701387 -0.13837038 0.16765349 0.29780826
0.06376182 -0.28622508 0.18189344 -0.11665675 -0.020631827 0.03697677 -0.06612827 -0.11004219
0.10736624 -0.025502322 0.09004507 -0.002474909 0.025367705 -0.12151032 0.006228413 0.06117928
-0.08513169 -0.21282594 0.24721381 0.15288939 -0.10389504 -0.25472093 -0.05173465 -0.14904124
-0.09614242 -0.0011215112 -0.024517354 0.040545747 0.1295663 0.07946253 0.04711085 -0.021337278
0.01280894 -0.225248 0.027857017 0.061284345 -0.03748684 -0.017244358 -0.17380355 -0.09110477
0.18530442 0.14393744 0.15295857 0.035053886 0.029589422 0.10526198 -0.07895622 0.0014813665
-0.084202774 0.108239025 0.034477003 0.089774534 -0.06688399 0.106873214 0.021670483 -0.03379949
0.055458736 -0.34983796 -0.10800081 -0.14812112 -0.14856568 -0.011152194 -0.054496124 0.009996447
-0.10656753 0.15608487 -0.03177371 -0.09630433 0.12075318 0.10567609 -0.008205599 -0.09778296
0.1292971 -0.006190961 -0.26198274 0.0117912805 0.117652476 -0.11920631 -0.01579172 0.09134025
0.052973952 0.096439004 -0.12266774 0.02258154 -0.0691141 0.13292232 0.15133746 -0.0016292331
0.08954815 0.042017713 0.1711292 0.11264368 -0.0027225865 0.08700061 -0.072067514 0.03372667
-0.10982203 -0.22222275 0.15847464 -0.14115685 0.084536344 -0.06272946 0.068309456 0.1585903
-0.05635687 -0.13921858 0.02268436 0.013812011 -0.048654266 0.10138519 0.023705253 -0.11242437
-0.12045874 -0.014601535 0.006139888 0.088553794 0.012541741 -0.16122475 0.1206107 0.021812826

hid.1.bias f4 [50]
00000000: 4803 ae3b 83ac 45bb 9666 e43c d5b9 ceba
00000010: 43c0 2cbb 8565 863c a339 a63b 543b f7bb
00000020: 069c 0ebb f276 0139 0eba a63b f2c5 a8bc
00000030: dec1 54bb 449f 49bc 4feb 81bc b5e4 2339
00000040: 9e49 dc3b 0669 f1bb 6b1a e33a 9b7d a6ba
00000050: 158a 2abc f872 853c b937 923c 4765 9fbb
00000060: ee5e b1ba a2e0 6cbb c245 dbbc 97f6 7d3b
00000070: 8757 76bb f833 3cbc 0ae0 353b b52c 3b3c
00000080: d015 8ebb a91a 06bc 0fb4 b63a cd32 a73b
00000090: e585 c6bc 700f 3b3c dfb7 e4ba f298 51bc
000000a0: 83ff 883b 012b 17bc 4b5f 75bb 0591 bebb
000000b0: a4a6 13bc 1c7c 4e3c 9a93 28bc 12a8 8abb
000000c0: 2d6e 44bb eaff 3a3c
0.0053104497 -0.003016264 0.027880948 -0.0015771935 -0.0026359714 0.01640583 0.005072789 -0.0075449143
-0.0021760478 0.00012346709 0.0050880974 -0.0206022 -0.0032464187 -0.012306038 -0.015859274 0.00015630091
0.006722643 -0.007367256 0.0017326599 -0.0012702228 -0.010408898 0.016290173 0.017848836 -0.004864368
-0.001353232 -0.0036144634 -0.026766662 0.0038751715 -0.0037588791 -0.011487 0.0027751946 0.011424233
-0.0043360963 -0.008185067 0.001393916 0.0051024915 -0.024233768 0.011417255 -0.0017449817 -0.012792813
0.00418085 -0.0092265615 -0.0037440832 -0.0058156275 -0.009011898 0.012602832 -0.010289097 -0.0042314613
-0.0029972896 0.011413554

hid.2.weight f4 [50, 50]
00000000: 7b29 a1bc 7121 42bd 854c 6f3d 28d9 c1be
00000010: 4154 5e3e 29f8 d53c d358 3dbe de66 5f3e
00000020: 756e 23be 0ef1 223e c4c2 7dbd 6f6e d0bd
00000030: 7a1c 913d 6d59 1e3e 2514 d93d cf18 de3d
00000040: c8e1 16bd 2c92 e43d b930 bcbd 7897 8ebd
00000050: 95df 7f3c ec0a 893e ee5c a7bd 9708 35be
00000060: 5216 1b3d 21e2 3ebc 8ab3 e0bc 2581 77be
00000070: ac3a 19be caed 50be 7765 6ebd 5b94 41bd
00000080: d50e b03d 8cef 7fbc 6f80 3b3e 4536 353d
00000090: ebfe c7bc a079 073e 41b3 463e 1fc9 abbd
000000a0: b9f2 fdbc f82a 2bbe b975 f2bd cc10 c0bc
000000b0: 1322 0bbe 75df 2dbd e643 2cbd ecfd 6bbe
000000c0: 7ad9 cf3d b449 e53d 9f64 4d3d 9c94 29be
000000d0: 3908 08bd 970c 0a3e 1d97 1c3e e989 e93d
000000e0: 110d 813e 6795 f83d 4b34 b33d 38c0 b83c
000000f0: 2a45 883e 4aa0 bcbd 2928 0e3e 78b3 223e
00000100: db68 203d b42c b63c 1a46 5bbe 1751 61be
00000110: 969b d03c 02ae 403d 2699 b3bd a638 403e
00000120: 6706 b13d dc90 2cbd 176b a7bd f24a 94bc
00000130: de36 8c3c e2a6 bdbd 7a35 0cbe 1a16 2fbe
00000140: 2b9d 42be 2386 783d 750a 2f3d efbc a7be
00000150: 9f8d 703e e8f0 f43b 5da2 4cbe c323 7ebb
00000160: 752f 49be 885f 343e 2f88 183b db1d 4bbe
00000170: 23ee 08be fbe3 97bc 5692 4c3e 2db9 2dbd
00000180: d28f 47bd 6924 033e c952 14bd 2c71 1fbd
00000190: e03f c4bc 5815 fdbd 34ce b63c a91c 04bd
000001a0: 39f4 ef3d e15e 9cbc e364 093e 8187 04be
000001b0: 9bb6 3a3e 7648 28be 0a99 f13b 5602 c3bc
000001c0: 6588 5a3e 7e11 893d 0c22 b13d 7897 f53d
000001d0: c2cd 5c3b ae89 1e3c dcc1 0a3d d9a7 33be
000001e0: 2866 6e3d 42bd c03d 03ef 39be d320 9cbd
000001f0: 24d2 883d 4513 3dbd 3697 3bbd e0d7 113e
00000200: 2c58 103e 8d57 cabc 1dd6 cd3d 812c 88be
00000210: 15b4 64bc 6f50 403d c58c 91bd 21a9 503e
00000220: 1f10 903e 1e26 5c3e b557 793d 6ee7 dabd
00000230: 94bf 04bd ed4b 793d 39af 0dbe d20b 00be
00000240: 9939 683d 329e b2bd 56be 483e 020c dabe
00000250: dd0c 043e 9895 af3d 8165 0f3e e570 a3bd
00000260: 182f 0fbe e2bc baba d615 dabd 304d 153d
00000270: 195a a7bd 9452 813d 2396 afbd 5e7f 7b3d
00000280: 38a7 953d d4f6 833d d94f 733e c3ff 823c
00000290: c853 1ebe f756 af3d 1e92 383d 82cd 3b3e
000002a0: e14e 71bd 36bc 3dbe 5692 933d 7217 a93d
000002b0: 822b febd 5c9c 453e a312 b43d 1182 85bd
000002c0: 49a5 66be 3134 33be 370d 3b3e 2fb2 e8bc
000002d0: 9f00 9d3c b3ee f5bc e564 08bd f06b 563d
000002e0: 6dbd 293e 4e0a 0cbd a942 02be 1823 b0bd
000002f0: 65e3 653d eac2 f7bc 3bc2 27bd 0669 613d
00000300: f37e 783d 1500 173e bb21 15be dcb9 af3d
00000310: bcf4 123e fea0 8cbd 1910 bfbe 643f a1bd
00000320: c9a0 cebd 52c1 05be 005a 323c 6746 d73d
00000330: 158a 6dbd aeb3 33be e183 b43d 32aa 1e3e
00000340: 5dd7 013d 1d24 29bc 4471 80bd ac7e 683e
00000350: 382f f63d 58d8 993d 9128 5fbe 46a9 103d
00000360: 870c 9f3d 39d2 a9bc c591 13bd fe52 e33d
00000370: 1faa 013e c109 533d 9a41 c9bc 6985 f7bd
00000380: fef3 613e f6fe 773b 3c34 5f3d cff8 a2bd
00000390: d505 b53c 5863 08bd ee78 c53d ea15 99bd
000003a0: 2610 9d3d 7b0c d9bd a0cd 13be 3dff 51be
000003b0: 504d ee3d 6642 053c d1d2 1d3e 7c9b f93d
000003c0: 3c84 e13d 1e65 a13e 3708 12be ef34 773d
000003d0: 4813 98be 2881 46be 466e 06be 1427 7a3d
000003e0: a562 15be e4df d9bd e1ba e7bc fd74 2ebd
000003f0: 0629 e2bb 83b2 85bc d5b9 a6bc 44b1 e6bd
-0.0196731 -0.047395173 0.058422584 -0.3786099 0.21711828 0.026119309 -0.18490915 0.21816584
-0.15960105 0.15912268 -0.06195332 -0.101773135 0.070855096 0.154638 0.105995454 0.108445756
-0.036836416 0.111606926 -0.091889806 -0.06962484 0.015617271 0.26766145 -0.08172022 -0.17679058
0.037863083 -0.011650593 -0.02742936 -0.24170358 -0.14963788 -0.2040321 -0.058202233 -0.047260623
0.08596579 -0.015621077 0.18310712 0.04424121 -0.024413547 0.1322999 0.19404317 -0.0838797
-0.030999528 -0.1671561 -0.1183886 -0.02344551 -0.13587217 -0.042449433 -0.04205694 -0.23046082
0.10148902 0.111956984 0.050144788 -0.16560596 -0.033210967 0.13481365 0.1529202 0.114032574
0.2520528 0.12137871 0.087502085 0.022552595 0.26615268 -0.0921026 0.13882507 0.15888774
0.039162498 0.022238113 -0.2141346 -0.2200359 0.025464814 0.047040947 -0.08769445 0.1877161
0.08643799 -0.042130336 -0.08174723 -0.018102143 0.017116006 -0.09260346 -0.13692275 -0.17098275
-0.19005267 0.060674798 0.042734582 -0.32761332 0.23491524 0.0074750073 -0.19983812 -0.003877864
-0.1964701 0.17614567 0.002327453 -0.19835608 -0.13372092 -0.018541327 0.19977698 -0.042412926
-0.048721142 0.12806858 -0.036211763 -0.03892629 -0.02395624 -0.123575866 0.022315122 -0.032253895
0.11716504 -0.01908821 0.13417391 -0.12942316 0.18233721 -0.16433892 0.00737298 -0.023804825
0.21341093 0.066927895 0.08649072 0.11991781 0.0033691977 0.00967638 0.033876285 -0.17544498
0.058202893 0.09411098 -0.18157582 -0.07623448 0.06680706 -0.046160955 -0.045798503 0.14242506
0.14096135 -0.02469995 0.100506045 -0.26596454 -0.0139589505 0.046951707 -0.07106928 0.20377018
0.281373 0.21498916 0.06087466 -0.10688673 -0.032409266 0.060863424 -0.13836373 -0.12504509
0.056695554 -0.087215796 0.19603857 -0.42587286 0.12895532 0.085734546 0.14003564 -0.07980517
-0.13982809 -0.0014246965 -0.10648696 0.036450565 -0.08171482 0.06314579 -0.08573558 0.061400764
0.07307285 0.06443563 0.23760928 0.015991097 -0.15461648 0.08561509 0.045061223 0.18340114
-0.058913115 -0.18528828 0.07205646 0.08256425 -0.12410642 0.19297928 0.08792617 -0.06518949
-0.22523989 -0.17500378 0.1826676 -0.028405277 0.019165335 -0.030021047 -0.033299346 0.05234903
0.16576166 -0.034189515 -0.12720741 -0.086004436 0.056125063 -0.03024431 -0.040956717 0.0550318
0.060667943 0.14746125 -0.14563648 0.08580372 0.14351171 -0.06866644 -0.3731697 -0.07873419
-0.10089261 -0.13062027 0.0108857155 0.10511475 -0.057993013 -0.17549011 0.088142164 0.15494612
0.031699527 -0.0103235515 -0.06271604 0.22704571 0.12020725 0.075119674 -0.21792819 0.03531768
0.07766061 -0.020730125 -0.03602769 0.11099814 0.12662552 0.051522974 -0.024567414 -0.12085993
0.22065732 0.0037841178 0.054493174 -0.07957613 0.022097507 -0.033297867 0.09642206 -0.07474883
0.07669096 -0.105980836 -0.14433908 -0.20507522 0.1163584 0.008133506 0.15412451 0.121878594
0.1101155 0.3152246 -0.14260946 0.060353216 -0.2970221 -0.19385207 -0.13128003 0.061072424
-0.14588411 -0.10638407 -0.028287353 -0.042592037 -0.006901863 -0.016320473 -0.020352283 -0.112642795

hid.2.bias f4 [50]
00000000: 26bf 83bb fc9e efbb bf29 9f3b bd78 5fbb
00000010: 3b34 8abc 4861 373c 6853 1bbc c436 e2bb
00000020: 952e ce3c 195f 28bc 3586 0ebc 2886 003b
00000030: fdde d13a c4f5 85bc 2c35 70bb cc15 083b
00000040: 77d0 9d3c c700 493c d0ee fa3a 9efb bab9
00000050: 45b1 ebba f781 3bbb 98ec 7f3c ea53 c3ba
00000060: 967c 10bd b6b9 1dbc d3f9 08bc cbf0 1d3c
00000070: 4549 943b 4d6d 813c a0fb b93c e24c 13bc
00000080: 7a82 22bc f2d5 6d3c f7ad 08bc d893 8cbc
00000090: c1d6 273c b779 11bc c5c7 3fbc 304b 053d
000000a0: 4178 3cbc 0a8b dbbb 7d79 7d3c 7aa8 ab3b
000000b0: de23 563d 8cba 65bc b6ed 68bc 9ed6 dd3a
000000c0: b7cb babb d3bf 803b
-0.0040205894 -0.0073126536 0.0048572714 -0.0034099065 -0.016870609 0.011192627 -0.009480335 -0.006903501
0.025168696 -0.010276579 -0.00869899 0.0019611213 0.001601189 -0.016352542 -0.0036652787 0.0020764945
0.019264443 0.012268252 0.0019144658 -0.00035664154 -0.0017981908 -0.00286114 0.015620373 -0.0014902328
-0.035275064 -0.0096267965 -0.008360344 0.009639929 0.004525336 0.015799189 0.022702992 -0.008990498
-0.009918803 0.014516341 -0.008342258 -0.017160341 0.010244072 -0.008879117 -0.011705344 0.032542408
-0.01150328 -0.0066999244 0.01547086 0.00523859 0.0522803 -0.014021527 -0.014216831 0.0016924923
-0.0057005542 0.003929117

hid.3.weight f4 [50, 50]
00000000: c7cf a4bc e4f7 8bbd e4b5 773e 64cd 023e
00000010: 0094 f5bd 61fa 94bd 9dee 083e 9cf9 1ebe
00000020: ae8b 73be 9d00 0dbd 5649 f5bd 8504 8d3d
00000030: f717 57bd b426 8abb b38a 343e 1765 483d
00000040: fdf6 4fbe 4cfe 17bb 2e9a a53d da14 2dbe
00000050: 63ba 3fbd 511a 013e 3959 b73d eb6d 93bc
00000060: c2de 7e3e 7722 9c3d cb6b da3d 852a 61be
00000070: d693 1abe d6fe ec3d 7a5d 61be 157c 8ab9
00000080: caee f73d 525a 6cbe 78e2 01be 88a4 e33d
00000090: 6536 afbc f64a 5e3e b5a3 16be 4724 89be
000000a0: 15d4 90bd 79b6 7cbd 1715 4cbe 6e81 f6bc
000000b0: eb86 76bd 0612 1fbe 6018 17be dbbf 79be
000000c0: 7bf1 b13d 5a30 59be f764 0f3e 1721 d7bc
000000d0: 70e7 2fbc ea0f 043e 0197 b83c f40d bd3c
000000e0: 3ac6 ba3c e374 9cbd ad65 cfbd ea51 ea3d
000000f0: dec1 ec3d 8d80 3a3d 196c ffbd df45 16be
00000100: 7721 1cbe ba93 1dbe dc42 9fbd 967b 0cbd
00000110: 241d 433d 318e 63be 5243 a9bd da0a 1c3d
00000120: d02d b2be cf52 953c 9554 1ebe 12cf b5bd
00000130: 7b72 17bd 5c8d 0ebc 2f92 583d 6ec1 07be
00000140: d0fd abbd d408 74bc 5ba5 34be 3d72 b7ba
00000150: cbb8 19bc 9f6d 04bd df9b bebc 7ecf 33be
00000160: 0e78 9bbd e407 963d e3d4 98bd ff53 6c3e
00000170: 62a1 bcbe edad f13c 2448 4d3d 4cb5 cdbd
00000180: 24eb 84bd 057f 1abe 09c3 fbbd 73ff 463e
00000190: 8266 61bc 5b30 c9bc abeb bebd 796d 8cbc
000001a0: 5271 ba3d 3d4e e5bd 7d54 84bd 3f1e 58bd
000001b0: 2623 64bd c507 8e3e 5c20 79be 8ab1 46be
000001c0: 105e b1bd 92be 8d3c 17d4 b3bd 705e 773e
000001d0: cda4 c53d ecf7 023e 490b 1ebd ab8c 613e
000001e0: 4aa6 293e cac7 d2bc 8e87 a0bb e08a b53d
000001f0: 0cc7 483d 7860 83bd b247 1bbe 6f34 a43d
00000200: ce45 f0bc a2c2 46bd dfc5 553b 0dcb a4bc
00000210: 2e42 10be f027 02bd 2777 4c3d 7d69 283c
00000220: 613e 89bd bf71 1d3e f5c3 44be f0b7 a33d
00000230: 9239 3a3e dfeb 65bd 2e7a 71bc fce9 bbbd
00000240: 7f78 c73d 2b49 393d 292d 41be 1594 283e
00000250: 820a 4b3d 6d7e e8bc 6938 ae3b 6025 9e3d
00000260: 141e 13be 7c80 96bd da6b eabc d076 e83d
00000270: e2a1 3c3e d4e2 a0bc 7899 67bd 55c7 9abd
00000280: e8b0 5dbd db27 7e3d b3f7 0a3c a88b 203e
00000290: 1f04 0fbd c5f4 38be 9c36 1fbd 1687 babd
000002a0: 281a 5a3d 2401 a33d b0f3 723d b21f 32bd
000002b0: 8c1f d1bd 906f 2a3d 772f 16be 30cd 3b3a
000002c0: 69a4 92bd 7461 683d 2a09 9b3c c83a f53c
000002d0: 4fc6 56bd a9e2 963e e666 993e 2815 04be
000002e0: 6da1 44bd 7e10 b2bd fdc6 40bc 0d63 833c
000002f0: 59a5 6a3d 5378 3e3d ad32 ed3c fa6c 0a3e
00000300: 7d08 6b3d 7e6b bcbc 0155 623e 3f2d 6fbd
00000310: 2c39 923e 4ac5 083e cbe3 213e b6f6 81bc
00000320: e478 e6bd c8f2 0fbe 8ab1 0a3e a2a9 0a3c
00000330: 56d1 01be 149f 8c3d 95f4 a53a cf81 b93d
00000340: 97da 10be cc03 4fbd ed2b 5dbd c202 63bd
00000350: da64 bcbd 5522 fc3d 8909 a8bd 7679 9cbe
00000360: 3db1 abbd b56a 2bbe 602d 4d3d b85c 86bc
00000370: 2804 de3d 7155 c73d a8f2 b93d 0a36 e63d
00000380: c784 5fbd 6635 87bd 16fb 8f3d febb 74be
00000390: d14b b93d eddc 12be 0d89 663e b977 89bd
000003a0: 152b de3d 9ee8 a5bd e9b2 043d d608 c3bd
000003b0: e432 d1bd fa49 da3d 86e8 78bd ae34 64be
000003c0: b1e9 b03d 2b5d 163d c30e 1fbc c590 413e
000003d0: b447 793e 83a5 99be e584 143a 1561 d63d
000003e0: ebac a9be 4459 4f3e 9b7c 803d 8221 65bd
000003f0: 8f62 f1bd 0252 f73d 5878 243e 9ad2 023d
-0.020118607 -0.06834391 0.2419048 0.12773663 -0.119911194 -0.072743185 0.13372274 -0.15524906
-0.23783752 -0.034424413 -0.11976878 0.06885628 -0.05251309 -0.0042160396 0.17631035 0.04892453
-0.20309062 -0.0023192344 0.08086048 -0.16902485 -0.04680861 0.12607695 0.08952565 -0.017996749
0.24889663 0.07623761 0.10665091 -0.21988876 -0.15095457 0.115720436 -0.22008315 -0.0002641386
0.12106092 -0.2308133 -0.12684047 0.11115366 -0.021388242 0.21708283 -0.14710887 -0.2678549
-0.070717014 -0.061697457 -0.1992992 -0.030091014 -0.06018726 -0.15534219 -0.14755392 -0.24389593
0.08688637 -0.21209851 0.14003359 -0.026260896 -0.010736331 0.12896696 0.022532942 0.023077942
0.0227996 -0.07639482 -0.10126815 0.11441405 0.11560415 0.04553275 -0.1247179 -0.14675091
-0.15247141 -0.15388384 -0.07776424 -0.03429755 0.047635213 -0.2222221 -0.082647935 0.038096286
-0.34800577 0.018227963 -0.15461953 -0.08877386 -0.03697441 -0.008700695 0.052873787 -0.13257381
-0.0839802 -0.014894683 -0.17641203 -0.0013995838 -0.009382437 -0.032331105 -0.023267685 -0.1755962
-0.07591258 0.07325724 -0.0746248 0.23078917 -0.36841875 0.02950188 0.050117627 -0.10044345
-0.06490162 -0.15087517 -0.122930594 0.19433384 -0.01375735 -0.02455919 -0.09322294 -0.017142044
0.091036454 -0.111965634 -0.06461427 -0.05276322 -0.055697583 0.27740303 -0.2432875 -0.19403663
-0.08660519 0.017302785 -0.08780687 0.24157119 0.09650574 0.12789887 -0.03858498 0.22026317
0.1656734 -0.025730032 -0.004898972 0.08864379 0.04901795 -0.06414884 -0.15164068 0.080178134
-0.02933016 -0.04852546 0.003261916 -0.020116353 -0.14087746 -0.03177637 0.04991832 0.010279057
-0.06701351 0.15375422 -0.19215377 0.07994068 0.18186024 -0.056133147 -0.014738603 -0.09175488
0.0973978 0.045235794 -0.18864883 0.16462739 0.049570568 -0.028380597 0.005316783 0.077219725
-0.14366943 -0.07348725 -0.02861588 0.11350787 0.18421128 -0.01963941 -0.056542844 -0.07557551
-0.05412379 0.062049728 0.008481908 0.15678275 -0.03491604 -0.18062122 -0.03887044 -0.09107797
0.0532476 0.07959202 0.05931443 -0.04348726 -0.10211095 0.0416103 -0.14666544 0.0007164059
-0.07160265 0.056733564 0.018925268 0.029935256 -0.052435216 0.29469803 0.29961318 -0.12898695
-0.04800551 -0.08694552 -0.0117661925 0.016038442 0.057286594 0.04650147 0.028954828 0.13518134
0.057381142 -0.023000475 0.22102739 -0.05839276 0.28559244 0.1335651 0.15809552 -0.015864711
-0.11253527 -0.14057457 0.13544288 0.008463295 -0.12677512 0.06866279 0.0012661392 0.09057962
-0.14145885 -0.05054073 -0.05399697 -0.055422552 -0.091989234 0.12311236 -0.08204944 -0.30561417
-0.08383415 -0.16739924 0.0500921 -0.016401634 0.108406365 0.097330935 0.09079486 0.11240776
-0.054569986 -0.06601982 0.07030313 -0.23899838 0.09047664 -0.14342089 0.22513218 -0.067122884
0.10848061 -0.08101009 0.032397185 -0.0952317 -0.10214785 0.10658641 -0.060768627 -0.2228572
0.08638323 0.036709946 -0.009708109 0.18902881 0.24343759 -0.30009088 0.0005665555 0.10467736
-0.33139738 0.20248896 0.062737666 -0.05594016 -0.11786377 0.120761886 0.16061532 0.031939127

hid.3.bias f4 [50]
00000000: b4f4 90bd a1e3 9bba 3de5 cb3b 753b f0bb
00000010: 96ee c4bb 47c7 283c eeaa 9c3b b912 ad3c
00000020: 9b8f dcbb 4df3 2f3c 9132 a4bc 044e fabb
00000030: 2c6c 233c 6dfe f5bc a348 aa3c 71c6 4bbc
00000040: d62b 0cb9 055d 92bb 358a c53a 7453 f5bb
00000050: be01 81bb d585 c7bb 7ef4 04bd 6b7b 843c
00000060: 4370 863c 32d0 553c 6de3 e13c 1554 923c
00000070: 0d8a 0b3c 93ca cfbb d456 15bc c876 c3bb
00000080: 3726 d53a 328a 0cbd 4ede 813b 3679 bf3c
00000090: d6ee 2cbc b1b9 273d db05 89bb a553 213c
000000a0: 2db4 163d 1a37 8c3c d6af a13b 5ca3 c5bc
000000b0: abee e03c ec86 083d 0e18 9fbb f21e e63c
000000c0: b3a6 413c 1f12 85bc
-0.070779234 -0.00118934 0.0062223957 -0.0073313066 -0.006009887 0.010301418 0.0047811186 0.021127092
-0.0067309863 0.01073916 -0.020043643 -0.0076386947 0.009974521 -0.030028546 0.020786589 -0.012437449
-0.0001336777 -0.004466655 0.0015071096 -0.007486755 -0.0039369753 -0.006088952 -0.03245973 0.016172132
0.016410952 0.013050126 0.027574265 0.017862359 0.008516801 -0.0063412874 -0.00911494 -0.0059650876
0.0016261999 -0.03431148 0.0039632684 0.023373228 -0.01055499 0.040948573 -0.004181606 0.009846603
0.036792923 0.017116118 0.0049342914 -0.024125747 0.027457556 0.033331797 -0.0048551625 0.028090928
0.011819529 -0.016243992

hid.4.weight f4 [50, 50]
00000000: e6a5 2f3e a7d5 a1bd 2267 793d f96b 543e
00000010: a317 1ebd 4a7a 7f3e d515 e0bb fd85 9ebd
00000020: 1dda 093e 3fd8 563d 7e58 40bd 6175 74bd
00000030: 298a 033e 3c11 e63d ef6e 8dbe 42b5 afbd
00000040: 8f70 143e 36c2 2f3e 18df 13be d528 cdba
00000050: 0b63 4ebd 5618 c33d ce4c f4bd 20c4 363c
00000060: 5fa9 9abd a035 85bd 8775 08bd ce71 c0bd
00000070: 698f 923e 43dc 0c3e d52c a83b 76cc f7bd
00000080: 5604 52be 57fa 97bd dce9 9c3d b4f2 fe3d
00000090: 0a2a 05bc e28d 9fbe 39ba dc3d df9c cb3b
000000a0: fd45 d63c a6af 8fbe fbc7 37bd 012d df3d
000000b0: 2ade ddbd f544 21be cf65 21be 478f d4bd
000000c0: 3f06 303e 3844 15bd b927 85be 18bc 133c
000000d0: e1e2 0cbd e9c3 18bd b18a ec3c 13e7 48bd
000000e0: d826 97bd 5faa 613e 6179 a63a 5f06 a63d
000000f0: 57f2 b73c aa55 d23d 6734 b9bc db6f 5a3d
00000100: 85f6 14be 7b32 1ebe 9a05 6abd c9f6 273e
00000110: ae79 40bd 4bb6 833d 4bba 533c af9e 83bd
00000120: 20f8 7dbe 425f bdbd 3777 87bd 2fe9 3b3e
00000130: 65a0 0e3c e980 4b3e 903b 92bd 0567 783b
00000140: e265 313e 584e 43bd 28da ff3c 5243 1cbe
00000150: 65ab 29bd 3945 20bc bf66 a13d a85a e53d
00000160: de59 4f3e 3236 1f3e 5daa 12bd f96e d4bc
00000170: 5edc 733e b75e 1c3d bded 813e cd86 8d3e
00000180: b686 9cbd df8a 0abe a0bb 8d3d 1c79 5ebd
00000190: 3e1f 633e 99bf 86bd bd4d 50be 7df5 10bb
000001a0: 3647 c6bd aa87 c3bd 5847 3f3d b31c d33d
000001b0: 724b 0e3e 7e83 9abc b6db a8bd f4bc e0bc
000001c0: 6db4 873d 6185 a4bd 0edb 2a3c febb ab3d
000001d0: 8441 37be 6386 523e 0efc ca39 8cd2 08bd
000001e0: f38a 503e 4c9b 6c3e e800 253d f89f 0f3e
000001f0: 29f4 633e a64e a6bd 8a7a d6be 159d 35be
00000200: 96ab 65bc c170 293d 520e 583e 4e7f f1bc
00000210: 0619 593c f665 fc3d ef8f eebc d183 ce3d
00000220: 8203 413e 700c 15bc 9524 bbbd 6c1f cf3d
00000230: ea89 9fbc 46b8 89bd 013f 00be 8ac2 403e
00000240: 4f80 40be 89c3 ebbb d702 5b3d 6257 9cbb
00000250: 51de 0bbd 16aa 083d 8857 dcbc 21fe a3be
00000260: c87a 0d3e 52bc 83bc 9120 183d 9b92 f93c
00000270: dd8e e7bd e051 21be 8ba5 b93d e1af b83d
00000280: 78de 8bbd e89c 66bd d9a8 0cbe 4c74 2cbd
00000290: 693e 813e fa86 fdbd d337 69bd 8aab ee3d
000002a0: 51c9 65be 852b 073e f9aa 9f3d 8943 a0bd
000002b0: cacb 8dbd 98b6 723e e574 8d3d ede8 603d
000002c0: a5c3 1c3e 9e34 01be 3f3b 8c3d b176 3ebe
000002d0: 1c4c 1c3d 3176 463e eb75 9f3d 2913 92bc
000002e0: fd7f d13d 738c c5bc a506 a6bd 3b5d 523d
000002f0: 20bb 16be 9470 293e 5cf1 9a3d 9d6d 853b
00000300: 2bec 88be 45be 42be 730f 2dbd 9aab fb3d
00000310: ed29 c83d 5678 103e 744b 22bd bec5 17be
00000320: 51ac 87bc 8822 913c da2d 803d fbd9 b13d
00000330: a93b 113d ecb1 18be ac9c 123e 0848 8b3c
00000340: 81bb f6bb 5831 953c 46b9 2d3e e57d e5bd
00000350: 3ccc d1bd 774c c6bd a615 d63c fa71 d9bd
00000360: fc78 e43d 582c 94be d676 483e 06fb 8c3c
00000370: 0a49 5c3d ba95 943c 022c e4bd 3ad3 2cbd
00000380: 87e0 103e aa67 5f3d d3fb d63d 1d2e 8fbc
00000390: a185 8f3d c9cf cf3b c27f 063c f747 c03d
000003a0: 4a4e 853e d153 9dbd f864 9c3d 3d67 a43c
000003b0: f1d8 22be f7a5 87bc 6312 873d dc54 563e
000003c0: 45db e7bd 3dce afbd a528 803e 9cce 823d
000003d0: b37d 5bbe 45ce 34be 00e1 8d3e 24b2 333d
000003e0: 2b61 103d 05af ea3d d0b3 d43c 8109 133e
000003f0: a1fd c6bd 82e3 463d 36d4 ebbd 0437 96bc
0.17153129 -0.07902079 0.06088937 0.20744313 -0.03859676 0.24948993 -0.00683854 -0.077404
0.1346211 0.052452322 -0.046959393 -0.059682254 0.12845673 0.11233756 -0.27623698 -0.08579494
0.14496063 0.1716393 -0.14440572 -0.0015652428 -0.050387423 0.09526126 -0.11928712 0.011155158
-0.07551836 -0.06504369 -0.033315208 -0.093967065 0.28625038 0.13755898 0.0051322975 -0.12099545
-0.20509467 -0.074207954 0.07661793 0.12448636 -0.008127699 -0.31162935 0.10777707 0.006213769
0.02615642 -0.28063697 -0.04486845 0.10897256 -0.1083339 -0.15748961 -0.15761493 -0.103788905
0.17189883 -0.03644201 -0.26006868 0.009017013 -0.034396056 -0.03729621 0.028874727 -0.049048495
-0.07380456 0.22037648 0.0012700969 0.08106684 0.022454424 0.102702454 -0.022607995 0.05332933
-0.14547165 -0.15448944 -0.05713425 0.16402735 -0.046991043 0.06431254 0.012922834 -0.06426751
-0.24801683 -0.092466846 -0.06614535 0.18350671 0.008705233 0.19873394 -0.07140267 0.0037903201
0.17324021 -0.047682136 0.031231955 -0.15260056 -0.04142322 -0.009782129 0.078809254 0.11198932
0.20249125 0.15548018 -0.035807002 -0.025931822 0.23814532 0.038176265 0.25376692 0.27641907
-0.076428816 -0.13529538 0.06920552 -0.054314718 0.22179887 -0.06579513 -0.20342155 -0.0022118979
-0.09681551 -0.0954736 0.046698898 0.10308208 0.13895968 -0.018861528 -0.082450315 -0.02743385
0.0662621 -0.080332525 0.010428203 0.08385466 -0.17896086 0.20559077 0.00038716238 -0.03340392
0.20365505 0.23106116 0.040284067 0.14025867 0.22261108 -0.0812047 -0.41890365 -0.17735703
-0.01401796 0.041367296 0.21099213 -0.029479649 0.013250595 0.12324135 -0.029121367 0.10083736
0.18848994 -0.009097204 -0.09137837 0.10113415 -0.019474942 -0.067246005 -0.12524034 0.18824211
-0.18798946 -0.0071949405 0.053469505 -0.004771159 -0.034147564 0.03336533 -0.026897207 -0.32029822
0.13816369 -0.016081009 0.037140433 0.030465415 -0.11306546 -0.15753889 0.09064778 0.09017921
-0.06829542 -0.05630198 -0.13736285 -0.042103097 0.25242928 -0.1237926 -0.056938004 0.11653812
-0.22440077 0.13200195 0.07796282 -0.07825381 -0.06923635 0.23702466 0.069070615 0.054909635
0.15309007 -0.12617728 0.06847238 -0.18599965 0.03815852 0.19381024 0.07786163 -0.017831402
0.1022949 -0.024114823 -0.08106736 0.051358443 -0.1471982 0.16546851 0.07565567 0.004071905
-0.26742682 -0.19017895 -0.04225106 0.1228859 0.09773622 0.14108405 -0.03962274 -0.14821526
-0.016561659 0.017716661 0.062587455 0.086841546 0.035457287 -0.14911622 0.14317578 0.01700212
-0.0075296764 0.018212005 0.16965207 -0.11205653 -0.10244033 -0.09682553 0.02613337 -0.106174424
0.111558884 -0.28940082 0.19576582 0.017209541 0.053780593 0.018137801 -0.11141206 -0.04219363
0.1414815 0.05454222 0.104972504 -0.017478043 0.070079096 0.0063419086 0.008209171 0.09388726
0.26036292 -0.07682002 0.07636446 0.02006876 -0.15903069 -0.01655863 0.06595304 0.20930809
-0.11321119 -0.08584259 0.2503101 0.06387064 -0.21434669 -0.1765681 0.27710724 0.04387106
0.035248917 0.114591636 0.025964648 0.14359094 -0.097163446 0.048556812 -0.115150854 -0.01833678

hid.4.bias f4 [50]
00000000: ebb9 36bd 8bec f53c 7992 5cbd f504 353d
00000010: c9ac d03b 4d2a 12bd a515 dbbc 2af5 b8bc
00000020: b52c 89bc 7958 883c ebf6 153a 94bc d0bb
00000030: 45ab 6fbc 356d eebb 46ed 50bd 46d8 0eba
00000040: 298f f23b 59c9 043d 0017 2cbc 61bd c2bc
00000050: 6758 693c fec6 caba 1a20 503b 6d00 603c
00000060: cc58 7e3c bbd1 623c 1d47 ee3c a5c5 9fbc
00000070: da97 ea3c 73b7 34bc 2173 583d 99ee 5ebd
00000080: b16d e53c 4449 333c edd8 9dbc 7683 acbb
00000090: 8e44 abbc 6294 6ebc 9862 a8bc 7d7b 59bc
000000a0: 1967 1cbd 8a3d 993b 4f1d 073d 33ec 0c3b
000000b0: aa10 a83c ca12 af3a f575 7b3c 1733 5b3d
000000c0: 8f61 62bc c315 dabc
-0.0446109 0.030020019 -0.053850625 0.04419418 0.006368254 -0.035684872 -0.02674372 -0.02257784
-0.01674495 0.01664375 0.00057206926 -0.0063701365 -0.014628236 -0.007276202 -0.05100753 -0.00054490974
0.00740232 0.032418583 -0.0105035305 -0.023771944 0.014242268 -0.0015470681 0.0031757415 0.0136719765
0.0155241005 0.013843949 0.029086644 -0.019503424 0.028636862 -0.011030066 0.05284417 -0.054426763
0.028006407 0.010942761 -0.019268477 -0.005264695 -0.020906713 -0.014561744 -0.020554826 -0.013274071
-0.03818426 0.0046765255 0.032986935 0.002150309 0.020515759 0.001335704 0.015347947 0.05351552
-0.013817205 -0.026621705

hid.5.weight f4 [50, 50]
00000000: d8af 16bc aaba 1a3d 8647 8c3d f8ed 143e
00000010: 170d 483d 8b1f bbbd 0640 6dbd 3763 3ebc
00000020: 3df9 173e 13ed 553e 695b 8dbe 5325 e5bd
00000030: f365 653e 2780 e53d 1bf5 263e 0444 8dbe
00000040: 1ef0 98bd 677a 513d 2ef4 0dbe 6b0e 57be
00000050: 75e4 93bc 1858 a03d a479 58be 741f ae3d
00000060: 81dc 9dbd ce03 103e c85a 113e baba babd
00000070: 44c9 8e3c 2a6b 29be 27e8 fa3d 5e0c 22bd
00000080: 1be1 103d 5571 3b3e 0cf4 51be 9281 28be
00000090: f322 493d ae21 fd3d 77e0 cf3d f1b8 b23d
000000a0: 659f dcbd 3ec6 b1bd bdbc 3a3e bf52 f93d
000000b0: bb3a 063d 86a8 bbbd 72c3 2cbe 81a1 683e
000000c0: 5e8b a2bd 7608 c63d cd2d bf3d cfdf 3ebd
000000d0: 7dd7 c43c 1e44 86be 6032 f1bd 1ad7 efbc
000000e0: d1a5 cc3d 2b5c fdbc 16b2 d33d dd0d a4bd
000000f0: b894 0dbe 3f60 e03c ea39 073e df54 e83c
00000100: 17a0 9bbe 57ec 903c 0d8c d7bb 0465 df3c
00000110: 878a 333e e136 09bc 48b1 5e3d b6ce 1cbe
00000120: 2a40 aa3d cfac 25bb 2eee 033d 9392 263d
00000130: f39e 783c 2e58 1e3d 60a8 1f3d 72c9 21be
00000140: 33d1 1abe 12f8 d0bc a32c e8bd 1837 d13d
00000150: e8cd 16bd 6d04 e1bb d2b5 dd3d cc22 3b3e
00000160: 8e45 21be 8087 883d 3ec0 38be fe56 b8bd
00000170: 01a5 3ebd e223 4abd 69a5 8a3d 1617 263e
00000180: 04cf efbd 0963 87be 0f74 a9be 1c8d adbc
00000190: fa7b ebbd 901a 553c b1af 633b 59fc 68be
000001a0: 2a04 b4bb 3af8 b9bc 13a2 9cbe a3ad cfbd
000001b0: 7bef 56be 97b1 87be 9bb9 65bd 2840 22bd
000001c0: a7b0 8abd 4ccc abbd b36a b1bd 786f c53c
000001d0: 82c6 7ebd e7df 1b3e 5d3c 9f3b 9c55 04be
000001e0: f48a 333c 43e5 543d e5fa a73c 3599 27be
000001f0: bd3b 2b3e 7329 3bbd 80a4 f9bc 23e6 213d
00000200: e7a7 543e 498c b83d 852b eebd 57a9 a83d
00000210: d42e 543e c637 0d3d 5e13 c0be fda0 2abe
00000220: 03b3 2fbe e3b8 35bb f3e8 813d 9feb 2abd
00000230: 650e 0fbe b354 2bbd cbb8 98bd d9c2 a9bd
00000240: c109 1fbc b881 c5bc 6275 8b3d 5c1f cebd
00000250: 977f c1bd 4999 903e 00d2 883d 3467 77be
00000260: 3862 34bd 0945 a93d f6b9 283e 7de0 283e
00000270: ef91 493d 7603 663e 5bed c9bd af81 863c
00000280: e36b e03c cd4a dc3d 6ba1 0fbe 379e 3dbd
00000290: 155b 0ebe fe99 bebd eb08 b4bd 7b06 14be
000002a0: b9ff 9d3d e912 2e3e f0c8 8f3d 0c8c 133e
000002b0: c502 d7bd 8946 c03c 587d ec3d 1c24 81bd
000002c0: 54f7 d83d 13a3 3c3d 3638 793d 06f9 563e
000002d0: 1754 7bbe 2185 99be 7407 9abe 3db5 17be
000002e0: 9f92 1b3e ce7b 8cbd 7551 31be 861d babd
000002f0: 0274 803e a431 143e 107d 373e 58d5 d13d
00000300: 7489 84bd a488 6dbd e01e af3b 5bc9 14be
00000310: ae8c 4cbe 3f07 c13e c1fe a43e c140 2e3e
00000320: e42a 0ebe 70f5 133e a548 4e3d 1c85 903e
00000330: 3aba e5bd dce8 9abe 4120 b73d 87e8 973d
00000340: 4fde 2b3d 1cd0 96bd 8d28 2bbe 9ec8 a2bc
00000350: d7e5 463e 63a2 233d ebaf 6bbd 953e a9bd
00000360: 5c33 9b3d 6ffb 453e 65fb f2bd 947e a1bd
00000370: a240 a9bb 650e bcbd c48e 443c 9934 98bd
00000380: 946d 22be bf1a dc3d 3413 37bd a3be fe3d
00000390: 1c18 38bd e10e 42be fbfe f53d 0fbd 57bd
000003a0: 1dbf 76bd fb02 b93d 382c 23be 2023 e8bd
000003b0: da27 a43d 1d1b a7be 3a40 583b 1436 3dbd
000003c0: a7de b1bd 5caf 7a3d eaae d13d 4f94 5e3e
000003d0: 05ba 2bbe 4212 003e b2b8 45bc 1f92 6e3c
000003e0: 3613 d43d 7d0a 413c 012b 993d 4bd0 7c3e
000003f0: 4ce5 dd3d 77cd 883c 4b82 fabd b25a 0a3d
-0.009197198 0.037775673 0.068495795 0.14543903 0.04884061 -0.09136876 -0.057922386 -0.011620334
0.1484117 0.20891218 -0.27608803 -0.1118876 0.22402172 0.11206084 0.16304438 -0.27590954
-0.07467674 0.051142123 -0.13862678 -0.21001594 -0.018053273 0.078293025 -0.21140152 0.08502093
-0.077080734 0.14063951 0.14194787 -0.091176465 0.017429955 -0.16544786 0.12251311 -0.039562576
0.035370927 0.18304951 -0.20503253 -0.16455677 0.049105596 0.123599395 0.10150235 0.08726681
-0.107725896 -0.0868039 0.1823606 0.12173986 0.032770853 -0.09163003 -0.16871431 0.22717859
-0.079367384 0.096695825 0.09334908 -0.04660016 0.024028534 -0.26223844 -0.117771864 -0.029277373
0.099925645 -0.030927738 0.103367016 -0.08010457 -0.13826263 0.027389644 0.13205686 0.028360782
-0.30395576 0.01769082 -0.0065779747 0.027269848 0.17533313 -0.008374901 0.054368287 -0.15313229
0.083130196 -0.0025280004 0.032209568 0.040667128 0.015174615 0.038658313 0.038978934 -0.15799502
-0.15118866 -0.025508914 -0.11336639 0.102155864 -0.03681746 -0.0068669827 0.10825695 0.18274993
-0.1574919 0.066664696 -0.18042085 -0.090009674 -0.04654408 -0.049350627 0.06769831 0.16219744
-0.11709407 -0.26442745 -0.33096358 -0.02118545 -0.11498256 0.013006821 0.0034742171 -0.22752513
-0.0054936605 -0.022701371 -0.30592403 -0.101405405 -0.20989792 -0.26502678 -0.05608521 -0.039611965
-0.06771975 -0.08388576 -0.086629294 0.024101004 -0.06220103 0.1522213 0.004859491 -0.12923282
0.010958422 0.051976454 0.020505378 -0.16367038 0.16722007 -0.045693826 -0.030473948 0.039526116
0.20767175 0.09011132 -0.116293944 0.08235424 0.20720989 0.034477018 -0.37514776 -0.16662975
-0.17158131 -0.002772861 0.0634326 -0.041728612 -0.13970335 -0.041828822 -0.074571215 -0.08289117
-0.009706915 -0.024109706 0.06809498 -0.10064575 -0.09448164 0.28241947 0.06680679 -0.24160463
-0.04403898 0.082651205 0.16477188 0.16491885 0.04921144 0.22462258 -0.09859725 0.01641926
0.027395194 0.107564546 -0.1402642 -0.046293464 -0.13901933 -0.093067154 -0.087907635 -0.14455597
0.07714791 0.16999401 0.07020748 0.14408892 -0.10498575 0.023471134 0.11547345 -0.063057154
0.10594049 0.046053957 0.060844623 0.20993432 -0.24543796 -0.29984382 -0.3008381 -0.1481523
0.1519265 -0.06859551 -0.1731623 -0.090876624 0.25088507 0.14472061 0.17918801 0.1024577
-0.064715296 -0.05799164 0.0053442568 -0.14529936 -0.1997554 0.3770084 0.32225612 0.17016889
-0.13883549 0.14449096 0.050362248 0.28226554 -0.112171605 -0.30255783 0.08941699 0.07417398
0.041960057 -0.073639125 -0.16714688 -0.019871052 0.19423614 0.039949786 -0.057540815 -0.0826389
0.075781554 0.19334196 -0.11864356 -0.07885471 -0.0051651755 -0.09182433 0.011996929 -0.07431907
-0.15862113 0.10747289 -0.044696048 0.12438705 -0.044944867 -0.18950988 0.12011524 -0.052670535
-0.060240854 0.090337716 -0.15934837 -0.113348246 0.080154136 -0.32637873 0.0032997266 -0.04619415
-0.08685046 0.061202392 0.1023844 0.21736263 -0.1677018 0.12506965 -0.012067961 0.014561205
0.10355227 0.011782286 0.074789055 0.24688832 0.108347505 0.016699536 -0.12231883 0.0337779

hid.5.bias f4 [50]
00000000: 40c9 38bc 2df4 dfbc 06a3 ae3c 4b53 f2bc
00000010: 716c 4d3d 9949 14bd 16c0 f3bc 4c51 d8bc
00000020: c8ef edbc 4aab 06bc bb57 2abc e42d 62bd
00000030: 3087 a1bc 6c2f 113c 69a4 c83b e35a 97bd
00000040: b0a8 a03c 6d89 fbbb c4aa 7a3d 12dd 2ebd
00000050: 1b82 e43c bca2 033a e7c4 ffbb fb3a 273d
00000060: 5826 003d 46cb f3bc c5d8 75bd 8d8e e1bb
00000070: 023f e53b d2d2 4b3c 3c43 eabc 187b 27b9
00000080: 9044 e33c a0a0 1a3d 434e d2bc 64ff cabc
00000090: 6cfe 32bd 19ea f83c 7097 d3bb 544f 4ebc
000000a0: 362d 323d e122 c8bc ff12 abbc 10bb 52bc
000000b0: 46fa 9b3c 936d 9c3b 707d 0fbb d878 6abd
000000c0: 3799 1abc f7ed 603d
-0.0112784505 -0.027338112 0.02131797 -0.029580733 0.050152246 -0.036203 -0.02975468 -0.026405953
-0.029045 -0.008219549 -0.010396893 -0.055219546 -0.019717783 0.008861404 0.006123115 -0.07390382
0.019611686 -0.0076762945 0.06119801 -0.042691298 0.02789407 0.0005021503 -0.007805455 0.040827733
0.031286567 -0.029760014 -0.06002118 -0.0068834485 0.0069960365 0.0124404 -0.028596513 -0.00015972217
0.027742654 0.03775084 -0.025672084 -0.024779983 -0.043699667 0.030385064 -0.0064572617 -0.0125921555
0.043500148 -0.024430694 -0.020883081 -0.012861982 0.019040238 0.0047738045 -0.0021894835 -0.05724415
-0.009435943 0.05491444

out.weight f4 [1, 50]
00000000: 61ec 3b3c 0f01 093e 563c fdbd 24d3 0f3e
00000010: d312 77be ca18 293e f595 0c3e 88b6 593e
00000020: a6be 2a3e 5f92 283c 4a4b 823d 3fec 8c3e
00000030: 076a 153e af36 76bd b95e d73b 8788 a93e
00000040: 9cb8 cbbd 3e21 683d a862 88be 857d 613e
00000050: 99e7 8bbe 2c40 e6bc 6de8 1b3d 8c24 41be
00000060: 254a 0ebe ed0d 0c3e b4dd 9e3e f4c9 f63c
00000070: 752f 00bc 7ee4 4ebd 4b86 1c3e 1f01 683c
00000080: 21cf 29be f14a 41be dea1 1f3e 917d 043e
00000090: 0b51 2e3e 1bc2 e6bd 4bcf f23c c6b9 283d
000000a0: 9baa 6ebe 7ff2 d53d dfd0 1c3e 5ed3 473d
000000b0: 7a3f fdbd 86d4 8ebc c56f f039 8136 883e
000000c0: 1eb4 9b3d 23e0 83be
0.011469931 0.1337931 -0.12365024 0.14045388 -0.24128275 0.16513363 0.13729079 0.21261036
0.16674289 0.010288804 0.063620165 0.2752399 0.14591227 -0.060110744 0.006572571 0.33111975
-0.09947321 0.056672327 -0.2663777 0.22020538 -0.27325132 -0.028106771 0.038063455 -0.18861598
-0.13895471 0.13677187 0.3102852 0.030125596 -0.007823815 -0.050510876 0.15285604 0.014160424
-0.1658292 -0.18876244 0.15589091 0.12938525 0.17023103 -0.112674914 0.02963986 0.041192792
-0.23307268 0.10446643 0.15314053 0.04878556 -0.12365623 -0.017435323 0.00045859642 0.26604083
0.07602714 -0.2575694
