rk_ckpts_v4/model_N200_L2_g1p1_lr0p1_seed0.pt (torch, 167337 bytes, 5 tensors)

hid.0.weight f4 [200, 2]
0	0x3e02d575	0.1277674
1	0xbd35396d	-0.04424422
2	0x3f1ccaf0	0.6124716
3	0x3d46fce5	0.048581023
4	0x3f4d68ca	0.8023802
5	0xbfaf69d7	-1.3704175
6	0xbe4e7d9f	-0.20165108
7	0xbe6dfbbc	-0.2324056
8	0xbddb08f4	-0.10695067
9	0x3e4a1970	0.19736266
10	0xbf468682	-0.7754899
11	0x3e6c7608	0.230919
12	0x3ea92770	0.330379
13	0x3f5eedfa	0.87081873
14	0xbe139d0e	-0.1441538
15	0x3d085bdb	0.033290725
16	0x3e0d67f0	0.1380918
17	0xbf95674a	-1.1672146
18	0x401ba001	2.4316409
19	0x3eca0af0	0.3946147
20	0xbe0a1693	-0.13485174
21	0xbf4c9efb	-0.79930085
22	0xbf8087bd	-1.0041424
23	0xbe3b65ae	-0.18300506
24	0x3f46b091	0.7761317
25	0xbf3c0fdd	-0.73461705
26	0x3d9b0573	0.07569399
27	0x3e9d2450	0.30691767
28	0x3c3d6343	0.01155931
29	0x3f1046f6	0.5635828
30	0x3fc3836f	1.5274485
31	0xbf52571f	-0.82164186
32	0x3f013763	0.5047514
33	0xbdd14cfc	-0.10219762
34	0x3f2413c4	0.6409266
35	0x3f58b2b8	0.84647703
36	0x3f71ed1f	0.94502443
37	0xc0225bb4	-2.536847
38	0x3f141d2b	0.57857007
39	0xbf5326ec	-0.82481265
40	0xbee6a62f	-0.45048663
41	0x3daf4786	0.08558564
42	0x3f8754c8	1.0572748
43	0x3e3aae5e	0.18230578
44	0xbf3a3a92	-0.7274562
45	0x3f7e9620	0.9944782
46	0x3d91cf13	0.071195744
47	0x3e7041e4	0.23462635
48	0xbfe29c76	-1.7703998
49	0x3e113e3b	0.14183895
50	0x3fe886e6	1.8166168
51	0x3eab8355	0.33498636
52	0x3f61d2fb	0.88212556
53	0xbfb147b5	-1.3850008
54	0xbe3ec56c	-0.18629998
55	0xbf9089b8	-1.1292028
56	0xbd95d1b0	-0.07315385
57	0xbe82d961	-0.25556472
58	0xbee7f206	-0.45301837
59	0xbfc11eac	-1.5087485
60	0xbf3bf4ee	-0.7342061
61	0x3f50f202	0.81619275
62	0xbf06a9a5	-0.52602607
63	0xbe5dc530	-0.21657252
64	0x3edfd20b	0.43714938
65	0xbef548fd	-0.47907248
66	0xbf84ac52	-1.0365088
67	0x3f00e42f	0.5034818
68	0xbe9da3d1	-0.30789044
69	0xbfc1bbf1	-1.513548
70	0xbf525098	-0.82154226
71	0xbfb49bc0	-1.4110031
72	0x3f0ed51e	0.5579394
73	0x3f8e28df	1.1106223
74	0xbe754731	-0.23952939
75	0x3ef502e7	0.47853777
76	0xbed853a1	-0.42251304
77	0xbfe5a636	-1.7941349
78	0xbd82325a	-0.0635726
79	0xbec8de82	-0.3923226
80	0xbe6f4cec	-0.23369187
81	0x3e4a6bde	0.1976771
82	0x3f586c82	0.8454057
83	0x3fb0634c	1.3780303
84	0xbe7c72dd	-0.24653192
85	0x3dc8659c	0.097850055
86	0x3f7db221	0.9909993
87	0xbf9719d1	-1.1804754
88	0xbeeb247a	-0.45926267
89	0xbf1b692f	-0.6070737
90	0xbf3f8070	-0.74805355
91	0x3f73113c	0.9494817
92	0x3fb2cee1	1.3969384
93	0xbf185aee	-0.5951375
94	0x3f1e68b0	0.6187849
95	0x3e59628f	0.21229003
96	0xbf8313a0	-1.0240364
97	0xbe72cddf	-0.23711346
98	0x3f4cd245	0.80008346
99	0xbeec2dab	-0.46128592
100	0xbf80ec8d	-1.007219
101	0x3ebaae27	0.36460993
102	0x3f34d153	0.70631903
103	0xbe47e70d	-0.19521733
104	0x3ef801e6	0.48438948
105	0x3f610bd0	0.8790865
106	0xbebe1578	-0.37125754
107	0x3f57d063	0.8430235
108	0xbea0ce5f	-0.3140745
109	0x3d987797	0.07444685
110	0x3f7f7af6	0.99797
111	0x3e6d2d84	0.23161894
112	0xbf6bf4c8	-0.9217038
113	0x3faeff69	1.3671695
114	0xbfd71163	-1.6802181
115	0xbe70d236	-0.23517689
116	0xbf895f09	-1.0732127
117	0xbea30a61	-0.31843856
118	0xbec982a9	-0.39357498
119	0xbda1892e	-0.07887493
120	0xbe8f3765	-0.2797195
121	0x3e4b3f4d	0.19848366
122	0xbe92de59	-0.28685263
123	0x3e80afca	0.25134116
124	0x3f603872	0.8758613
125	0xbb1e2c1a	-0.0024135173
126	0x3f1d7ffa	0.615234
127	0xbf3d5d35	-0.7397035
128	0x3fee3c61	1.8612176
129	0x3e66def9	0.22545995
130	0xbdfc0d93	-0.123072766
131	0xbea9e199	-0.3317993
132	0xbf64084f	-0.8907518
133	0xbe3d7375	-0.18501075
134	0xbccb3b32	-0.0248085
135	0xbf07aaa9	-0.5299478
136	0xbeccba92	-0.39986092
137	0xbe89f26b	-0.26942763
138	0xbfa8f59f	-1.3199958
139	0x3f801ce2	1.0008814
140	0xbf809765	-1.0046202
141	0x3f2ae915	0.66761905
142	0x3f31443d	0.6924475
143	0x3f0bad89	0.5456167
144	0x3e858b04	0.26082623
145	0x3f2c3f4a	0.6728407
146	0xbeca609a	-0.39526826
147	0x3fa8780d	1.3161637
148	0xbe237621	-0.15963031
149	0x3ef0d610	0.47038317
150	0xbe8f154f	-0.27945945
151	0xbfc2726a	-1.5191166
152	0x401598da	2.3374543
153	0xbfbd7637	-1.4801701
154	0xbe313a6e	-0.17307445
155	0xbf093d6b	-0.5360934
156	0x3ed59d33	0.41721496
157	0xbf8cc260	-1.0996819
158	0xbefa0e97	-0.48839256
159	0xbf2ffd83	-0.68746203
160	0x3fb28518	1.3946867
161	0xbf0cc29e	-0.5498446
162	0x3eb5e2eb	0.35524687
163	0xbe5b5f32	-0.21423033
164	0x3e9633c4	0.2933637
165	0x3ef58d96	0.47959584
166	0x3f5602f2	0.83598244
167	0xbf63c095	-0.8896573
168	0x3fa03834	1.2517152
169	0x3f3300b6	0.6992296
170	0x3e1ec85c	0.15506119
171	0x3fbfe082	1.4990389
172	0xbf78b308	-0.9714818
173	0x3f857208	1.0425425
174	0xbec24fe3	-0.37951574
175	0xbfe0273d	-1.7511975
176	0x3e1c3e3e	0.15258119
177	0x3f9de248	1.233468
178	0x3ecccd90	0.40000582
179	0x3e6881e4	0.227058
180	0x3ef121e9	0.47096184
181	0x3fa16063	1.260754
182	0x3ebb86e1	0.36626342
183	0x3f055865	0.52088004
184	0xbea23f81	-0.31689075
185	0xbda3ed85	-0.08004288
186	0xbf05fa5b	-0.5233514
187	0x3fff25cc	1.993341
188	0xbeed399f	-0.46333024
189	0xbfea0057	-1.8281354
190	0x3e81839c	0.25295722
191	0xbfc81ee4	-1.5634427
192	0xbe8a108c	-0.2696575
193	0xbe8bbd40	-0.27292824
194	0xbf8c9dc2	-1.0985644
195	0xbf7f9a71	-0.99845034
196	0xbf88a05a	-1.0673935
197	0xbf065e5f	-0.5248775
198	0xbe393a6a	-0.1808869
199	0x3f95838b	1.1680769
200	0xbe7e012b	-0.24805133
201	0xbf68c7b2	-0.9092971
202	0xbec8139e	-0.39077467
203	0xbf489d26	-0.7836479
204	0x3f7180f9	0.9433742
205	0x3fd7d394	1.6861444
206	0x3ea43130	0.32068777
207	0xc00b9c5f	-2.1814191
208	0x3e2540ab	0.1613795
209	0x3e82ec6e	0.25571007
210	0x3f06967e	0.5257338
211	0x3ef0c53e	0.47025484
212	0x3e68c12d	0.2272994
213	0xbe363a81	-0.17795755
214	0xbe294743	-0.1653109
215	0x3f64f322	0.8943349
216	0xbe07bf3a	-0.13256541
217	0xbf05a6f4	-0.52207875
218	0xbd757201	-0.059923176
219	0xbda6c4e5	-0.081430234
220	0x3f09f23a	0.53885233
221	0x3f4585c3	0.7715723
222	0x3ea096ea	0.31365138
223	0x3fd03c9e	1.6268499
224	0x3da61d5f	0.08111071
225	0x3e51e1cb	0.2049629
226	0x3f82bc75	1.0213763
227	0x3ecb346d	0.39688435
228	0x3fc77c21	1.5584756
229	0xbf3f0fbe	-0.74633396
230	0x3f3bd3ff	0.73370355
231	0x3f5fbf34	0.8740113
232	0x3f096235	0.5366548
233	0xbf7c676e	-0.9859532
234	0xbe088049	-0.13330187
235	0x3f124dbd	0.5714987
236	0xbe81f85b	-0.25384793
237	0x3f1883bb	0.59576005
238	0xbed12744	-0.4085027
239	0xbf069076	-0.5256418
240	0xbed9d2e1	-0.425437
241	0xbf9ff14d	-1.2495514
242	0x3e83d58f	0.2574887
243	0x3fec8da0	1.848072
244	0xbf848912	-1.035433
245	0x3f07b3b8	0.53008604
246	0xbef89140	-0.48548317
247	0x3fa0d055	1.2563578
248	0x3e031272	0.12800005
249	0xbf666252	-0.89993775
250	0x3f1d3883	0.61414355
251	0x3ec5daaa	0.3864339
252	0x3f3e1ae9	0.7425981
253	0xbf9dc5ac	-1.232595
254	0xbf8aba33	-1.0838073
255	0xbede51ca	-0.43421775

hid.0.bias f4 [200]
0	0x3edd080f	0.4317021
1	0x3d90c7cb	0.070693575
2	0xbd6930ea	-0.056931414
3	0xbda59084	-0.08084205
4	0xbe953fc8	-0.29150224
5	0x3c55c57d	0.013047573
6	0x3e3a5088	0.18194783
7	0xbe534d27	-0.206349
8	0x3ea268f3	0.31720695
9	0xbde43093	-0.11142077
10	0xbcbd10ca	-0.023079295
11	0xbe2e486e	-0.17019817
12	0xbe371364	-0.1787849
13	0xbdbfcbb8	-0.09365028
14	0xbc6081ba	-0.013702804
15	0x3dd2745c	0.102761
16	0xbd8edd72	-0.06975831
17	0x3d9d2bab	0.07674345
18	0x3e979fea	0.29614192
19	0xbddf4a35	-0.10902826
20	0x3e024ae8	0.12723887
21	0x3ca04bef	0.019567458
22	0xbe543cf2	-0.20726374
23	0xbec147ce	-0.37750095
24	0xbebba5c3	-0.36649904
25	0xbd86f745	-0.06590132
26	0xbec34aa9	-0.381429
27	0x3e5c28e4	0.21499974
28	0xbe91ee44	-0.28502095
29	0xbe874478	-0.26419425
30	0x3d437cd4	0.047726467
31	0xbdd242fe	-0.10266684
32	0x3e2fbcc7	0.17161857
33	0x3dbb1bcb	0.091361605
34	0x3eb6f136	0.35730904
35	0x3f19d91e	0.6009692
36	0xbdeb8ecc	-0.11501846
37	0xbe74d447	-0.23909102
38	0x3ec059dd	0.3756856
39	0x3e1aa10d	0.15100498
40	0xbe91f972	-0.28510624
41	0xbdb80c53	-0.08986726
42	0x3e4db1fc	0.20087427
43	0x3e87cc6a	0.26523143
44	0x3ded2dca	0.11580999
45	0xbe0e6013	-0.13903837
46	0x3e7531b9	0.23944749
47	0x3e337460	0.17524862
48	0x3dc93a2f	0.09825551
49	0xbd39a080	-0.04531908
50	0xbe35027e	-0.17676732
51	0xbe60a121	-0.21936466
52	0xbc9257d8	-0.017864153
53	0xbe43a93f	-0.19107531
54	0xbd813f49	-0.06310899
55	0xbd5e89da	-0.054330684
56	0x3eb6ac6e	0.35678428
57	0x3e01693c	0.126378
58	0xbd051d7a	-0.032498814
59	0x3c3244f5	0.010880698
60	0xbf0856a8	-0.53257227
61	0xbe38c96d	-0.18045588
62	0xbda6e1e3	-0.08148553
63	0xbdb98420	-0.09058404
64	0x3e4b63f0	0.19862342
65	0x3e7398a9	0.23788704
66	0x3c75fd21	0.015013964
67	0xbe2bee37	-0.1679009
68	0xbe81f031	-0.25378564
69	0x3f11fe84	0.57028985
70	0xbd177cbb	-0.036984187
71	0x3e5500b8	0.20801055
72	0xbde06c13	-0.109581135
73	0x3d99858a	0.07496174
74	0xbd971654	-0.073773056
75	0x3c8ada23	0.016949719
76	0xbe822bfc	-0.25424182
77	0xbe4db120	-0.20087099
78	0x3dfca320	0.12335801
79	0xbe015196	-0.12628779
80	0x3e955eff	0.2917404
81	0xbe1b470d	-0.15163822
82	0xbd0c50ea	-0.034256853
83	0xbe15bf3c	-0.14623731
84	0x3edf49ea	0.4361108
85	0xbdca3e9c	-0.09875223
86	0xbedd50ee	-0.43225807
87	0xbec1f5d5	-0.37882867
88	0x3ea95c11	0.33078054
89	0x3e9f877c	0.31158054
90	0x3d49ea0f	0.04929548
91	0x3dbf0fc3	0.09329178
92	0x3d35918b	0.044328254
93	0xbe262385	-0.16224487
94	0x3dc657cf	0.09684717
95	0x3f26fd94	0.6523068
96	0xbec61004	-0.38684094
97	0xbe212d27	-0.1573988
98	0x3df081b8	0.11743492
99	0x3d5bee3c	0.053693995
100	0xbd0e85d5	-0.0347956
101	0xbda712be	-0.08157872
102	0xbdc2e9f7	-0.095172815
103	0xbee0defd	-0.43920127
104	0xbf01fc0f	-0.50775236
105	0x3d220f32	0.039565273
106	0xbe5e7c18	-0.21727026
107	0x3d62f903	0.055413257
108	0x3e45778a	0.19283882
109	0x3f334fd9	0.7004371
110	0xbd3bc0e6	-0.04583826
111	0xbe2f6fa7	-0.17132436
112	0x3ebf62bf	0.37380025
113	0x3d03e6a3	0.032202374
114	0x3e8a94de	0.27066702
115	0xbe646b0f	-0.22306465
116	0x3d3141c1	0.0432756
117	0xbe6b3c84	-0.22972304
118	0x3e8f3f24	0.2797786
119	0xbe0e8a67	-0.13919984
120	0xbe3bcdee	-0.18340275
121	0xbf147e92	-0.5800563
122	0x3d45ccef	0.048291143
123	0x3dcd6819	0.10029621
124	0x3e0ea5bc	0.1393041
125	0xbd11ce25	-0.035596985
126	0x3dda54c9	0.10660703
127	0x3e4c55ed	0.19954653
128	0xbe1f3b30	-0.15549922
129	0x3cfa10f9	0.030525671
130	0xbe904fdd	-0.2818593
131	0x3c11e926	0.008905685
132	0xbdcbb2c1	-0.09946204
133	0xbd89adb6	-0.06722586
134	0xbd041331	-0.032244865
135	0x3d61b336	0.05510255
136	0xbe8fd90d	-0.28095284
137	0xbe2863c2	-0.16444305
138	0x3e8e2966	0.2776596
139	0xbe533f7d	-0.20629688
140	0x3bdef1ae	0.006803713
141	0x3eacbe45	0.33738914
142	0x3e3c50d4	0.18390208
143	0xbe0f2bed	-0.139816
144	0x3ea9e309	0.33181027
145	0x3e9d1a18	0.3068397
146	0x3e7d1bcb	0.24717633
147	0x3df43032	0.11923255
148	0x3d00cdd4	0.031446293
149	0x3e8ed41b	0.278962
150	0xbe9a4dc9	-0.3013747
151	0x39820a68	0.00024803285
152	0x3e2c9de5	0.16857107
153	0xbe3c0415	-0.18360932
154	0x3cd4612f	0.025925247
155	0xbbe32664	-0.0069320668
156	0x3e85a383	0.26101312
157	0xbd74432e	-0.05963438
158	0xbdc32f99	-0.09530563
159	0xbd6b80eb	-0.057495993
160	0x3f1afe75	0.6054452
161	0xbe822eb4	-0.25426257
162	0xbedb059b	-0.42777714
163	0xbf2554df	-0.6458263
164	0x3ddec1e3	0.10876825
165	0xbe5700eb	-0.20996444
166	0xbd546674	-0.05185552
167	0x3dc6a107	0.09698682
168	0xbe18c715	-0.14919694
169	0x3dc6e591	0.09711755
170	0x3d80eb07	0.06294828
171	0x3d4e8eeb	0.050429266
172	0x3ec30d85	0.38096252
173	0xbcef9964	-0.029247947
174	0x3df30440	0.11866045
175	0x3deef349	0.11667497
176	0xbec12108	-0.37720513
177	0x3e146e7d	0.14495273
178	0xbd7397bb	-0.059470873
179	0x3eec28cb	0.46124873
180	0x3ce07b49	0.027402537
181	0xbe4a4345	-0.19752224
182	0xbe4ef8f8	-0.20212162
183	0x3d78623d	0.060640562
184	0xbd9389a8	-0.0720399
185	0xbede5007	-0.4342043
186	0x3db802fb	0.089849435
187	0xbd83458b	-0.06409749
188	0x3e5b72ff	0.21430586
189	0xbd02dea6	-0.031950615
190	0x3f000f9f	0.50023836
191	0xbc5b727f	-0.013393997
192	0x3e9efd4d	0.31052628
193	0x3e23a8b8	0.1598233
194	0x3cc65296	0.024209302
195	0xbdbce833	-0.09223976
196	0xbdc4b595	-0.096049465
197	0x3e348960	0.1763053
198	0xbe01e558	-0.12685144
199	0x3ec11520	0.3771143

hid.1.weight f4 [200, 200]
0	0x3deccd4a	0.11562593
1	0x3e0fe5d7	0.1405252
2	0xbcce64a6	-0.025194477
3	0xbd88f8f3	-0.06688108
4	0x3e033827	0.12814389
5	0xbc56c9e4	-0.013109658
6	0xbc1d2302	-0.009590866
7	0x3d5e720f	0.054307994
8	0xbdc01602	-0.09379198
9	0xbd64565b	-0.055746417
10	0x3db042b6	0.08606474
11	0x3dc38e4a	0.09548624
12	0xbc11ab1e	-0.008890895
13	0xb97f74bb	-0.0002436218
14	0x3d99f6c2	0.075177684
15	0x3df032e6	0.11728458
16	0x3e11c5f8	0.14235675
17	0x3e0bfe2e	0.1367118
18	0xbe2d376c	-0.16915673
19	0x3d715e4f	0.05892783
20	0x3d422211	0.04739577
21	0xbde75176	-0.11294834
22	0x3d8ab6ee	0.06773172
23	0xbd1bd658	-0.03804621
24	0x3d84f07e	0.06491183
25	0x3cc01202	0.023446087
26	0xbdf90811	-0.12159742
27	0x3df901a2	0.121585146
28	0xbd98c475	-0.07459346
29	0xbd1c8cbe	-0.03822016
30	0x3d6d51aa	0.05793921
31	0xbe57234a	-0.21009555
32	0x3ce65ab9	0.028119432
33	0x3d053539	0.03252146
34	0xbd8f2315	-0.06989113
35	0xbd2eada7	-0.042646077
36	0x3cc73690	0.02431801
37	0xbd57c168	-0.05267468
38	0x3d9f8d19	0.07790584
39	0xbde7c51a	-0.11316891
40	0xbd10f741	-0.03539205
41	0x3ddc51ef	0.10757815
42	0xbdc8b703	-0.09800532
43	0x3d629e8a	0.055326976
44	0xbce4472d	-0.02786597
45	0xbd8c56c3	-0.06852486
46	0xbd548808	-0.051887542
47	0xbd9df451	-0.07712615
48	0xbc933a22	-0.017972056
49	0x3e0b3ccb	0.1359741
50	0x3e05c200	0.13062286
51	0xbd94f969	-0.07274134
52	0xbdaac12e	-0.08337627
53	0x3d37627c	0.044771656
54	0x3deda1af	0.11603104
55	0xbe054ffe	-0.13018796
56	0xbe5805f9	-0.21096028
57	0x3d6dc1f9	0.058046315
58	0x3d5bcd3f	0.053662535
59	0xbcbe6a0a	-0.023243923
60	0x3d9f4ea5	0.07778672
61	0xbd9d3a1b	-0.07677098
62	0xbd55aa7b	-0.052164536
63	0x3d95a196	0.07306211
64	0xbd20efe6	-0.039291285
65	0xbb807604	-0.0039203186
66	0xbc0e92cb	-0.00870199
67	0xbd5e1e25	-0.054227967
68	0xbd4e21dc	-0.05032526
69	0xbd9fefbb	-0.07809397
70	0x3de67dd9	0.11254472
71	0xbe0b42d6	-0.13599715
72	0x3d69516a	0.056962408
73	0x3e216814	0.15762359
74	0x3d52accd	0.051434327
75	0xbd0259fd	-0.0318241
76	0xbd4b4be2	-0.049632914
77	0xbda52909	-0.080644675
78	0x3c0b022f	0.008484407
79	0x3d557d95	0.052121717
80	0x3d82b6c1	0.06382514
81	0x3db7f962	0.08983113
82	0xbd39fdd9	-0.045408104
83	0xbbd3a017	-0.006458293
84	0xbd301d96	-0.042996965
85	0x3da392a6	0.07986955
86	0x3d3b1799	0.0456768
87	0xbbde970f	-0.00679291
88	0x3e0a96c0	0.13534069
89	0xbcae7088	-0.021293893
90	0x3d18912e	0.03724783
91	0xbd2b8655	-0.041876156
92	0x3cbfe1b3	0.023423051
93	0x3dd9c4cb	0.106332384
94	0x3cc9c02d	0.02462777
95	0xbd61111e	-0.054947965
96	0xbb887ecc	-0.004165506
97	0x3d099429	0.033588562
98	0x3e02ed01	0.12785722
99	0x3e3ce6f5	0.18447478
100	0xbc982bfa	-0.018575657
101	0xbe1152ac	-0.14191693
102	0x3e0a8398	0.13526762
103	0x3ddc554e	0.10758458
104	0x3d6fe3df	0.058566924
105	0xbdb4cbeb	-0.08827957
106	0x3df2fd30	0.11864698
107	0xbd51af26	-0.051192425
108	0xbe1f9b87	-0.15586673
109	0x3e59b79d	0.21261449
110	0x3d5d8f26	0.054091595
111	0xbdd5304c	-0.104096025
112	0xbd80c1db	-0.06286975
113	0xbe43e33a	-0.19129649
114	0xbdf541ed	-0.11975465
115	0x3d0a93ae	0.033832245
116	0xbd9392ae	-0.07205711
117	0xbd1c82e7	-0.038210776
118	0x3b91b8a6	0.0044470606
119	0xbde1180c	-0.10990915
120	0xbd8b4d8e	-0.06801902
121	0xbb197840	-0.0023417622
122	0x3c9093ca	0.017648596
123	0x3db2175b	0.08695861
124	0x3cefb8d9	0.029262947
125	0xbbb39b65	-0.005481171
126	0xbd29bf86	-0.041442417
127	0x3d8d61ff	0.06903457
128	0x3cbf0740	0.023318887
129	0x3dbc23fa	0.091865495
130	0x3c363256	0.011120399
131	0xbc8f10f2	-0.017464135
132	0xbde505d5	-0.11182753
133	0x3da879dc	0.08226368
134	0xbd0fe7cb	-0.035133164
135	0xbb09cd90	-0.0021027066
136	0x3d83c6c6	0.064343974
137	0xbd607860	-0.0548023
138	0xbc85cf61	-0.016334238
139	0x3d7cd39f	0.061725255
140	0x3d760b81	0.060069565
141	0xbddda08e	-0.10821639
142	0xbb688c90	-0.0035484172
143	0x3ddc8192	0.10766901
144	0xbe23548e	-0.15950224
145	0xbceee777	-0.029163105
146	0xbe06bddc	-0.13158363
147	0xbc15ee81	-0.009151102
148	0xbc72f945	-0.014829938
149	0xbd3ec51c	-0.046574697
150	0x3d2444f1	0.04010481
151	0x3bcd7817	0.0062704193
152	0xbd698752	-0.057013817
153	0x3c11cc11	0.008898751
154	0x3cfeae01	0.03108883
155	0x3c618526	0.013764655
156	0x3ca7c155	0.02047793
157	0x3cede841	0.029041411
158	0xbe043381	-0.12910272
159	0xbd2c3a42	-0.042047746
160	0xbc5533a8	-0.013012804
161	0x3df0e1b8	0.117618024
162	0x3da94333	0.0826477
163	0x3c799b99	0.015234851
164	0xbda04d3e	-0.07827233
165	0x3e1c1bf3	0.15245037
166	0x3d34d980	0.044152737
167	0x3d1ede5a	0.03878627
168	0xbd73d95e	-0.05953347
169	0x3dedb89d	0.11607478
170	0x3d505dbc	0.050870642
171	0xbd428746	-0.047492288
172	0x3d1cee6e	0.03831332
173	0xbdd17d1f	-0.10228943
174	0xbbce1f52	-0.0062903548
175	0x3dabba28	0.08385116
176	0x3d238d83	0.039929878
177	0xbe381f6d	-0.17980738
178	0x3da241e4	0.07922724
179	0x3a8a837f	0.0010567753
180	0xbc93eac1	-0.018056275
181	0xbd0ef343	-0.03489996
182	0x3c0cef2b	0.008601944
183	0x3dc3345d	0.09531472
184	0x3dc02398	0.09381789
185	0x3da8cbba	0.08241983
186	0xbd87f1ca	-0.066379145
187	0x3de95b41	0.113943584
188	0x3ce1ce1b	0.027564099
189	0x3e425321	0.18977024
190	0x3d876358	0.06610745
191	0xbd9b8697	-0.0759403
192	0xbcf342ac	-0.029694878
193	0xbcf7c871	-0.030246945
194	0xbd0d596c	-0.034509107
195	0xbd8f1867	-0.06987076
196	0xbe03c113	-0.1286662
197	0xbbb497d7	-0.005511265
198	0xbe21c740	-0.15798664
199	0x3d2433b5	0.040088374
200	0x3daa0f0f	0.083036534
201	0xbdfa3fc2	-0.12219192
202	0x3d888572	0.06666078
203	0x3c8ded75	0.017325142
204	0x3e57c0b8	0.2106961
205	0xbd824e0b	-0.06362542
206	0xbd1ce60d	-0.03830533
207	0xbc66bb9e	-0.014082817
208	0x3da223ce	0.079169855
209	0x3e1f55cd	0.15560074
210	0x3cf1bcb7	0.029508932
211	0x3d902ac4	0.07039407
212	0x3c8c34cd	0.017115021
213	0xbe054464	-0.1301437
214	0xbcccfa1e	-0.025021609
215	0x3c879371	0.016549798
216	0x3ba9bb5f	0.005179807
217	0x3b16014d	0.002288896
218	0x3dd38b91	0.103293546
219	0x3d62e8f3	0.05539794
220	0xbe1e0a6d	-0.15433665
221	0x3dc32c65	0.09529952
222	0x3d935b2d	0.07195125
223	0xbd5f582b	-0.054527443
224	0x3dc8473b	0.09779211
225	0x3caa740a	0.020807285
226	0xbcb1b059	-0.021690534
227	0x3e712d92	0.2355254
228	0xbda77eb2	-0.08178462
229	0xbdd46ffc	-0.10372922
230	0x3c85e8a1	0.016346278
231	0xbdeb03ec	-0.114753574
232	0x3dcdccb3	0.10048809
233	0x3cbf336e	0.023339953
234	0xbd118091	-0.035523
235	0x3da6c81f	0.08143639
236	0x3e1c0d99	0.15239562
237	0xbdfef407	-0.12448888
238	0xbc3255f0	-0.010884747
239	0x3d7662d1	0.060152832
240	0x3daac80a	0.08338936
241	0xbc43b376	-0.011944642
242	0x3ba2ad95	0.0049645402
243	0xbdc2da3d	-0.09514282
244	0x3c95bc38	0.018278226
245	0xbdce4a37	-0.10072749
246	0xbdf61e4e	-0.12017499
247	0xbda1180f	-0.07865917
248	0x3ced7b60	0.028989494
249	0xbd5bd427	-0.05366912
250	0x3d23706f	0.039902147
251	0x3c5cef43	0.013484779
252	0xbd83f095	-0.06442372
253	0x3c39ee8c	0.011348378
254	0x3da8c7ed	0.08241258
255	0xbd1d7a8c	-0.038446948

hid.1.bias f4 [200]
0	0x3867287a	5.511239e-05
1	0x3b474d84	0.0030411193
2	0x3bd7482c	0.006569883
3	0xbbf308be	-0.0074168136
4	0xbbb2d13d	-0.005457072
5	0xba5f21bf	-0.00085118035
6	0xbb9f4395	-0.0048603513
7	0x3abcc433	0.0014401734
8	0xb9812b38	-0.00024636998
9	0x39d9f07d	0.00041568643
10	0x39c9bc2e	0.00038477912
11	0xbaef498f	-0.0018256175
12	0x3b4f5242	0.0031634723
13	0x3aa0dc52	0.0012272692
14	0x39ca591e	0.0003859484
15	0x36b7abef	5.4738407e-06
16	0x3b242eaa	0.0025052228
17	0xb85bb457	-5.2381623e-05
18	0xbbf711e3	-0.007539974
19	0x3b2db39e	0.0026504765
20	0xb97d4030	-0.00024151872
21	0x3be36f44	0.006940754
22	0x39a31b95	0.00031110333
23	0x3a2454b2	0.0006268724
24	0x398eff29	0.0002727446
25	0x3a6873a5	0.000886733
26	0xba1c5fc0	-0.00059651956
27	0x3a4b8a7a	0.000776447
28	0x3b5c428f	0.0033609008
29	0xba20608a	-0.0006117901
30	0x3a3953d2	0.000706968
31	0x3b15a9e4	0.0022836858
32	0xbb31e4a4	-0.0027144337
33	0x3831590b	4.2283016e-05
34	0xbae07679	-0.0017125151
35	0xba9bdb8e	-0.0011890994
36	0x37cf15a6	2.4686404e-05
37	0xbb359c88	-0.0027711708
38	0x3a065d35	0.0005125583
39	0x3b3ee29a	0.0029126764
40	0x3b3bb469	0.0028641468
41	0xbba7c435	-0.0051198252
42	0x3c01f8fc	0.007932898
43	0x3ac7e88e	0.0015251802
44	0xbbe661e6	-0.0070307134
45	0x39800eab	0.0002442499
46	0x3b9db7b7	0.0048131603
47	0xbb44adca	-0.0030010813
48	0x3bcff62e	0.0063464856
49	0x383dc84d	4.5247656e-05
50	0x3a826567	0.0009948433
51	0xba028226	-0.00049785
52	0xbafb9a55	-0.0019195775
53	0xb9cf50ad	-0.00039542225
54	0x36947adf	4.425048e-06
55	0x3acdd627	0.0015704081
56	0xb8b73614	-8.736193e-05
57	0xbb295244	-0.0025836388
58	0xbaa2295b	-0.0012371944
59	0xbaeeb05f	-0.0018210522
60	0x3b3f9c38	0.00292374
61	0xbb0251eb	-0.0019885253
62	0x3b3ffe55	0.002929588
63	0xbb92974b	-0.004473602
64	0x3b796589	0.0038054904
65	0xbb2ee18e	-0.0026684734
66	0x39e76889	0.00044137638
67	0xb887b21e	-6.4704785e-05
68	0xbad93073	-0.0016570225
69	0xbb3920e0	-0.0028248355
70	0xba0d7521	-0.0005396177
71	0xb996e11a	-0.00028777943
72	0xbb8d1a88	-0.0043061413
73	0x3ac6cf98	0.0015168069
74	0xb92bfddb	-0.000164024
75	0xba5a0d9c	-0.0008318068
76	0xba133fc5	-0.00056171074
77	0x3b81bf84	0.003959598
78	0x3b9379b4	0.004500592
79	0xba9d362f	-0.0011994297
80	0x3a3982e6	0.00070766953
81	0xba917b9f	-0.0011099464
82	0x3b9b100b	0.004732137
83	0x3c5e35f3	0.013562667
84	0xba4c5827	-0.0007795118
85	0xb6f68258	-7.3465453e-06
86	0xbb528b6d	-0.0032126561
87	0xb89e706e	-7.554969e-05
88	0x38b3fa29	8.581981e-05
89	0x38d47204	0.00010130185
90	0x3bd8ddfd	0.00661826
91	0x3a25327b	0.00063017727
92	0x393671f1	0.00017399319
93	0x3baa1a9a	0.0051911594
94	0xb8fd61b1	-0.000120821765
95	0xbbda5c54	-0.0066638384
96	0x3a0564ad	0.0005088549
97	0x379b7267	1.8530713e-05
98	0x3aa78a41	0.0012782292
99	0x3ba0e39d	0.004909946
100	0xbb119a83	-0.002221734
101	0xba819837	-0.0009887283
102	0x3a3bd15e	0.0007164682
103	0xb9dca2f8	-0.0004208309
104	0x3a9416ad	0.0011298262
105	0xbb4063fc	-0.002935647
106	0xb96178a3	-0.00021502613
107	0xbbb6fdf7	-0.005584474
108	0xbb3db068	-0.0028944258
109	0xbb4c5428	-0.003117809
110	0xbba5ea79	-0.0050633517
111	0x3992279d	0.00027876804
112	0xbbe45d64	-0.006969141
113	0xbab5529d	-0.0013833825
114	0xbad42a00	-0.0016186833
115	0x39301c0e	0.00016795119
116	0x3b3a0665	0.002838516
117	0x37e5a434	2.737539e-05
118	0x3984af7c	0.00025307748
119	0xbb057bb1	-0.0020367915
120	0x3bd21022	0.0064106146
121	0xbb0d21fc	-0.002153515
122	0x3c108c14	0.00882246
123	0xbb0d6a27	-0.0021578164
124	0xbaf81d5e	-0.001892965
125	0x39f087f7	0.0004587767
126	0xb95ae0ae	-0.000208738
127	0x3b3161d2	0.0027066362
128	0x38af7b93	8.367668e-05
129	0x3a866292	0.0010252765
130	0xbafb5b47	-0.0019176983
131	0x3aad8638	0.0013238853
132	0xbabb9ba9	-0.0014313358
133	0x392c1393	0.0001641049
134	0xb9c69bb6	-0.00037881517
135	0x39a349c9	0.00031144757
136	0x3b5118f6	0.0031905747
137	0x3ab0434d	0.0013447792
138	0xb9d20f75	-0.00040065838
139	0x34422a19	1.8082973e-07
140	0xb6bb85cb	-5.58861e-06
141	0xb9dcf984	-0.00042147574
142	0x3b2ced64	0.0026386613
143	0x39a6c4c1	0.0003180858
144	0xb9ba7353	-0.00035562608
145	0xba9ae152	-0.0011816418
146	0x3bc5d862	0.0060377577
147	0x3ba599b0	0.0050537214
148	0x3bcef8b8	0.0063162707
149	0xba232a38	-0.00062242476
150	0xbb58b573	-0.0033067137
151	0x39a9d3ea	0.0003239208
152	0x399e600e	0.00030207675
153	0x39cbf50d	0.00038901754
154	0x39113878	0.00013849314
155	0x3a2bbcae	0.0006551248
156	0xbb8d5f8e	-0.0043143695
157	0xb70bd549	-8.334705e-06
158	0x370dc67a	8.450466e-06
159	0x398b055d	0.00026516142
160	0xbbcb5bef	-0.0062060277
161	0xb99265ef	-0.00027923236
162	0xb9a908eb	-0.00032240836
163	0x39ac42d3	0.00032856184
164	0xbafaa531	-0.0019122717
165	0x352fab3b	6.5441753e-07
166	0xbb9d74fb	-0.004805205
167	0x3b8e574f	0.004343904
168	0x370375f5	7.8356725e-06
169	0x3a9d9ffe	0.0012025831
170	0x3992cfd4	0.00028002134
171	0xb92c9b90	-0.0001646115
172	0xb9abac26	-0.00032743922
173	0x3a92268a	0.0011150402
174	0xbb42d527	-0.00297291
175	0x3b3c9c5a	0.0028779716
176	0xba061f23	-0.0005116334
177	0xbb0e44f9	-0.0021708591
178	0x3a289074	0.00064302166
179	0x3ba4542b	0.0050149164
180	0xbaba9b79	-0.0014237008
181	0x3bb265bd	0.005444257
182	0x388361ae	6.264761e-05
183	0x3a308a44	0.00067344704
184	0x3b525c38	0.0032098424
185	0x390198d2	0.00012359329
186	0xbaab3635	-0.001306242
187	0x3a82f7ab	0.0009992024
188	0x3b771fbc	0.0037708124
189	0xbb9b5ada	-0.004741055
190	0xbac5058f	-0.0015031564
191	0xbaf838e8	-0.0018937858
192	0x38d5d341	0.000101959806
193	0x3a3ecfa0	0.00072788633
194	0x3bf10659	0.007355493
195	0x3682d8ee	3.899556e-06
196	0x3a0770f5	0.0005166673
197	0x394c8f1a	0.00019508266
198	0xba4b91dc	-0.000776557
199	0x3b45cb3b	0.003018095

out.weight f4 [1, 200]
0	0xbd409d1e	-0.04702484
1	0xbd7ba35c	-0.06143509
2	0xbde8d690	-0.113690495
3	0x3e00c276	0.12574181
4	0x3e1d3362	0.15351632
5	0x3d0f83c6	0.03503778
6	0x3e0b21a0	0.13587046
7	0xbd9c7ba2	-0.076407686
8	0xbaeb1a3d	-0.0017936897
9	0xbcc8fc80	-0.024534464
10	0xbc8d26f1	-0.017230483
11	0x3dea70a3	0.11447265
12	0xbdca4f48	-0.09878403
13	0xbd494408	-0.049137145
14	0xbc2b125e	-0.010441391
15	0xbda163c4	-0.07880357
16	0xbdacf4e6	-0.08445148
17	0xbc735c41	-0.014853538
18	0x3e2968b5	0.16543849
19	0xbdb01565	-0.08597831
20	0x3c14eb13	0.009089249
21	0xbe198467	-0.14991914
22	0xbc8556aa	-0.016276676
23	0xbccf81ad	-0.025330389
24	0xbc86e8e8	-0.01646848
25	0xbc6d4b77	-0.014483324
26	0x3dfd5428	0.12369567
27	0xbcb2595e	-0.02177113
28	0xbd69417e	-0.056947224
29	0x3c5563e2	0.013024302
30	0xbcd984cf	-0.026552586
31	0xbd1694b8	-0.036762923
32	0x3d4f7ced	0.050656248
33	0x3bac87f1	0.005265229
34	0x3df1fb60	0.11815524
35	0x3d4f56c1	0.050619844
36	0xb8948640	-7.082196e-05
37	0x3d995d44	0.07488492
38	0xbc85801d	-0.01629644
39	0xbd912aa7	-0.070882134
40	0xbd5ad427	-0.05342498
41	0x3dce3d15	0.10070244
42	0xbe28eb83	-0.1649609
43	0xbd9ea942	-0.07747127
44	0x3e4eac2e	0.20182869
45	0x3be5dd90	0.0070149377
46	0xbdf027a3	-0.1172631
47	0x3ddeac5a	0.10872717
48	0xbe22a06a	-0.15881506
49	0x3d5cefd4	0.053939655
50	0xbc536aa0	-0.012903839
51	0x3c691ced	0.014228088
52	0x3dd3ca99	0.10341377
53	0x3dad0083	0.08447363
54	0xbb8d7369	-0.0043167365
55	0xbd81c744	-0.06336835
56	0xbd0e47ac	-0.03473632
57	0x3da32514	0.079660565
58	0x3caa9e59	0.02082746
59	0x3d2eb71c	0.042655095
60	0xbd680f5c	-0.056655273
61	0x3d8429d8	0.064532936
62	0xbdd40380	-0.1035223
63	0x3df893bf	0.12137555
64	0xbd95537e	-0.072913155
65	0x3d8fc18a	0.070193365
66	0x3ca6d381	0.020364525
67	0xbb430beb	-0.0029761742
68	0x3d34c2ad	0.04413097
69	0x3d8f009b	0.06982537
70	0xbd932b05	-0.0718594
71	0x3bf2d489	0.00741059
72	0x3ded395b	0.11583205
73	0xbdf61125	-0.12014989
74	0x3b89642d	0.00419285
75	0x3c9d0aa3	0.019170111
76	0x3d94600e	0.072448835
77	0xbda0c200	-0.078495026
78	0xbde70a08	-0.1128121
79	0xbd1bab46	-0.038005136
80	0xbcbcb5f6	-0.023035984
81	0x3da9a218	0.0828287
82	0xbde28cd4	-0.11062017
83	0xbe80de2b	-0.251695
84	0x3ca25033	0.019813633
85	0xbd7a7dd2	-0.061155148
86	0x3d8dc4ab	0.06922277
87	0xbd409d3b	-0.047024947
88	0xbd0dc3ec	-0.034610674
89	0x3d551baf	0.052028354
90	0xbe438ebe	-0.1909742
91	0xbd558d48	-0.05213669
92	0xbbd468f6	-0.006482239
93	0xbda50385	-0.08057312
94	0xba6ff8cf	-0.0009154202
95	0x3e020c14	0.1269992
96	0xbd402dfb	-0.04691885
97	0xbb223418	-0.0024750289
98	0xbd0f2fdd	-0.034957755
99	0xbe04bced	-0.12962694
100	0x3d1fdcb1	0.039028827
101	0x3d107b8a	0.035274066
102	0xbd6928fc	-0.05692385
103	0x3c3731f7	0.011181346
104	0xbcefbbda	-0.02926438
105	0xbe176b1d	-0.14786954
106	0x3c0ab954	0.008467037
107	0x3debf513	0.115213536
108	0x3d9fe0ea	0.07806571
109	0x3e025f50	0.12731671
110	0x3daa99d8	0.083301246
111	0x3e0103cb	0.12599103
112	0x3e096954	0.13419086
113	0x3d110590	0.035405695
114	0x3d2517ed	0.04030602
115	0xbd2eaa4f	-0.042642888
116	0xbdd44ccd	-0.10366211
117	0xbb3dc5e7	-0.002895707
118	0xbd10b517	-0.03532895
119	0x3db77643	0.089581035
120	0xbe0b421b	-0.13599436
121	0x3db4df82	0.08831693
122	0xbe1fa1db	-0.15589087
123	0x3d4a4590	0.049382746
124	0x3dd84c9c	0.10561487
125	0xbc11c77c	-0.008897658
126	0x3b4844ba	0.0030558542
127	0xbd6276cc	-0.055289075
128	0x3cc151d5	0.02359859
129	0xbd19dc69	-0.037563715
130	0x3d649065	0.055801768
131	0xbd1aabeb	-0.03776161
132	0x3d000cf9	0.03126237
133	0x3cc932e4	0.0245604
134	0xbd6acac1	-0.057322267
135	0xbc19c461	-0.009385199
136	0xbd359074	-0.044327214
137	0x3d1cb7fd	0.038261402
138	0x3d0c6ac8	0.034281522
139	0xbc00a9c2	-0.007852973
140	0x3bdb81df	0.0066988315
141	0x3c8c670b	0.017138978
142	0xbd78f63c	-0.060781702
143	0xbc184eb0	-0.009296104
144	0x3ba0a506	0.004902485
145	0x3d753ea4	0.059874192
146	0xbdcf6a91	-0.10127748
147	0xbdd856b8	-0.10563415
148	0xbde4d12d	-0.111727096
149	0x3c38e7eb	0.011285762
150	0x3db20365	0.08692054
151	0xbc13c695	-0.009019514
152	0xbc199f11	-0.009376303
153	0x3cf1283b	0.029438129
154	0xbcfcbbe0	-0.030851305
155	0xbca7d11c	-0.020485453
156	0x3e32bfd9	0.17455997
157	0x3a325af4	0.0006803714
158	0xbb873cd3	-0.004127124
159	0x3db7e5f3	0.08979406
160	0x3ddfb6ec	0.109235615
161	0x3d0971ce	0.0335558
162	0x3c501892	0.0127011705
163	0xbc80733b	-0.015679946
164	0x3cf18079	0.029480206
165	0x3baafaf7	0.0052179056
166	0x3da4761c	0.0803034
167	0xbdcbafb7	-0.09945624
168	0xba7976d4	-0.0009516303
169	0xbd3ebd39	-0.046567176
170	0x3db01582	0.08597852
171	0x3b523890	0.003207717
172	0x3c0d90a9	0.008640447
173	0xbd04ca67	-0.03241959
174	0x3e04b322	0.12958959
175	0xbd4c17e9	-0.04982749
176	0x3d0e0fa0	0.03468287
177	0x3d427b26	0.047480725
178	0x3e0c3710	0.1369288
179	0xbde0cfd5	-0.10977141
180	0x3d136c2a	0.035991825
181	0xbdd30c11	-0.10305036
182	0xba81f51b	-0.0009914966
183	0xbc950b3e	-0.018193837
184	0xbdeee414	-0.11664596
185	0x3abf9136	0.001461542
186	0x3cee8108	0.029114261
187	0xbcef6446	-0.029222619
188	0xbdee71fe	-0.11642836
189	0x3dae61e0	0.08514762
190	0x3cf0e995	0.029408256
191	0x3d546966	0.05185833
192	0xbcd63218	-0.026146933
193	0x3ca08cc3	0.01959837
194	0xbdf7c61d	-0.12098334
195	0xbaf184f4	-0.0018426464
196	0x3ce84639	0.028353797
197	0xbb327712	-0.0027231616
198	0x3d63e292	0.055635996
199	0xbdc67bce	-0.096915826
