rk_ckpts_v4/model_N100_L12_g0p8_lr0p05_seed1.pt (torch, 455413 bytes, 25 tensors)

hid.0.weight f4 [100, 2]
0.2763503 0.77775246 -0.5968475 -1.3669405 -0.66637635 -0.27394974 -0.90157354 0.21889378
-0.73544383 0.07900422 -0.58296615 0.18434267 -0.3587621 0.0692607 -0.41175097 0.36807525
-0.6773643 0.044128347 -1.0446991 0.21345167 -0.7713121 -1.8140858 0.27118605 0.5426377
0.4386689 0.21076939 0.399196 0.24258769 -0.21999717 0.45684853 0.9941519 0.10676778
-0.017749406 0.60381097 0.13628666 0.23126186 0.7845631 -0.20518792 -1.1288354 0.2389733
-0.14957269 0.58547837 0.41332597 1.3026725 0.6323386 0.17842324 -0.12481726 0.26083592
-0.043405063 0.030068332 -1.452428 -0.49931827 0.62146425 -0.7888422 0.56907254 -0.49452588
0.14928024 -0.7905506 0.1895871 -0.4871702 -0.92433196 -0.15852012 -0.6191634 0.19141382
-0.017145663 -0.048799343 -0.58274066 0.35029542 0.5315024 -0.64906573 0.3234149 0.46742135
0.39953366 -0.22117119 0.24650422 0.5199048 -0.8738503 0.052394908 -0.66470164 -0.7113632
0.075820856 1.62266 0.78241557 0.2515456 0.43342113 1.1884463 -0.42622018 -0.08631968
0.00055146567 -0.26851818 0.5886358 1.3176105 -0.29978532 0.02277861 1.0653894 -0.3036342
0.7982096 0.17720105 0.96457374 0.7123008 0.004256284 -0.09340029 -0.4488881 0.7505469
-0.9778051 -0.248148 0.2730929 -1.0594983 0.31057933 -0.9454478 -0.3903561 1.0492724
-0.11146778 -0.17426135 -0.77940917 0.67452806 -0.8250781 -0.6368889 0.44988894 0.8199355
0.21485877 -0.38888857 -0.18359338 0.35703218 0.45459738 1.0919039 -0.6318685 0.31883326
-0.45780218 0.27689445 0.040580254 0.7421041 0.22664054 -0.24876897 -0.26580128 0.6017864
-0.15638652 -0.22167075 -0.08013882 1.0871472 -0.2728427 -0.10324211 1.4198074 1.1053653
0.34203953 0.3264186 -0.42312375 1.3615979 -0.6583909 0.21855316 -0.046366207 -0.6957482
0.15322721 -0.54864323 -0.49184442 0.45643476 -0.0010429055 0.32618275 0.43094808 0.5826771
0.78265554 -0.11695049 -0.21885176 0.8097603 0.38954842 -0.29052803 -0.9479421 -0.7115045
-0.56140137 0.8861254 -0.42446628 0.5498161 0.0021862495 0.12436727 0.3111231 0.80666864
-0.28204086 -0.02278953 0.40241957 0.103594236 -0.9161146 0.49586147 0.036841642 0.68578553
0.30465505 -1.1599973 -0.5319684 -0.7139435 -0.4386541 0.14870259 -0.9807667 -0.36011687
0.3096112 -0.49204716 0.2673116 0.52244884 0.23608324 0.770543 1.0650667 0.21359156
00000000: c97d 8d3e c91a 473f ffca 18bf e8f7 aebf
00000010: a497 2abf 2443 8cbe 86cd 66bf b125 603e
00000020: 0c46 3cbf f7cc a13d 453d 15bf 53c4 3c3e
00000030: aaaf b7be 8ed8 8d3d 06d1 d2be 5c74 bc3e
00000040: bf67 2dbf edbf 343d b3b8 85bf 1393 5a3e
00000050: b674 45bf f733 e8bf e6d8 8a3e 4eea 0a3f
00000060: 3699 e03e eed3 573e 6b63 cc3e e868 783e
00000070: f046 61be 0de8 e93e bd80 7e3f 11a9 da3d
00000080: 3467 91bc 5b93 1a3f bb8e 0b3e e9cf 6c3e
00000090: 21d9 483f c81c 52be ae7d 90bf 6bb5 743e
000000a0: 9529 19be e9e1 153f 769f d33e f9bd a63f
000000b0: f1e0 213f 95b4 363e 31a0 ffbd 498c 853e
000000c0: 82c9 31bd dd51 f63c 29e9 b9bf a5a6 ffbe
000000d0: 4818 1f3f 90f1 49bf bdae 113f 7f32 fdbe
000000e0: ebdc 183e 8661 4abf 1f23 423e 5f6e f9be
000000f0: 05a1 6cbf 1953 22be 7e81 1ebf fc01 443e
00000100: 1075 8cbc d2e1 47bd 7e2e 15bf ec59 b33e
00000110: 8b10 083f 2c29 26bf a396 a53e da51 ef3e
00000120: ad8f cc3e b37a 62be 9a6b 7c3e 7b18 053f
00000130: a7b4 5fbf 0b9c 563d e329 2abf e61b 36bf
00000140: f747 9b3d 53b3 cf3f 634c 483f 96ca 803e
00000150: 60e9 dd3e 021f 983f 8839 dabe 5fc8 b0bd
00000160: 3c90 103a 377b 89be d6b0 163f 76a7 a83f
00000170: 767d 99be 359a ba3c ae5e 883f f175 9bbe
00000180: 7757 4c3f 3174 353e 4eee 763f 5859 363f
00000190: 4c78 8b3b a748 bfbd a9d4 e5be d723 403f
000001a0: 6f51 7abf 821a 7ebe d5d2 8b3e a49d 87bf
000001b0: 4104 9f3e de08 72bf c1dc c7be 8f4e 863f
000001c0: 3849 e4bd 9171 32be 5c87 47bf dfad 2c3f
000001d0: 5238 53bf 270b 23bf d857 e63e 4be7 513f
000001e0: f003 5c3e 671c c7be e7ff 3bbe eccc b63e
000001f0: fdc0 e83e 82c3 8b3f 22c2 21bf 1d3e a33e
00000200: 0c65 eabe 1cc5 8d3e 7b37 263d 89fa 3d3f
00000210: 7514 683e 4bbd 7ebe 1b17 88be ac0e 1a3f
00000220: ca23 20be a8fd 62be d21f a4bd a427 8b3f
00000230: 0ab2 8bbe 9970 d3bd 40bc b53f 9c7c 8d3f
00000240: ce1f af3e 5720 a73e ada3 d8be d748 ae3f
00000250: 4e8c 28bf 66cc 5f3e 7eea 3dbd 8e1c 32bf
00000260: 98e7 1c3e e273 0cbf 08d3 fbbe d1b1 e93e
00000270: 1ab2 88ba 6d01 a73e 3aa5 dc3e 542a 153f
00000280: 1d5c 483f bd83 efbd ad1a 60be 734c 4f3f
00000290: e472 c73e 17c0 94be 55ac 72bf 2925 36bf
000002a0: 00b8 0fbf 1dd9 623f a553 d9be bfc0 0c3f
000002b0: 2e47 0f3b 44b4 fe3d 874b 9f3e d681 4e3f
000002c0: a967 90be 1cb1 babc f009 ce3e 3729 d43d
000002d0: 7d86 6abf 8ee1 fd3e 43e7 163d a48f 2f3f
000002e0: bffb 9b3e cb7a 94bf 152f 08bf 00c5 36bf
000002f0: 4597 e0be 7e45 183e 8713 7bbf 3d61 b8be
00000300: 5c85 9e3e 9bed fbbe 11dd 883e 35bf 053f
00000310: cebf 713e 4e42 453f 1b54 883f bfb7 5a3e

hid.0.bias f4 [100]
-0.26717252 -0.516368 -0.19142044 -0.111158 0.2436666 -0.14879006 -0.12736733 -0.04337345
0.1220839 -0.18286629 -0.3632577 -0.062326666 0.042394456 0.07318582 -0.031432096 0.21407631
0.041011117 0.071108505 0.050230023 -0.26542354 -0.03151855 -0.40246862 0.13288058 0.020090133
-0.055210765 -0.12815888 -0.099390015 -0.24541597 0.17254756 0.004339253 -0.33990574 -0.022023842
0.16765647 -0.012720197 -0.1131925 -0.12137061 -0.05809698 -0.031977247 0.28713998 0.023168113
-0.37882602 -0.14087197 0.48278984 0.079516694 0.10169478 -0.11893458 0.018489126 -0.2578992
-0.029417181 0.51348233 0.047660302 -0.1786608 0.27751735 0.1897018 0.08491315 0.35692906
0.2650731 -0.14133286 0.35499012 0.1818141 -0.0769763 0.0153753795 -0.26652277 -0.14572982
-0.056404274 0.050480466 -0.11198147 -0.08494705 -0.040125612 -0.015476697 0.05275987 -0.15980446
-0.12070677 0.33620742 0.13005553 0.13918139 0.029301682 0.043100953 -0.12285851 0.09104846
-0.082103446 -0.10884542 -0.07386676 0.28959715 -0.18756267 0.026168374 0.09067342 0.13570032
-0.13800138 -0.0277407 -0.03287732 0.035040215 -0.21021691 -0.11280696 0.013647337 0.0040450585
0.05637584 0.11708007 0.20137726 -0.2087851
00000000: d6ca 88be b130 04bf b803 44be cea6 e3bd
00000010: bd83 793e 6c5c 18be 956c 02be 5ca8 31bd
00000020: 2007 fa3d 4d41 3bbe eafc b9be 3f4a 7fbd
00000030: cfa5 2d3d 72e2 953d f1be 00bd d236 5b3e
00000040: 46fb 273d 56a1 913d ffbd 4d3d 98e5 87be
00000050: 9819 01bd 5e10 cebe d911 083e 1094 a43c
00000060: af24 62bd 153c 03be fe8c cbbd 534e 7bbe
00000070: 4fb0 303e 4b30 8e3b 2008 aebe 586b b4bc
00000080: 23ae 2b3e 6068 50bc 78d1 e7bd 2891 f8bd
00000090: 19f7 6dbd 93fa 02bd 0304 933e 0ecb bd3c
000000a0: 7cf5 c1be be40 10be 3b30 f73e a6d9 a23d
000000b0: 5a45 d03d f993 f3bd 8276 973c 5d0b 84be
000000c0: 4dfc f0bc 9473 033f 7337 433d dbf2 36be
000000d0: c116 8e3e 3041 423e f2e6 ad3d 68bf b63e
000000e0: a9b7 873e 90b9 10be 44c1 b53e 7a2d 3a3e
000000f0: c0a5 9dbd 04e9 7b3c ac75 88be 333a 15be
00000100: 2b08 67bd 9bc4 4e3d 8a56 e5bd b8f8 adbd
00000110: c15a 24bd f991 7dbc bc1a 583d c8a3 23be
00000120: 1c35 f7bd 6123 ac3e 472d 053e 9185 0e3e
00000130: 150a f03c a08a 303d 3e9d fbbd 9d77 ba3d
00000140: da25 a8bd 59ea debd 7547 97bd 1446 943e
00000150: 6e10 40be 0f5f d63c fcb2 b93d 06f5 0a3e
00000160: 3c50 0dbe 7740 e3bc 5eaa 06bd 5486 0f3d
00000170: 1a43 57be 5607 e7bd 1599 5f3c 698c 843b
00000180: 5aea 663d adc7 ef3d d735 4e3e c3cb 55be

hid.1.weight f4 [100, 100]
-0.09476382 -0.086621515 -0.017133769 -0.09316418 -0.025062518 -0.06370028 -0.02341769 0.041086286
-0.01361599 -0.056920346 0.037184015 0.12797828 -0.008873053 -0.04231097 -0.011093972 -0.011145622
0.039221875 0.080173366 0.029910078 0.04696264 -0.054520376 0.099191405 -0.024900502 0.012740458
-0.20323852 0.016667366 -0.10871035 -0.028103378 -0.04221375 0.009140423 0.052656848 -0.08628305
0.10393735 0.08979732 -0.080400765 0.103376836 -0.005685561 0.1550054 -0.106748484 -0.1904331
0.012579544 0.014721939 -0.13819912 -0.10141094 0.09604976 -0.014626235 -0.13124196 0.07586796
0.019301912 -0.011622297 -0.04345677 0.08911722 -0.033274025 0.03386461 0.06162255 -0.15041035
-0.19790357 0.007731572 0.033995375 0.039506797 -0.07420396 -0.100659646 -0.063171364 0.065176785
-0.010725937 0.08984269 -0.08713463 -0.009389887 -0.0070458716 -0.019285759 0.092960246 0.008885149
0.067058034 -0.025754899 0.06617954 -0.13725947 0.029164674 0.18571913 -0.03314218 0.029950952
0.020709708 0.027107542 0.04943865 -0.012766664 -0.033351835 0.031632416 -0.092963465 -0.044727407
0.0011312867 -0.07155832 -0.033551943 -0.00396222 0.0284533 -0.04779882 0.016280698 0.11154774
0.06342358 -0.13984254 0.053162772 0.08273127 -0.020875871 -0.10678741 0.049626563 0.033680618
-0.09016428 -0.09066599 0.028889436 0.062690705 -0.092428364 0.049838297 -0.06561635 0.056888875
0.10015374 -0.037543137 -0.15645196 -0.010944194 0.04332517 -0.08064862 -0.04333137 -0.06627863
-0.089217715 -0.060460452 -0.017363882 0.036986183 -0.092571214 -0.030820277 0.1184059 -0.079524755
-0.1609406 0.0043668747 -0.19694361 -0.07287566 0.018031532 -0.029335286 0.081809364 0.0008130407
0.007901651 0.034471367 0.061794873 0.14088178 0.04766548 0.0729983 0.066238195 -0.040277075
-0.10869938 0.077529974 -0.052966774 -0.04422275 0.032010473 -0.057140585 0.0775771 0.04505754
0.12391593 0.08650628 0.11249743 -0.062502556 -0.15640254 -0.14850101 0.1954787 -0.046886012
-0.032461222 -0.056898825 -0.011370173 -0.13585389 -0.075507626 -0.029708536 -0.041700453 0.038189773
-0.051908486 -0.011845604 -0.14953756 -0.09674287 -0.046739854 0.048088763 -0.063738585 0.046659496
0.1619329 -0.14880309 -0.12470918 -0.035992246 -0.0704221 0.13050866 -0.10738872 -0.008258905
0.06625386 -0.09235396 0.064806685 -0.022383867 0.0634196 0.07141782 -0.043191887 0.041475914
0.015053312 0.027144685 -0.053105146 -0.109124385 -0.022657318 -0.00081045355 -0.109527126 -0.009048678
-0.06442208 0.056585126 -0.07621789 0.066169925 0.11141751 0.021791477 0.0005396113 0.016635124
0.071036994 0.09789347 0.0041459906 0.0054776357 0.05355374 0.08467 -0.026532292 0.009933409
0.06926366 -0.02723075 -0.08941902 0.0046404228 0.13379578 -0.054176006 -0.06516396 0.11020712
-0.004839119 0.113164574 0.09789826 0.07675741 -0.0042715888 -0.010712098 -0.07198063 -0.0008604659
0.033150457 -0.088086754 0.015720619 0.04422455 0.1296537 -0.098158404 -0.013321026 0.06428695
0.07574528 -0.043370284 0.016912093 0.24467841 -0.09536027 0.03203772 -0.11900318 -0.12335713
0.035124075 0.048829414 0.012384716 -0.011822519 0.22642367 0.01727872 0.009884389 -0.037708525
00000000: 8913 c2bd 9f66 b1bd 1e5c 8cbc ddcc bebd
00000010: e94f cdbc 4b75 82bd 75d6 bfbc 184a 283d
00000020: 9a15 5fbc 4f25 69bd 444e 183d bd0c 033e
00000030: 4860 11bc 454e 2dbd 7ec3 35bc 209c 36bc
00000040: 1ea7 203d ef31 a43d fb05 f53c e65b 403d
00000050: c250 5fbd dd24 cb3d 23fc cbbc 5bbd 503c
00000060: c21d 50be 008a 883c 88a3 debd 0e39 e6bc
00000070: 53e8 2cbd b6c1 153c b5ae 573d 2bb5 b0bd
00000080: 1bdd d43d a8e7 b73d 28a9 a4bd 3cb7 d33d
00000090: f14d babb bcb9 1e3e f39e dabd e500 43be
000000a0: 6f1a 4e3c 4a34 713c 1284 0dbe 8ab0 cfbd
000000b0: bdb5 c43d e0a2 6fbc 4b64 06be a960 9b3d
000000c0: 0b1f 9e3c 726b 3ebc baff 31bd 1783 b63d
000000d0: 584a 08bd 9eb5 0a3d ed67 7c3d 2c05 1abe
000000e0: 3ca7 4abe 2059 fd3b bc3e 0b3d e1d1 213d
000000f0: 3ff8 97bd a526 cebd fd5f 81bd 687b 853d
00000100: d7bb 2fbc 72ff b73d a473 b2bd 0ad8 19bc
00000110: 0ee1 e6bb 2bfd 9dbc f161 be3d 0493 113c
00000120: b955 893d f0fb d2bc 2389 873d bf8d 0cbe
00000130: c1ea ee3c 282d 3e3e 18c0 07bd b35b f53c
00000140: 68a7 a93c a310 de3c 2f80 4a3d 452b 51bc
00000150: ef9b 08bd fe90 013d a163 bebd 1634 37bd
00000160: af47 943a 2b8d 92bd c36d 09bd 83d5 81bb
00000170: e516 e93c b2c8 43bd 195f 853c 2473 e43d
00000180: 39e4 813d e232 0fbe 35c1 593d 036f a93d
00000190: e003 abbc 5cb3 dabd 3945 4b3d b0f4 093d
000001a0: 0da8 b8bd 17af b9bd 8aa9 ec3c fc63 803d
000001b0: 154b bdbd 3e23 4c3d dd61 86bd 4f04 693d
000001c0: 671d cd3d d5c6 19bd f134 20be 474f 33bc
000001d0: bc75 313d 1b2b a5bd 3c7c 31bd 17bd 87bd
000001e0: c7b7 b6bd 61a5 77bd b33e 8ebc d37e 173d
000001f0: fa95 bdbd ce7a fcbc cb7e f23d e0dd a2bd
00000200: 9dcd 24be 0018 8f3b 96ab 49be d63f 95bd
00000210: ddb6 933c 8e50 f0bc ab8b a73d 3d22 553a
00000220: ed75 013c d931 0d3d 9f1c 7d3d 5043 103e
00000230: e13c 433d 2280 953d e4a7 873d 93f9 24bd
00000240: c89d debd 09c8 9e3d b0f3 58bd ea22 35bd
00000250: 6a1d 033d 3f0c 6abd bee0 9e3d 418e 383d
00000260: a3c7 fd3d 342a b13d 0d65 e63d 5701 80bd
00000270: fd27 20be a610 18be 912b 483e 8c0b 40bd
00000280: 0ff6 04bd be0e 69bd f649 3abc 481d 0bbe
00000290: bea3 9abd 515f f3bc 18ce 2abd e16c 1c3d
000002a0: fe9d 54bd 1014 42bc 6020 19be 2021 c6bd
000002b0: 4a72 3fbd b9f8 443d 6089 82bd 071e 3f3d
000002c0: bdd1 253e d65f 18be 8767 ffbd 9b6c 13bd
000002d0: 7639 90bd 10a4 053e 9eee dbbd 5c50 07bc
000002e0: 1bb0 873d 1324 bdbd 5eb9 843d 5f5e b7bc
000002f0: 23e2 813d 8243 923d fae9 30bd a6e2 293d
00000300: 2ba2 763c 885e de3c c884 59bd 9b7c dfbd
00000310: d79b b9bc 9e74 54ba c24f e0bd e840 14bc
00000320: b9ef 83bd cec5 673d 2018 9cbd 1984 873d
00000330: dd2e e43d 0a84 b23c b474 0d3a 6246 883c
00000340: d87b 913d 5f7c c83d 17db 873b bd7d b33b
00000350: 2b5b 5b3d 7767 ad3d 405a d9bc bdbf 223c
00000360: 1bda 8d3d 0613 dfbc 5221 b7bd b00e 983b
00000370: c301 093e a9e7 5dbd af74 85bd 45b4 e13d
00000380: 7991 9ebb d4c2 e73d e27e c83d fd32 9d3d
00000390: aff8 8bbb cc81 2fbc 956a 93bd e490 61ba
000003a0: c6c8 073d d466 b4bd 87c8 803c cd24 353d
000003b0: f1c3 043e 4607 c9bd 6f40 5abc e0a8 833d
000003c0: 5720 9b3d 0aa5 31bd 3b8b 8a3c fa8c 7a3e
000003d0: 3f4c c3bd fc39 033d f0b7 f3bd aaa2 fcbd
000003e0: 43de 0f3d 5a01 483d 44e9 4a3c 3db3 41bc
000003f0: 9bdb 673e 1a8c 8d3c 22f2 213c 4174 1abd

hid.1.bias f4 [100]
-0.0018078543 -0.000929276 -0.00041209528 0.0033573618 -0.0018779105 -0.0005885196 -0.00037259367 0.0019037549
-0.00172534 0.001580425 0.0028284595 0.004945335 0.0019181424 -0.0007724217 -0.0024081937 0.0004168236
-0.0020691436 0.0016852269 0.0008459639 0.002476017 0.0011335711 0.0038925195 -0.0026644205 0.0029072838
-0.0029485503 -0.0011902956 0.0004506853 -0.00034154518 -0.0016093358 0.0014436392 0.0018219484 -0.0060406653
-0.0019185091 0.0011343207 -0.00053675094 -0.002395317 0.0030701698 0.0017476997 0.00085145514 0.001475457
0.000550355 2.1170135e-05 -0.00040138693 -0.0024031522 0.000747893 -0.00015440093 -0.0021478643 -0.0008269586
0.001386153 -0.0007229378 0.0018465242 -0.002081105 -0.00065061485 -0.0013929984 0.0009494532 0.00060443487
0.00081660063 0.0027661545 -0.00044118596 -0.006367814 -0.0029131672 0.0013218214 -0.0014392491 -0.0054288614
-0.000783002 0.000720417 -0.00030268478 0.0018100267 -0.0032283906 0.0002985762 -0.00054886856 -0.00037036193
0.00033932235 0.0018571275 8.514977e-05 0.0014402342 0.00054609525 -0.0024594532 -0.0011970814 0.0014942677
0.0016589869 0.004266146 -0.0062676687 -0.0005995268 0.0021427628 0.00071269076 0.0009977049 0.001017213
0.0025853436 -0.0019364697 0.0017969307 0.0007276067 -0.0025472639 -0.0050586816 -0.00033021937 0.001071474
-0.0010953163 -0.0032163453 0.0007795566 0.0002724082
00000000: 86f5 ecba a89a 73ba 7e0e d8b9 2f07 5c3b
00000010: 3824 f6ba e246 1aba ad58 c3b9 6a87 f93a
00000020: ce24 e2ba 4326 cf3a ad5d 393b 7a0c a23b
00000030: 2e6a fb3a 587c 4aba c9d2 1dbb 1e89 da39
00000040: 789a 07bb d5e2 dc3a adc3 5d3a ac44 223b
00000050: 5694 943a a419 7f3b 8f9d 2ebb 2188 3e3b
00000060: 773c 41bb b103 9cba f549 ec39 6b11 b3b9
00000070: 59f0 d2ba 7e38 bd3a 72ce ee3a c6f0 c5bb
00000080: 7c76 fbba 7dad 943a bfb4 0cba c0fa 1cbb
00000090: e734 493b 1213 e53a 3034 5f3a 1f64 c13a
000000a0: b345 103a 8596 b137 3e71 d2b9 347e 1dbb
000000b0: 400e 443a afe6 21b9 2fc3 0cbb 41c8 58ba
000000c0: 94af b53a 8983 3dba 1207 f23a 2663 08bb
000000d0: 068e 2aba 4595 b6ba bae4 783a f072 1e3a
000000e0: 2411 563a 5f48 353b fa4e e7b9 18a9 d0bb
000000f0: d6ea 3ebb f740 ad3a 30a5 bcba 97e4 b1bb
00000100: 6042 4dba 5eda 3c3a aab1 9eb9 6b3e ed3a
00000110: 6893 53bb 388a 9c39 f2e1 0fba 232d c2b9
00000120: 13e7 b139 dc6a f33a 6f92 b238 3ec6 bc3a
00000130: d527 0f3a c72e 21bb 63e7 9cba 4edb c33a
00000140: 5d72 d93a 07cb 8b3b 0461 cdbb 9029 1dba
00000150: 986d 0c3b ded3 3a3a 6cc5 823a 0154 853a
00000160: de6e 293b 24d1 fdba fd86 eb3a dcbc 3e3a
00000170: ffef 26bb 4cc3 a5bb 4b21 adb9 b470 8c3a
00000180: b790 8fba 52c9 52bb 285b 4c3a 02d2 8e39

hid.2.weight f4 [100, 100]
-0.014172292 0.1398691 -0.10953043 0.03443344 -0.038589034 0.1561643 -0.027058337 0.0089045605
0.13503207 -0.026065795 0.011776318 -0.019873388 -0.06074713 -0.1344678 -0.113143735 -0.061708685
-0.05816646 -0.13147806 -0.12767382 -0.10170065 -0.025536906 -0.10024014 -0.014239957 -0.01848958
0.08738563 -0.03958853 0.037175637 0.01986366 -0.15081474 -0.024621436 0.07254014 -0.03448148
0.0048713633 -0.07445714 0.0545313 0.110915124 -0.046432257 0.033457093 -0.08518275 -0.07462347
-0.011957655 0.02957052 0.042225298 -0.0013053248 0.100357026 0.057633348 0.16461384 0.07581522
0.025084192 -0.04575473 0.0836581 -0.04834579 -0.086336225 0.08646114 0.00063139474 -0.051830124
-0.11690005 0.04591111 -0.09967184 0.12719275 0.044469118 0.022927677 0.010418231 0.012735183
0.08811322 0.044437617 -0.030874271 0.032072287 -0.074388854 0.029391764 -0.14972432 0.057793505
0.024977988 -0.023787288 -0.035072498 -0.040698554 0.09583133 0.018782092 -0.036012523 -0.06863923
0.013977436 0.019587388 0.120305136 0.04373938 0.16266765 -0.0009897171 -0.001340833 0.062213924
0.022391992 -0.109558165 0.10150778 -0.014522189 -0.03417123 0.14661561 -0.037042208 0.04922452
0.110736966 0.015827725 -0.026553191 -0.10854941 0.14827733 -0.09651096 0.029432163 0.027534517
-0.009393 0.0063684634 0.0609627 0.06659976 0.068054385 0.033661146 -0.006165019 -0.07948924
-0.121536024 0.037532352 -0.05732221 0.09161397 0.016658898 0.19346209 0.008613669 -0.037110362
0.04300704 -0.011081686 -0.06700079 0.03391222 -0.014240523 -0.0454215 -0.0059687234 0.04094632
-0.045340274 -0.06066632 -0.03634404 0.090263724 -0.025939694 -0.08236707 -0.050910946 -0.0046430347
-0.10382079 0.0699268 -0.10724804 0.011328057 0.078538835 0.08320909 0.07469446 0.099943705
0.038094535 -0.02301476 0.018300213 -0.022786627 0.11202228 0.021221336 -0.023955597 0.11549213
-0.003029927 0.041963547 0.06983373 0.052749116 -0.07379205 0.016195145 -0.033383768 0.013645231
0.15381248 0.07207516 -0.10804606 0.08442121 -0.017034 -0.09516448 -0.0016843646 0.00863655
0.03167147 0.055547755 0.0035710596 -0.06883918 -0.0040017883 -0.013717021 0.017023245 0.10842396
0.014363301 0.073539294 -0.10183685 -0.09863231 -0.03164822 0.038739234 -0.049140368 0.07142233
0.1519327 0.06611822 -0.10230262 0.024742331 0.011866382 0.13475528 -0.0693238 0.10263506
-0.14478984 0.12526752 0.020240827 -0.024256859 0.018059142 0.016544374 -0.04897664 -0.0022792944
-0.06228644 -0.028784057 0.012705909 -0.114401475 -0.09675106 -0.036174186 -0.05709094 0.07748763
0.045421496 0.08109589 -0.09969769 0.04155936 0.03715556 0.068044215 0.07886574 -0.09480619
-0.08520034 -0.068797715 -0.12710702 -0.014014594 -0.034904223 0.10037203 -0.10412054 -0.08630057
-0.009767504 -0.037897397 -0.0075337826 0.025908265 -0.0015910703 0.04365245 -0.03972117 0.055193122
-0.062069405 0.008725574 0.0828115 -0.07333819 0.05077764 -0.026811933 0.06366288 0.014181997
0.10437743 -0.11974317 0.098537005 -0.0363028 -0.0034557995 -0.07419615 -0.013450089 0.04280572
0.11904731 0.006916368 -0.13474742 -0.06265055 0.13607664 0.075560294 -0.04538458 0.103170134
00000000: e732 68bc d839 0f3e 7d51 e0bd 140a 0d3d
00000010: 890f 1ebd 89e9 1f3e 72a9 ddbc 6fe4 113c
00000020: d945 0a3e ef87 d5bc 75f1 403c 84cd a2bc
00000030: fcd1 78bd edb1 09be e7b7 e7bd 3fc2 7cbd
00000040: f43f 6ebd 2fa2 06be edbc 02be 6e48 d0bd
00000050: c632 d1bc b44a cdbd b54e 69bc 7677 97bc
00000060: 3df7 b23d 9527 22bd 7b45 183d 1db9 a23c
00000070: 2e6f 1abe e5b2 c9bc ed8f 943d 743c 0dbd
00000080: f59f 9f3b fc7c 98bd 365c 5f3d 7827 e33d
00000090: c02f 3ebd 4e0a 093d 4b74 aebd 31d4 98bd
000000a0: 0aea 43bc e03d f23c 6ff4 2c3d 6f17 abba
000000b0: fc87 cd3d f210 6c3d 8890 283e 0345 9b3d
000000c0: 5d7d cd3c 5069 3bbd f054 ab3d 3c06 46bd
000000d0: 0cd1 b0bd 8a12 b13d 2f84 253a d34b 54bd
000000e0: 4b69 efbd 4a0d 3c3d c020 ccbd d13e 023e
000000f0: 4025 363d d3d2 bb3c 3ab1 2a3c 3ba7 503c
00000100: b474 b43d 3804 363d 0aec fcbc 3b5e 033d
00000110: 2f59 98bd ffc6 f03c 5551 19be e2b8 6c3d
00000120: a39e cc3c 8fdd c2bc 2ea8 0fbd 87b3 26bd
00000130: 3743 c43d e7dc 993c de81 13bd ba92 8cbd
00000140: 9e01 653c bb75 a03c 8a62 f63d 1028 333d
00000150: 5992 263e 65b9 81ba e4be afba 07d4 7e3d
00000160: 696f b73c 0860 e0bd 50e3 cf3d 7aee 6dbc
00000170: 22f7 0bbd 6722 163e 92b9 17bd a69f 493d
00000180: 10ca e23d 25a9 813c 1486 d9bc 274f debd
00000190: 03d6 173e 8aa7 c5bd b81b f13c 1190 e13c
000001a0: 19e5 19bc 8bae d03b 06b4 793d 7465 883d
000001b0: 1960 8b3d 45e0 093d ed03 cabb 41cb a2bd
000001c0: e1e7 f8bd 86bb 193d b2ca 6abd 1ba0 bb3d
000001d0: 3e78 883c ed1a 463e 5920 0d3c 0901 18bd
000001e0: 2628 303d f68f 35bc b637 89bd 8ae7 0a3d
000001f0: 1551 69bc e50b 3abd 4895 c3bb 54b7 273d
00000200: b9b6 39bd 3f7d 78bd 7ddd 14bd 30dc b83d
00000210: 7b7f d4bc 11b0 a8bd ff87 50bd 9924 98bb
00000220: ff9f d4bd c835 8f3d dca4 dbbd 5199 393c
00000230: f8d8 a03d 8769 aa3d 69f9 983d 49af cc3d
00000240: 0409 1c3d 7389 bcbc 54ea 953c 05ab babc
00000250: f06b e53d 5ed8 ad3c 873e c4bc 2387 ec3d
00000260: bd91 46bb f8e1 2b3d fd04 8f3d 750f 583d
00000270: 4920 97bd aeab 843c 6bbd 08bd 3f90 5f3c
00000280: 0581 1d3e 249c 933d 4147 ddbd 07e5 ac3d
00000290: e38a 8bbc 98e5 c2bd e6c5 dcba 5180 0d3c
000002a0: f1b9 013d 0b86 633d 7008 6a3b 8efb 8cbd
000002b0: 6f21 83bb 5bbd 60bc 5574 8b3c 620d de3d
000002c0: 0d54 6b3c c59b 963d d78f d0bd bdff c9bd
000002d0: 90a1 01bd 08ad 1e3d 6947 49bd df45 923d
000002e0: 3f94 1b3e fd68 873d 0984 d1bd 6eb0 ca3c
000002f0: 376b 423c 4afd 093e a3f9 8dbd 5532 d23d
00000300: ca43 14be 2146 003e 17d0 a53c 52b6 c6bc
00000310: c4f0 933c 1188 873c bb9b 48bd 3760 15bb
00000320: 1120 7fbd 8bcc ebbc 722c 503c 524b eabd
00000330: 6b25 c6bd 622b 14bd 31d8 69bd d6b1 9e3d
00000340: e40b 3a3d 9a15 a63d 4d2e ccbd 263a 2a3d
00000350: 6e30 183d c45a 8b3d 5c84 a13d bf29 c2bd
00000360: 847d aebd d1e5 8cbd 5828 02be 789d 65bc
00000370: bbf7 0ebd da8f cd3d 263d d5bd 5abe b0bd
00000380: e207 20bc 4d3a 1bbd f3dd f6bb 923d d43c
00000390: 768b d0ba e9cc 323d aab2 22bd 2f12 623d
000003a0: 7d3c 7ebd b6f5 0e3c 1399 a93d 5532 96bd
000003b0: 37fc 4f3d b3a4 dbbc af61 823d 9b5b 683c
000003c0: d6c3 d53d e83b f5bd c5cd c93d 3fb2 14bd
000003d0: b27a 62bb 27f4 97bd c35d 5cbc 0d55 2f3d
000003e0: 13cf f33d b3a2 e23b 3afb 09be ee4e 80bd
000003f0: ad57 0b3e 5bbf 9a3d 2ee5 39bd dd4a d33d

hid.2.bias f4 [100]
-0.0035689943 0.003633184 0.0026800656 0.0010313973 -0.00036600258 0.0003063105 0.002254427 0.0008183384
-0.0033883094 2.7769684e-05 -0.0016430594 -0.00066730485 0.0019653891 -0.0031954262 -0.0072293165 -0.0004909091
0.00024682918 0.0006669875 -0.0023137683 -0.003835597 0.000621806 -0.0015250867 -0.00032618846 -0.006617492
-0.00065875845 -0.003206166 0.002180758 0.0019756916 -0.0030385428 -0.0011779554 -0.0024459783 -0.0011992928
0.0010997818 -0.0012859656 0.0022175503 0.0006101884 -0.0025335823 -0.0014746499 -0.0013287724 -0.0008310244
-0.0007162883 -0.0049183886 0.001899431 -7.064427e-05 0.0021499891 0.0027685678 0.0010840193 -0.0031946148
-0.0047771838 0.001195554 -0.0038017738 0.0022605404 0.0002930104 -0.0006041233 -0.009942931 0.0002566316
-0.0010986091 0.0013148042 -0.0011343061 0.0037448509 0.000101477875 -7.622056e-05 0.0017684912 -0.0032271512
-0.006987404 -0.0006914066 -0.0039094463 -0.0017840029 -0.0019659938 4.0750412e-05 -0.0037099442 -0.0009291551
0.0008880943 -0.005844804 0.00013986537 0.0016606012 0.0045383167 -0.004553175 0.007853059 0.0040406543
-0.0018366412 0.003801012 -0.0064086197 0.007409226 -0.0032530893 -0.00068836764 0.0013871585 -0.0008479007
0.003097331 0.000364857 -0.0061217328 0.0021503575 0.004170046 0.00076579204 0.0020511267 -0.00035804897
0.004824242 0.0027637356 -0.0008758896 -0.0021611871
00000000: cae5 69bb b61a 6e3b 0aa4 2f3b f32f 873a
00000010: 09e4 bfb9 4d98 a039 02bf 133b c385 563a
00000020: 660e 5ebb f1f2 e837 ed5b d7ba 12ee 2eba
00000030: c2cd 003b 5b6a 51bb e7e3 ecbb 5ab0 00ba
00000040: da68 8139 c6d8 2e3a 97a2 17bb a45e 7bbb
00000050: b200 233a 6be5 c7ba 4604 abb9 8cd7 d8bb
00000060: 88b0 2cba 8a1e 52bb 0ceb 0e3b 9b7a 013b
00000070: 4a22 47bb a065 9aba b54c 20bb 9731 9dba
00000080: 8e26 903a d88d a8ba 5254 113b 0df5 1f3a
00000090: 750a 26bb 0a49 c1ba 342a aeba 1ad9 59ba
000000a0: 4bc5 3bba 6f2a a1bb 54f6 f83a db26 94b8
000000b0: d5e6 0c3b dc70 353b a715 8e3a be5c 51bb
000000c0: ec89 9cbb 23b4 9c3a 2e27 79bb 9325 143b
000000d0: 319f 9939 075e 1eba ade7 22bc 838c 8639
000000e0: 34ff 8fba 8255 ac3a ffac 94ba 2c6c 753b
000000f0: 85d0 d438 9ad8 9fb8 b8cc e73a 9d7e 53bb
00000100: 98f6 e4bb 833f 35ba d01a 80bb 34d5 e9ba
00000110: e7d7 00bb 6ceb 2a38 8922 73bb 8b92 73ba
00000120: 00cf 683a c585 bfbb d3a8 1239 88a8 d93a
00000130: 29b6 943b cd32 95bb 1eaa 003c 7767 843b
00000140: 74bb f0ba 661a 793b 66ff d1bb 18c9 f23b
00000150: c831 55bb 9273 34ba 51d1 b53a a745 5eba
00000160: 97fc 4a3b 474a bf39 d198 c8bb 03ed 0c3b
00000170: e2a4 883b 6fbf 483a 326c 063b 85b8 bbb9
00000180: ad14 9e3b ca1f 353b f59b 65ba b4a2 0dbb

hid.3.weight f4 [100, 100]
-0.005405836 -0.051820736 0.090356454 -0.09585479 0.11312643 0.08588348 -0.11091307 -0.052213363
-0.08053214 0.027719846 0.06170151 0.097920276 -0.15328626 -0.030535782 0.13637516 -0.14573444
0.06831861 0.013913293 -0.09876894 -0.0010849722 -0.04621458 -0.016153172 0.12021572 0.053056672
0.032063145 -0.049248513 0.025592817 -0.14048061 0.07513994 -0.008462366 0.045991544 -0.08009271
0.0631075 0.05938595 0.121028416 0.032648597 -0.1384195 0.026190555 0.022366306 -0.114908084
0.020595232 -0.043546304 -0.1039878 0.027706714 -0.1250599 -0.07437321 0.114558876 -0.049499735
-0.020530822 0.04740349 0.004458882 0.096350774 -0.008258437 -0.07865469 0.06260408 0.043063942
0.03484424 -0.0072445674 0.011363242 -0.024583964 -0.040552605 0.08183194 -0.06257027 0.10746122
0.058294345 0.0123805655 -0.048909195 0.07296637 0.09521162 0.04197878 -0.10439016 0.11977365
-0.070371084 0.12060479 0.037151396 -0.0835071 0.0057264296 -0.15051438 -0.034856524 -0.002353475
-0.054352302 0.1034994 -0.026533758 0.06504183 0.07364311 -0.047138974 -0.0663533 0.049518947
0.038881805 0.04808301 0.0848753 0.032875054 -0.17218767 -0.012152846 -0.107811846 -0.16036339
-0.13992828 -0.056667093 0.009430696 0.09487542 0.057237014 0.06777861 0.17743182 -0.015322616
-0.0012676588 0.13335417 -0.013320188 -0.1509312 0.0044764667 0.009862921 0.09369391 -0.0129494555
-0.052756336 -0.024300285 0.014347641 -0.06860232 0.049104188 0.014195876 0.093279846 -0.102899216
-0.1078438 -0.08707658 0.03226632 -0.088485666 -0.15947644 -0.04357332 -0.05480738 0.03699361
0.07666584 -0.016047837 -0.020901175 -0.1325685 0.03461816 -0.031057099 0.09686332 0.097568884
-0.023509117 0.09709846 0.037882313 0.08156994 0.10875012 -0.012334796 0.09760327 -0.10379085
0.06771468 -0.0925875 -0.083815075 -0.022479376 0.012834998 0.028128322 0.028880317 0.019034762
-0.00026131282 -0.10907932 0.097780086 0.06806178 -0.043679498 -0.11974698 0.17371161 0.024135321
0.025028639 -0.07010158 0.024443334 0.072851315 0.06517554 -0.0027170628 0.046662368 0.034893878
-0.034713607 -0.012186627 -0.14492343 0.03708993 -0.04247365 -0.058986656 0.05800869 -0.08318294
-0.0778498 -0.12824327 -0.024273694 -0.16410679 -0.024280088 -0.03197782 0.041660905 0.12906447
0.051927 0.03793526 0.15017676 0.07719083 -0.011624034 0.021790871 0.069790594 -0.08891456
0.036775097 0.045011368 -0.09579788 0.1391971 0.1306737 0.007388281 0.13489251 0.055214416
0.066925235 -0.01181094 -0.031061558 0.17976698 0.062412623 -0.07165288 0.021985298 -0.07338111
0.063784145 0.043494068 0.039456747 -0.014923491 -0.12909414 0.07781293 0.123687916 -0.12993011
-0.12756282 0.021592883 0.10589321 0.034359094 0.06298605 -0.08646218 0.124956645 -0.001690461
-0.021194035 -0.07680071 0.02922255 -0.024154479 -0.004949033 0.07169212 0.22656274 -0.031527855
0.108395435 0.14968091 -0.021952359 -0.031777818 0.101027325 -0.082941465 -0.19436559 -0.013631404
-0.10905968 -0.08696852 0.005554626 -0.102939755 -0.033377126 -0.027727047 -0.06986916 -0.044186518
-0.047828022 -0.067624845 0.008398154 0.0053943465 -0.031830765 -0.0066755023 -0.07238297 0.079693735
00000000: 7023 b1bb fb41 54bd ce0c b93d 844f c4bd
00000010: d4ae e73d aee3 af3d 6426 e3bd aedd 55bd
00000020: 09ee a4bd bb14 e33c b9ba 7c3d 6d8a c83d
00000030: 13f7 1cbe 2d26 fabc eea5 0b3e 693b 15be
00000040: a1ea 8b3d 95f4 633c 5f47 cabd a035 8eba
00000050: 804b 3dbd a853 84bc a933 f63d f451 593d
00000060: a554 033d cfb8 49bd 07a8 d13c 26da 0fbe
00000070: f8e2 993d bca5 0abc a161 3c3d a607 a4bd
00000080: 813e 813d af3e 733d bfdd f73d 89ba 053d
00000090: d7bd 0dbe 938d d63c 8b39 b73c ee54 ebbd
000000a0: 55b7 a83c 9c5d 32bd 8ef7 d4bd 31f9 e23c
000000b0: b40f 00be fb50 98bd d89d ea3d 3cc0 4abd
000000c0: 4130 a8bc 292a 423d d01b 923b 8e53 c53d
000000d0: 654e 07bc b615 a1bd 9136 803d d163 303d
000000e0: d5b8 0e3d d663 edbb e42c 3a3c 4f64 c9bc
000000f0: 7d1a 26bd 8197 a73d d724 80bd a114 dc3d
00000100: 0dc6 6e3d dbd7 4a3c 0255 48bd 646f 953d
00000110: 4ffe c23d f1f1 2b3d 82ca d5bd e34b f53d
00000120: b71e 90bd a5ff f63d 102c 183d c505 abbd
00000130: c6a4 bb3b 7120 1abe b7c5 0ebd c23c 1abb
00000140: 85a0 5ebd 7ef7 d33d 535d d9bc a734 853d
00000150: 33d2 963d cc14 41bd 3de4 87bd 61d4 4a3d
00000160: 8742 1f3d b1f2 443d 1ad3 ad3d fea7 063d
00000170: f751 30be bb1c 47bc 75cc dcbd 4d36 24be
00000180: 5c49 0fbe c11b 68bd 3583 1a3c 0b4e c23d
00000190: 5c71 6a3d 83cf 8a3d b0b0 353e b60b 7bbc
000001a0: 9227 a6ba ff8d 083e eb3c 5abc b58d 1abe
000001b0: 53af 923b 1798 213c 98e2 bf3d f429 54bc
000001c0: 0717 58bd 6411 c7bc 5e12 6b3c 607f 8cbd
000001d0: 7921 493d d295 683c 8109 bf3d d3bc d2bd
000001e0: 36dd dcbd 3555 b2bd b029 043d f937 b5bd
000001f0: cb4d 23be f079 32bd b47d 60bd 9d86 173d
00000200: fb02 9d3d c176 83bc f138 abbc 09c0 07be
00000210: c6cb 0d3d 756b febc 4760 c63d 32d2 c73d
00000220: 3196 c0bc 8fdb c63d 7c2a 1b3d 240e a73d
00000230: 62b8 de3d e217 4abc 39e4 c73d 4c90 d4bd
00000240: ffad 8a3d 849e bdbd 3da7 abbd ab26 b8bc
00000250: e249 523c 5e6d e63c 6a96 ec3c caee 9b3c
00000260: d000 89b9 fb64 dfbd ed40 c83d f963 8b3d
00000270: 46e9 32bd e83d f5bd 75e1 313e 70b7 c53c
00000280: dc08 cd3c 6b91 8fbd 633d c83c 1233 953d
00000290: c17a 853d c010 32bb 0a21 3f3d e2ec 0e3d
000002a0: db2f 0ebd 6baa 47bc cf66 14be 9ceb 173d
000002b0: daf8 2dbd fe9b 71bd 859a 6d3d d15b aabd
000002c0: b76f 9fbd 3452 03be a0d9 c6bc 9c0b 28be
000002d0: 09e7 c6bc 2dfb 02bd a0a4 2a3d 7a29 043e
000002e0: 68b1 543d 0162 1b3d f0c7 193e 3a16 9e3d
000002f0: bb72 3ebc c582 b23c 5fee 8e3d d618 b6bd
00000300: 7ca1 163d d75d 383d ae31 c4bd af89 0e3e
00000310: 54cf 053e 6519 f23b 4321 0a3e 8328 623d
00000320: 1910 893d ac82 41bc cf74 febc d614 383e
00000330: 61a4 7f3d bfbe 92bd 831a b43c d648 96bd
00000340: 43a1 823d d626 323d 669d 213d a881 74bc
00000350: 4131 04be 635c 9f3d 1750 fd3d 660c 05be
00000360: d49f 02be 8fe3 b03c 8ade d83d 1fbc 0c3d
00000370: d5fe 803d 1513 b1bd 45e9 ff3d 7592 ddba
00000380: 1d9f adbc b149 9dbd 2164 ef3c 9ddf c5bc
00000390: 7f2b a2bb 51d3 923d 1000 683e 5a23 01bd
000003a0: 6dfe dd3d f445 193e 6fd5 b3bc 7529 02bd
000003b0: 6ae7 ce3d 37dd a9bd c607 47be 4156 5fbc
000003c0: ae5a dfbd 8d1c b2bd 9503 b63b 14d2 d2bd
000003d0: 74b6 08bd d523 e3bc 9017 8fbd ecfc 34bd
000003e0: 51e7 43bd e57e 8abd 6998 093c 0fc3 b03b
000003f0: fa60 02bd 2cbe dabb 863d 94bd 7836 a33d

hid.3.bias f4 [100]
0.0008174914 7.52148e-05 0.0013232322 -0.0036754664 -0.006570191 -0.0019949197 0.0030889567 -0.0001717936
0.0039857537 -0.002977415 -0.00096892816 0.0010501688 0.0017331004 0.0066145393 0.0019543124 0.0012486798
-0.006640546 -0.007187955 0.008629409 -0.00011441108 0.0016531151 -0.0011860505 0.0063284603 -0.00016558488
-0.0034599798 0.0003110493 -0.0010699398 -0.0032477332 -8.150591e-05 -0.005940421 0.0072031193 -0.00268368
0.01079335 0.004333548 -0.005780864 0.0016689122 0.004157737 0.0036285387 -0.0068464344 -0.0048589204
-0.0006610222 -0.003419198 0.0046376646 0.0019429062 -0.00028612607 0.0026845091 0.0010881348 0.0023861537
-0.0068306145 0.004487022 0.0033439943 -0.0018399581 -0.0071125296 0.0003902942 -0.0021368156 0.01053936
-0.0011647041 0.0026554272 0.0059902496 -0.0040457095 -0.0003478582 0.0053399433 -0.0022908738 8.008853e-05
-0.005574955 0.001125303 -0.0018403459 -0.0017103489 -0.0016587427 0.0026828798 -0.0073181055 0.0020551719
0.0073008453 0.0013581032 -0.004388214 0.0069157667 -0.009754344 -0.0047630845 0.0009710408 0.0014896363
0.0017486715 0.0021124675 -0.00048369716 0.005590204 -0.0003553322 0.0075663547 0.0022746304 -1.1381738e-06
-0.0009589993 -0.0050734137 0.0012894326 0.0050547514 -0.0030003504 0.0010911116 -0.005064869 0.00029622638
-0.0053049144 0.0011043906 -0.005264593 0.0062236013
00000000: eb4c 563a a3bc 9d38 4e70 ad3a 18e0 70bb
00000010: c24a d7bb 33bd 02bb 1870 4a3b 7e23 34b9
00000020: ed9a 823b bc20 43bb abff 7dba d1a5 893a
00000030: 3329 e33a c7be d83b ec13 003b beaa a33a
00000040: f098 d9bb f088 ebbb 5d62 0d3c fbef efb8
00000050: 57ad d83a 4075 9bba f95e cf3b daa0 2db9
00000060: d4c0 62bb 5514 a339 393d 8cba ecd7 54bb
00000070: 27ee aab8 dda7 c2bb 2508 ec3b aee0 2fbb
00000080: 97d6 303c 6f00 8e3b 676d bdbb 67bf da3a
00000090: a03d 883b c7cc 6d3b 0e58 e0bb 9437 9fbb
000000a0: 7348 2dba a014 60bb 8df7 973b 1da9 fe3a
000000b0: 3103 96b9 97ee 2f3b bf9f 8e3a 0461 1c3b
000000c0: 59d3 dfbb de07 933b ea26 5b3b c02a f1ba
000000d0: 3910 e9bb 67a0 cc39 d109 0cbb 48ad 2c3c
000000e0: fca8 98ba ad06 2e3b db49 c43b df91 84bb
000000f0: bd60 b6b9 b1fa ae3b 7c22 16bb 34f5 a738
00000100: 1dae b6bb e77e 933a c337 f1ba c92d e0ba
00000110: 2b6a d9ba 41d3 2f3b b8cc efbb 10b0 063b
00000120: ee3b ef3b 6202 b23a 02cb 8fbb a89d e23b
00000130: afd0 1fbc a613 9cbb 728d 7e3a e63f c33a
00000140: ae33 e53a 5371 0a3b bc98 fdb9 082e b73b
00000150: e14b bab9 2fef f73b f711 153b 5bc3 98b5
00000160: 5b65 7bba e13e a6bb 2e02 a93a 54a2 a53b
00000170: 87a1 44bb a103 8f3a 33f7 a5bb d54e 9b39
00000180: d9d4 adbb 33c1 903a 9b82 acbb 5aef cb3b

hid.4.weight f4 [100, 100]
0.027083732 -0.111630954 -0.02126658 0.14127262 0.105115876 0.055171087 -0.055197872 -0.0023231464
0.09004458 -0.17186484 -0.008530368 -0.04242482 0.04781493 0.129481 -0.07874804 0.049746398
0.15130085 -0.036195982 0.063265935 0.036871273 0.0397844 -0.09310436 -0.032303065 -0.08912209
0.08951016 0.10371317 -0.021326223 -0.010260134 -0.033027247 -0.010227722 0.05171112 -0.032027256
0.08565766 -0.0027665743 0.024762537 0.03990185 -0.079378955 -0.016019978 0.02305459 -0.037137505
0.024750499 0.056286722 -0.07830989 -0.025562257 -0.012106042 -0.019226005 0.1034501 0.059961576
0.011085296 -0.1749677 -0.05093199 0.044426885 -0.047675475 0.024675496 0.010863469 -0.074921824
0.10093782 -0.017435154 0.13645254 -0.08774162 -0.014165757 0.00084969186 0.18906218 -0.048150435
0.096828654 0.09646857 0.12383798 0.046413608 0.028553592 -0.0630926 -0.06293031 -0.0828979
0.054735914 -0.042907625 0.017370943 0.068900526 -0.044738233 0.033829033 -0.045576517 0.09806768
-0.00039286222 -0.09521401 0.102022074 0.013602546 0.15463555 0.055755705 0.00037637528 -0.059903685
-0.13828018 -0.06275473 0.06600712 0.11374518 -0.022766853 0.08108681 0.028896771 -0.064229935
-0.0996976 -0.08106513 0.056125775 -0.053760238 -0.0054773 -0.06970037 0.018813875 -0.04605829
-0.0018866275 -0.013086906 0.051539138 0.08543463 0.04800968 -0.052952264 -0.01752858 0.0071748197
-0.0010122871 0.14008185 0.0075006373 -0.030658614 0.052486368 0.0920392 0.11376596 0.053752355
-0.1592948 0.10392827 0.12008789 0.12886871 -0.046033837 -0.008702386 0.10909746 -0.18282838
-0.017544879 -0.14265944 0.032540854 -0.21308392 -0.025905984 0.082441606 -0.13882068 0.059945587
0.063098304 0.040098384 -0.07586325 0.029584121 0.16399801 0.028287461 0.025751727 -0.11682114
0.06755394 0.029733885 0.07760458 -0.037161976 0.074367404 0.017339364 0.13759105 -0.017088868
-0.05403973 0.008029743 0.12806167 0.18876533 -0.03118615 -0.013492576 -0.012483149 -0.03497581
0.10138075 0.097185574 -0.033131603 -0.036067273 0.043758687 0.03529567 0.006822293 -0.039012358
0.07418819 -0.10653867 -0.10441252 -0.07369356 -0.116951935 0.024012722 -0.079215296 0.14049733
0.016932426 -0.1995517 0.0072895586 -0.051966097 0.030085156 0.12476528 0.041358855 -0.0062947604
-0.02216474 -0.041030105 0.09864163 -0.12724726 -0.0769809 0.031768695 0.06544263 0.113150805
0.07918262 -0.10073211 0.0103378035 -0.122790806 -0.18599117 0.015734427 -0.006058362 0.118924476
0.06711182 -0.09313788 -0.17060755 0.010054826 -0.0036431327 -0.06008804 0.024991313 -0.25574893
0.047510553 -0.080606796 -0.009373618 0.03318526 -0.06690437 -0.09329392 0.08943018 0.053155076
0.24161851 0.07539985 0.043874357 0.15727594 -0.06658465 -0.010183459 0.019800773 0.07583927
-0.011258179 0.098454155 -0.15006363 -0.15793534 0.06183248 -0.07480253 -0.16370538 -0.09194681
-0.008877695 -0.06348239 -0.05386219 -0.06545991 0.11568472 0.0242897 -0.03239804 -0.1434871
0.035136886 0.08404223 -0.08812245 -0.034869447 0.043968346 0.09214327 0.0005376581 0.12314977
0.0024006532 0.0037276763 -0.04896793 0.090764895 -0.051981386 -0.015883157 0.12217837 -0.056419235
00000000: b4de dd3c c59e e4bd 4037 aebc c5a9 103e
00000010: fe46 d73d 14fb 613d 2a17 62bd ee3f 18bb
00000020: 4b69 b83d 56fd 2fbe f5c2 0bbc a6c5 2dbd
00000030: 97d9 433d ab96 043e a746 a1bd e1c2 4b3d
00000040: 9cee 1a3e 3d42 14bd 9291 813d 5506 173d
00000050: f8f4 223d 80ad bebd 3850 04bd a485 b6bd
00000060: 1a51 b73d 9267 d43d 55b4 aebc 1f1a 28bc
00000070: 9447 07bd 2d92 27bc 0acf 533d 032f 03bd
00000080: 496d af3d 6a4f 35bb ceda ca3c 1f70 233d
00000090: 6f91 a2bd 543c 83bc fbdc bc3c 7f1d 18bd
000000a0: 8fc1 ca3c e88c 663d f060 a0bd f067 d1bc
000000b0: 6c58 46bc db7f 9dbc a5dd d33d 459a 753d
000000c0: 1a9f 353c bc2a 33be 109e 50bd f7f8 353d
000000d0: 5c47 43bd 4424 ca3c b1fc 313c 9d70 99bd
000000e0: 7db8 ce3d 2bd4 8ebc 37ba 0b3e e1b1 b3bd
000000f0: 7e17 68bc dbbd 5e3a 8499 413e 6439 45bd
00000100: 1a4e c63d 5091 c53d c49e fd3d 321c 3e3d
00000110: 39e9 e93c b136 81bd 9be1 80bd 60c6 a9bd
00000120: c432 603d e8bf 2fbd 824d 8e3c b81b 8d3d
00000130: 703f 37bd 5090 0a3d 71ae 3abd b5d7 c83d
00000140: 13f9 cdb9 90ff c2bd f3f0 d03d 37dd 5e3c
00000150: c858 1e3e 1860 643d 3c54 c539 915d 75bd
00000160: 5299 0dbe 8d85 80bd be2e 873d 3cf3 e83d
00000170: 8d81 babc d710 a63d ecb8 ec3c fc8a 83bd
00000180: 412e ccbd 7a05 a6bd 24e4 653d b233 5cbd
00000190: ec7a b3bb 11bf 8ebd 8e1f 9a3c 9ea7 3cbd
000001a0: b748 f7ba 766a 56bc b41a 533d 5af8 ae3d
000001b0: cca5 443d 79e4 58bd 1998 8fbc c01a eb3b
000001c0: b8ae 84ba 9e71 0f3e e8c7 f53b c627 fbbc
000001d0: f2fb 563d 0c7f bc3d 21fe e83d 6e2b 5c3d
000001e0: 2d1e 23be 58d8 d43d a4f0 f53d 29f6 033e
000001f0: fa8d 3cbd 7494 0ebc 7d6e df3d 5d37 3bbe
00000200: 47ba 8fbc 5115 12be 8f49 053d ac32 5abe
00000210: c938 d4bc 25d7 a83d 0227 0ebe 8189 753d
00000220: af39 813d 343e 243d 315e 9bbd 665a f23c
00000230: 18ef 273e 1bbb e73c 49f5 d23c ec3f efbd
00000240: b859 8a3d 7a94 f33c 26ef 9e3d 2837 18bd
00000250: f04d 983d 480b 8e3c abe4 0c3e f4fd 8bbc
00000260: c458 5dbd 2f8f 033c 9922 033e b34b 413e
00000270: 197a ffbc f70f 5dbc 1f86 4cbc cc42 0fbd
00000280: b6a0 cf3d 3b09 c73d 01b5 07bd 47bb 13bd
00000290: 4f3c 333d 3192 103d 8b8d df3b 6ccb 1fbd
000002a0: faef 973d f230 dabd 3bd6 d5bd a6ec 96bd
000002b0: 7f84 efbd 54b6 c43c a13b a2bd 88de 0f3e
000002c0: dfb5 8a3c 4857 4cbe 40dd ee3b 67da 54bd
000002d0: 2575 f63c f084 ff3d e767 293d 4744 cebb
000002e0: d492 b5bc 2f0f 28bd 9f04 ca3d 1b4d 02be
000002f0: 29a8 9dbd e41f 023d c906 863d 9cbb e73d
00000300: 7f2a a23d a34c cebd e45f 293c bf79 fbbd
00000310: 7874 3ebe 7ce5 803c 3985 c6bb ad8e f33d
00000320: ec71 893d 13bf bebd bfb3 2ebe ffbc 243c
00000330: a0c1 6ebb e01e 76bd 95ba cc3c 86f1 82be
00000340: 6d9a 423d 2d15 a5bd ce93 19bc 44ed 073d
00000350: 2905 89bd e210 bfbd 2c27 b73d 23b9 593d
00000360: d86a 773e 3d6b 9a3d 99b5 333d f20c 213e
00000370: 885d 88bd 86d8 26bc 3b35 a23c 9f51 9b3d
00000380: 3a74 38bc 55a2 c93d 48aa 19be cdb9 21be
00000390: 0e44 7d3d 1232 99bd 62a2 27be 9c4e bcbd
000003a0: c073 11bc 0e03 82bd 9a9e 5cbd d80f 86bd
000003b0: 1cec ec3d 31fb c63c cfb3 04bd 48ee 12be
000003c0: b2eb 0f3d 551e ac3d 8b79 b4bd 44d3 0ebd
000003d0: 2718 343d 9cb5 bc3d a0f1 0c3a f235 fc3d
000003e0: 4754 1d3b 084c 743b 9992 48bd f2e2 b93d
000003f0: 6fea 54bd 651d 82bc a738 fa3d db17 67bd

hid.4.bias f4 [100]
0.0016271896 0.011900507 0.0017378341 -0.0014806767 -0.004013989 -0.006472376 0.010853111 -0.009083033
-0.004485101 0.0028897342 0.00021319244 0.0012942607 0.00021902368 -0.0041292305 -0.0071277334 0.002960752
0.00012688091 0.008286779 -0.0002518123 -0.005977588 -0.003752768 -0.0013963087 -0.0015845622 -7.470494e-05
0.008898499 0.007942002 -0.0061415285 -0.007534245 -0.002985381 -0.013534302 0.0019481896 -0.000580017
-0.0016806216 -0.0039292616 -0.0012277868 0.009763039 -0.0039608493 0.0025189903 -0.0005797072 -0.00081122376
-0.006419189 0.011600252 0.0014787525 -0.001249282 0.006301746 -0.0008563531 0.0070378985 0.0068683317
-0.008057855 0.007469013 0.0051694154 0.0057741567 -0.0048727565 -0.0049713557 0.0028037336 0.003205201
0.007818377 0.0029088503 0.0069597564 0.0021978242 0.006730082 0.0003995504 -0.007054389 0.010893738
-0.0027266294 0.0019750723 0.0032176166 0.0021799624 0.0004629514 -0.00726368 -0.0057928027 0.003665719
0.0006566038 -0.00074223115 -0.005594298 -0.0035191434 0.014294676 -0.008768471 6.513975e-05 -0.0064361584
6.344713e-05 -4.9619553e-05 -0.0025303902 0.014124911 0.0012803712 0.009678572 0.0041351053 -0.0019097234
-0.0037164742 -0.0029034794 0.010649782 -0.007893131 0.006228932 -0.0009556671 0.00060759374 0.0007858001
-0.00074313086 0.00025795234 -0.0039454056 0.0060301023
00000000: 6c47 d53a 58fa 423c 09c8 e33a 4413 c2ba
00000010: c887 83bb 3a16 d4bb 3fd1 313c 00d1 14bc
00000020: c1f7 92bb b261 3d3b 698c 5f39 2fa4 a93a
00000030: b9a9 6539 7f4e 87bb c38f e9bb 2d09 423b
00000040: 560b 0539 45c5 073c ad05 84b9 a4df c3bb
00000050: 00f1 75bb 5804 b7ba 16b1 cfba e9aa 9cb8
00000060: 03cb 113c 2c1f 023c e03e c9bb d4e1 f6bb
00000070: 62a6 43bb fabe 5dbc 655a ff3a 480c 18ba
00000080: 4e48 dcba 09c1 80bb b0ed a0ba 27f5 1f3c
00000090: 03ca 81bb a515 253b 7ef7 17ba 4ea8 54ba
000000a0: 0f58 d2bb fc0e 3e3c b3d2 c13a f3be a3ba
000000b0: e07e ce3b e27c 60ba 2c9e e63b be0f e13b
000000c0: 1805 04bc 9fbe f43b 3364 a93b 2335 bd3b
000000d0: a5ab 9fbb c1e6 a2bb d8be 373b 590e 523b
000000e0: a618 003c 69a2 3e3b ab0e e43b 5f09 103b
000000f0: 0588 dc3b bf7a d139 8128 e7bb a67b 323c
00000100: 40b1 32bb 3770 013b a6de 523b b3dd 0e3b
00000110: 49b8 f239 2a04 eebb 8dd1 bdbb 8f3c 703b
00000120: ef1f 2c3a 4a92 42ba 5f50 b7bb 6ea1 66bb
00000130: 3734 6a3c a2a9 0fbc a39b 8838 69e6 d2bb
00000140: eb0e 8538 971e 50b8 e7d4 25bb 2c6c 673c
00000150: 21d2 a73a e092 1e3c c77f 873b af4f faba
00000160: 1790 73bb 4d48 3ebb 6c7c 2e3c 3152 01bc
00000170: 121c cc3b bc85 7aba ed46 1f3a 27fe 4d3a
00000180: abce 42ba c73d 8739 7648 81bb 2a98 c53b

hid.5.weight f4 [100, 100]
-0.026879271 -0.053545784 -0.04434229 0.09499035 0.04441437 0.006535215 -0.0035046712 -0.041238364
-0.12264577 -0.042155344 0.048304345 -0.05175194 -0.022502244 -0.0067019565 -0.071848884 -0.05230482
-0.11375405 0.2211203 0.023435207 0.053807296 0.053182445 -0.05401514 -0.064159214 0.103707135
0.040675968 -0.075201035 0.09951346 -0.036702383 0.028453387 0.025822816 -0.00067473174 -0.034002278
0.018452741 0.033051215 0.047361776 0.05586932 0.12459246 -0.14271623 -0.1392983 -0.050746974
0.0332212 -0.068051524 -0.09167582 -0.05261609 0.055137545 -0.050331768 0.074680135 0.18280685
-0.13094456 -0.08053637 0.1074257 0.048372425 0.0105753485 -0.012108492 0.059370484 -0.084400445
0.010356061 0.07964912 -0.04776576 -0.04066928 -0.15784028 0.022319244 -0.03335709 0.04728235
-0.018275088 0.073280424 -0.0585922 -0.020963863 0.09935624 -0.13852404 -0.009261307 -0.09514778
-0.035789434 -0.15275474 -0.0096686315 0.07437691 0.1813839 0.11336722 0.0855944 0.036169607
0.14172639 0.060599875 0.1259783 -0.18295583 -0.004484666 0.06733493 0.006664015 0.06412292
-0.011801719 -0.019078251 0.12970296 0.08325525 0.115417846 0.12527417 -0.055068295 -0.015925268
0.016685888 -0.02599315 0.052566282 -0.09459937 0.026000092 0.09149188 0.005897883 0.008291598
-0.04051446 0.061317287 0.016204923 -0.079381816 -0.039364275 -0.03148066 -0.05384072 -0.05537031
0.012317029 -0.10230342 -0.013603384 0.09454914 -0.051426176 -0.10833968 -0.08636965 -0.068208784
0.06378082 -0.096539624 0.04139543 0.04030427 -0.04211555 0.09637221 0.056876607 -0.10186028
-0.19963306 0.0851164 0.041536983 -0.05391635 -0.02891427 -0.011423523 0.06308569 0.006746318
-0.041735996 0.0127246175 -0.07374369 0.02806864 -0.008218173 -0.0010100823 0.09929199 -0.026595013
0.040369686 -0.020724466 0.14121588 0.07802469 -0.10312532 -0.021426452 0.06817809 0.10333164
-0.02301304 0.18731257 0.057076726 0.04512522 0.06610835 -0.04965742 0.09381371 0.0563724
-0.016081072 -0.011152318 -0.078073025 -0.030741887 0.076502055 -0.09110206 0.059762772 0.025954615
0.076481044 0.034915265 -0.09248317 0.08521592 -0.11748409 -0.00020737671 0.042186018 0.034552295
-0.10920629 -0.024801033 0.056278076 0.052041568 -0.003009592 -0.010244398 -0.16529606 -0.05939063
0.013719633 0.17236835 0.022066675 0.02412863 -0.052140523 -0.07218713 0.012326427 0.14888883
-0.04487484 0.010688065 -0.01930524 -0.025470117 0.015716575 -0.05685503 0.025094653 0.1005107
0.014306927 0.058535393 -0.033721454 0.07570424 -0.04108717 0.073410556 0.09677725 -0.10949526
-0.12449712 0.028192023 -0.12554342 -0.09518142 0.0042239535 -0.009681387 -0.097057484 -0.03303608
-0.021760037 -0.14150456 0.16081466 0.118691005 0.06752483 0.009297691 0.07483922 -0.13140334
0.121816635 -0.013881551 0.06008935 0.005447956 0.035292596 -0.07568972 0.00014839521 0.07164069
-0.055956785 -0.07131364 -0.07014299 0.113915294 0.14387882 0.013646894 -0.04178056 -0.009832114
0.042829845 -0.025571087 0.00614899 0.030471148 -0.06659402 -0.043948937 -0.07935864 0.035987
0.0073823486 0.034251176 0.106824175 0.11632022 -0.0020497723 0.12363944 -0.084439546 0.037897013
00000000: eb31 dcbc d352 5bbd 43a0 35bd 4d8a c23d
00000010: d8eb 353d 5b25 d63b a0ae 65bb 8fe9 28bd
00000020: b52d fbbd 15ab 2cbd c7da 453d d8f9 53bd
00000030: a056 b8bc 169c dbbb 8225 93bd 943d 56bd
00000040: e2f7 e8bd 5c6d 623e 31fb bf3c 0a65 5c3d
00000050: d6d5 593d fb3e 5dbd e865 83bd 6864 d43d
00000060: d89b 263d 0003 9abd b7cd cb3d 3d55 16bd
00000070: 1417 e93c 5f8a d33c 7be0 30ba f945 0bbd
00000080: 342a 973c b660 073d 6cfe 413d 3ad7 643d
00000090: 552a ff3d 3424 12be 37a4 0ebe 0fdc 4fbd
000000a0: f412 083d 995e 8bbd 88c0 bbbd f883 57bd
000000b0: e8d7 613d af28 4ebd e6f1 983d b831 3b3e
000000c0: 5516 06be 41f0 a4bd 0102 dc3d 2a22 463d
000000d0: 3a44 2d3c b262 46bc 772e 733d 24da acbd
000000e0: 78ac 293c 141f a33d 08a6 43bd d594 26bd
000000f0: e2a0 21be d9d6 b63c 72a1 08bd 23ab 413d
00000100: a3b5 95bc 0c14 963d 60fe 6fbd 68bc abbc
00000110: 497b cb3d 3fd9 0dbe bdbc 17bc d7dc c2bd
00000120: f197 12bd bd6b 1cbe 2e69 1ebc ec52 983d
00000130: b3bc 393e 132d e83d 1e4c af3d 9526 143d
00000140: b920 113e 9337 783d 7500 013e c658 3bbe
00000150: 1bf4 92bb e5e6 893d cf5d da3b e152 833d
00000160: ff5b 41bc fe49 9cbc dad0 043e ba81 aa3d
00000170: 3160 ec3d df47 003e 4b8f 61bd b575 82bc
00000180: d8b0 883c 96ef d4bc be4f 573d 51bd c1bd
00000190: 25fe d43c 1860 bb3d 0743 c13b 7cd9 073c
000001a0: 7ef2 25bd d627 7b3d 30c0 843c ef92 a2bd
000001b0: 6f3c 21bd ddf1 00bd 1688 5cbd facb 62bd
000001c0: 5dcd 493c 7584 d1bd bae0 5ebc fba2 c13d
000001d0: 41a4 52bd 32e1 ddbd 92e2 b0bd 0cb1 8bbd
000001e0: 859f 823d 91b6 c5bd 418e 293d 1716 253d
000001f0: 5b81 2cbd cb5e c53d 72f7 683d 1f9c d0bd
00000200: 9c6c 4cbe 8251 ae3d af22 2a3d 64d7 5cbd
00000210: 9fdd ecbc ba29 3bbc 1233 813d 3810 dd3b
00000220: 5df3 2abd ea7a 503c ef06 97bd 34f0 e53c
00000230: 84a5 06bc bd64 84ba 9959 cb3d c9dd d9bc
00000240: af5a 253d 5bc6 a9bc e59a 103e 69cb 9f3d
00000250: 5e33 d3bd 8786 afbc f4a0 8b3d 8a9f d33d
00000260: d885 bcbc dece 3f3e 49c9 693d 39d5 383d
00000270: d163 873d 9465 4bbd 6721 c03d bfe6 663d
00000280: 74bc 83bc 36b8 36bc c0e4 9fbd 69d6 fbbc
00000290: 1cad 9c3d b893 babd cfc9 743d c69e d43c
000002a0: 18a2 9c3d 4f03 0f3d d167 bdbd af85 ae3d
000002b0: 809b f0bd 4373 59b9 3fcb 2c3d b586 0d3d
000002c0: 8ca7 dfbd 892b cbbc d783 663d 8a29 553d
000002d0: 933c 45bb 1fd8 27bc 5f43 29be 9743 73bd
000002e0: 50c8 603c 5481 303e 2cc5 b43c 68a9 c53c
000002f0: 4d91 55bd d9d6 93bd c8f4 493c 5076 183e
00000300: aece 37bd fe1c 2f3c 0626 9ebc b5a6 d0bc
00000310: 0cc0 803c d2e0 68bd 4d93 cd3c 8ed8 cd3d
00000320: 9a67 6a3c cfc2 6f3d 821f 0abd d30a 9b3d
00000330: 054b 28bd 4658 963d 2733 c63d 0d3f e0bd
00000340: 59f8 febd f5f2 e63c 748e 00be 7aee c2bd
00000350: 1769 8a3b ae9e 1ebc 13c6 c6bd d750 07bd
00000360: 1b42 b2bc 92e6 10be 99ac 243e 4514 f33d
00000370: 754a 8a3d 5855 183c 4e45 993d 998e 06be
00000380: 007b f93d 726f 63bc 4020 763d c484 b23b
00000390: f88e 103d 3603 9bbd 899a 1b39 5bb8 923d
000003a0: f132 65bd e30c 92bd 21a7 8fbd 6c4c e93d
000003b0: f854 133e 3997 5f3c 1822 2bbd e016 21bc
000003c0: 596e 2f3d 757a d1bc 777d c93b a19e f93c
000003d0: 7262 88bd cd03 34bd c886 a2bd 1b67 133d
000003e0: a1e7 f13b f64a 0c3d a2c6 da3d 4c39 ee3d
000003f0: 7955 06bb ad36 fd3d a4ee acbd e639 1b3d
