rk_ckpts_v4/model_N10_L12_g1p1_lr0p1_seed2.pt (torch, 13877 bytes, 25 tensors)

hid.0.weight f4 [10, 2]
00000000: de9d 263f c78b 0bbe 3b2e 59be b8d8 0ac0
00000010: 9586 e7bf 512b 3cbf 175a d8be f975 853f
00000020: 3a7b 4fbe 39fd 45bf 9c61 69bf 4988 433f
00000030: c5e7 af3f ee97 d9be 71e7 80bf 773f c8bf
00000040: 3326 06c0 0a37 e0be ae52 f33e 791d 6cbf
0.65084636 -0.1362754 -0.21209042 -2.1694775 -1.8087946 -0.73503596 -0.42256233 1.0426627
-0.20261851 -0.7733951 -0.91164565 0.7637983 1.3742605 -0.42498726 -1.007063 -1.5644368
-2.0960815 -0.4379199 0.47524017 -0.9223247

hid.0.bias f4 [10]
00000000: a995 f9bd ed7a 1bbf 81ef 04bf 6987 d9bd
00000010: 3559 293d e80e ef3c fd7d 0ebe 5d64 653f
00000020: c6f3 7bbf 027f 9abe
-0.121867485 -0.60734445 -0.51927954 -0.106215306 0.04134484 0.029181913 -0.13915248 0.8960627
-0.98418844 -0.30175024

hid.1.weight f4 [10, 10]
00000000: 8fbc c23e 1b30 2abe 86a4 2a3f 4db4 5f3e
00000010: 136f 04be 67ee 793e b116 693e 8845 713e
00000020: e03e fd3c ec24 ec3e 6567 7bbe f672 0cbc
00000030: fd04 39be 1ce8 1cbe 1a1f 23bf 1ce1 ebbd
00000040: daa0 6d3e cca4 143f 64ce 2abe 8317 0f3f
00000050: cb88 61be 0449 6ebe 5c24 febd 1059 39bf
00000060: 7373 74be 3161 823e 01ec 5bbc df49 6c3e
00000070: 3e84 0fbf 79c7 243f 7d42 2d3f 5591 203e
00000080: 9bce cc3e 12de b6be 945c 343e b4ba 68bf
00000090: 2981 40bd e7fd 51bf 7f17 bb3e 593b c33e
000000a0: b230 6a3e 611c cfbd 900b 16be acf7 413d
000000b0: 3528 e13e 625b 16bf ccd1 eb3e 37ed 133f
000000c0: 84f0 39be f153 d2be eb27 153e 06fe 29bf
000000d0: cf45 6f3e 8952 933d 30ab 63be acc2 86be
000000e0: 64cd 85be 6286 863e d29c c4bd cad4 22bd
000000f0: 0842 74bd bee5 d63d 8490 abbd 4ee8 a4be
00000100: ccd4 283e 660b 02bc a302 acbe c200 723e
00000110: 0212 823e 0ce1 01bf ca19 84be 48d9 173f
00000120: a4b0 24be 7205 193e 8010 e7be ae71 24be
00000130: 91f7 a03e c55a 17bf aa5d 063f 93ba 873e
00000140: 2431 373d 20a0 713e 640e 48be 0e49 cf3e
00000150: 4acd f33e 4a96 f13d 58ce bb3d 47bb 8ebe
00000160: c6bf aebe 5e7e 4d3d 62df 8dbd 1a4b 313f
00000170: ebe7 a23e 2a69 cabd c6e1 ffbc c46d 9fbe
00000180: b42b 84be 2dc6 e53e 07a0 13be 8bab d8be
0.38034484 -0.16619913 0.6665729 0.21846123 -0.12932996 0.2440735 0.22762562 0.2356168
0.03091377 0.4612192 -0.2455116 -0.008572331 -0.18068309 -0.15322918 -0.6371933 -0.115175456
0.23205891 0.5806396 -0.16680294 0.5589525 -0.22024839 -0.23270041 -0.12409279 -0.72401524
-0.23872165 0.25464776 -0.013422967 0.23075055 -0.5606116 0.6436687 0.6767958 0.1568044
0.40001377 -0.357163 0.17613441 -0.90909886 -0.046998177 -0.8202805 0.36541364 0.38131216
0.22870138 -0.10112835 -0.14652848 0.04735534 0.43975988 -0.5873319 0.460585 0.57783836
-0.18158156 -0.41079667 0.14566009 -0.66403234 0.23366474 0.07193477 -0.22233272 -0.26320398
-0.26133263 0.262744 -0.096002236 -0.039753713 -0.059633285 0.104930386 -0.083771735 -0.32208484
0.16487426 -0.007937288 -0.33595762 0.23633102 0.25404364 -0.5073402 -0.25800925 0.5931592
-0.16083008 0.14943483 -0.45129776 -0.1605899 0.31438878 -0.5912288 0.5248667 0.26509532
0.0447246 0.23596239 -0.1953674 0.40485424 0.4761756 0.117962435 0.09170216 -0.27877256
-0.34130687 0.05016934 -0.069273725 0.6925522 0.31817564 -0.0988334 -0.031235587 -0.31138432
-0.25814593 0.4487776 -0.14416514 -0.42318377

hid.1.bias f4 [10]
00000000: 5cc0 50bc 9a24 29bc ef64 dfbc c66b 363d
00000010: 6d22 f33c d0d9 2c3d 4766 383d feb9 133e
00000020: c03c 96bc 0e12 59bd
-0.012741175 -0.010323668 -0.027269809 0.044536375 0.029679501 0.04219991 0.045019414 0.14426419
-0.018339515 -0.052995734

hid.2.weight f4 [10, 10]
00000000: 8e01 9cbe 8a10 0bbe 23b9 c3be 8e4d 653e
00000010: 58ae 88be 7c29 3fbe 0bed 543d 081b 983e
00000020: c77c 76be 28bc 76be fe09 393d 150a d43e
00000030: f38f 97bd f413 923d fd31 cb3c d965 07bf
00000040: 406b 313e ad6a 763e 6bb7 e8bc 5b69 bf3e
00000050: a7a8 a2be 1b1d 703e 9234 ac3e d30d 73be
00000060: 3189 8b3e 0463 bcbe 7ec6 823e 8212 01be
00000070: 8eea 803e e8fb a3bd 368c ec3e 6e59 8a3e
00000080: ff86 003f c11f ef3e ddd0 93be bdd6 04bf
00000090: 0ce3 49be 332d 9e3d b286 9f3e bf39 e83d
000000a0: 6816 49bf 3ab3 14be 7be2 323e 7040 aa3e
000000b0: c691 843d a691 29bf e3e1 dcbc beb5 3fbf
000000c0: 1410 2ebf 35f5 573e db5c 183f e56f 65be
000000d0: 34e1 113f 0092 223e adc2 bc3e 0445 033f
000000e0: f823 903e 5a6d 18be 6c8d bc3e 892b 293f
000000f0: 7f36 113e dee5 f2be 44ac 34bf 9b0f 72bc
00000100: bf41 13be 2e32 d6bd eec6 33be 1861 d93d
00000110: 5bce b2bd 1ccc 993d 2633 6a3e d801 47be
00000120: c57a 263b 9bf8 fe3e 503e 063e b058 883e
00000130: 0bc0 653e 72a2 0cbd c67b 603e c6f9 0cbf
00000140: 1f3d ce3c b467 e33c 3b2d 853e 21e5 b33e
00000150: d089 97be e81d 28be da3f d8bd 3471 e33e
00000160: aff8 f1bd 61c8 e1be 8a5b ec3e 1515 673e
00000170: 011e 9c3e b798 023e 09e0 b93e 114d 4c3e
00000180: a567 a13e 7cea 4a3e 35a5 a73e eed0 243e
-0.30469936 -0.13580528 -0.38227186 0.22392866 -0.26695514 -0.18668169 0.051983874 0.29708123
-0.24071036 -0.24095213 0.045175545 0.41413942 -0.07400503 0.07132712 0.02480411 -0.5288978
0.17326069 0.24064131 -0.028407773 0.37385067 -0.31769297 0.23448603 0.33633858 -0.23735742
0.27253106 -0.36794293 0.25542063 -0.12604716 0.2517895 -0.08007032 0.46200722 0.27021354
0.5020599 0.46703914 -0.28870288 -0.51890165 -0.19715518 0.07723465 0.31157452 0.11339139
-0.78549814 -0.14521495 0.17469208 0.33252287 0.064731166 -0.66237867 -0.02696318 -0.7488669
-0.67993283 0.21089633 0.59516686 -0.22405966 0.5698426 0.15876007 0.36867276 0.51277184
0.28152442 -0.14885464 0.36826646 0.66082054 0.14180945 -0.47441 -0.70575356 -0.014774228
-0.14380549 -0.1045879 -0.17556354 0.10614222 -0.087307654 0.07509634 0.22871074 -0.19434297
0.0025402766 0.49799046 0.13109708 0.26630163 0.2243654 -0.034334607 0.21922216 -0.55068624
0.02517563 0.02775941 0.2601107 0.3513575 -0.2959733 -0.16417658 -0.10559054 0.44422305
-0.11815011 -0.4409819 0.4616359 0.22566636 0.3049164 0.12753569 0.36303738 0.19951274
0.31524387 0.19816011 0.3274323 0.16095325

hid.2.bias f4 [10]
00000000: 4f51 e13d 2a73 76bc 61ec 95bd bf7c 37bd
00000010: 1f5c b8ba 247b 16bd 9c03 24bc 868e 7a3d
00000020: 971e f73d 7172 073d
0.110018365 -0.015042106 -0.07320476 -0.0447967 -0.001406554 -0.03673853 -0.010010626 0.061171077
0.120663814 0.033068124

hid.3.weight f4 [10, 10]
00000000: 58e0 a6bd e8b1 513e 90d7 eb3e 019e 423e
00000010: ce71 f03d b5ba 8ebe 2908 9d3e 8771 223f
00000020: 8c12 fb3e e416 babd d6a3 7ebf a6bf 43bb
00000030: 033e ccbe 397c 313e 7e67 303f ecb2 47bc
00000040: 357c 8abf 8710 87be 89f5 cf3d 3de4 7b3d
00000050: afd5 16be 02f4 d33d 5579 483d 9788 23bf
00000060: eedf 9dbe 6593 ac3e 62f2 eb3c e55c ddbe
00000070: 3066 1fbf 6e48 e3be d794 93bd 2220 3dbf
00000080: 95c3 87bd cc67 36be 094f 90be 9ba7 c8be
00000090: 57d2 a7bd 6bc6 1a3d 6b8f d63e 3732 18bd
000000a0: c419 1abe fe65 1c3e b4e8 60bf a682 bc3e
000000b0: acb7 95bd 7385 503e d2f0 1cbf edf7 833e
000000c0: 93ca 0a3d 6329 29bd 2083 1c3e b1af be3d
000000d0: 4613 023e 671b 33bf cc77 84be 8ad6 16bf
000000e0: 1aa3 07bd 9f87 fabe 1421 08bf 8ca9 2b3e
000000f0: 43ea a63e 8680 ea3e 098f 6f3e fc88 0b3e
00000100: f46e b7be e1d6 b93c bc2f de3e 38f3 26bf
00000110: 28d2 1bbf a33f c53d 9edc 39bf 3b5e a83d
00000120: 4ccc 0b3f 80fd 10bd 301a 03bf 1d4e 03bf
00000130: 0aa9 3cbd 4363 2b3f bc0a b7be bbd8 a83e
00000140: 114e 28bd fe55 133e 3348 c03e 1104 a63d
00000150: 0343 b23d 02cf 563f 2a2d 0dbd a7a3 0dbe
00000160: 3a26 ae3b 8cf0 39bf 3544 5dbe e69b f3bd
00000170: 1490 85bd bbd8 8b3e 2992 ac3d f14f e03e
00000180: 40a8 1bbe 42ec f33e 53d9 c4bd a267 5c3f
-0.08148259 0.20478022 0.460629 0.19005586 0.117404565 -0.2787682 0.30670288 0.6345448
0.49037588 -0.09086397 -0.99468744 -0.002986887 -0.3989106 0.17332543 0.68907917 -0.012188654
-1.0819155 -0.26379797 0.10154254 0.06149696 -0.14729951 0.10349275 0.048943836 -0.63880295
-0.30834907 0.33706203 0.0288021 -0.43234935 -0.622653 -0.44391197 -0.07206123 -0.73877156
-0.06629101 -0.17813033 -0.281853 -0.39190373 -0.08194416 0.037786882 0.41906294 -0.037157264
-0.15048891 0.15273282 -0.87855077 0.36818427 -0.07310423 0.20363407 -0.6130496 0.2577509
0.033884596 -0.041299235 0.15284395 0.09310854 0.12702665 -0.6996369 -0.25872648 -0.5892111
-0.03311453 -0.48931596 -0.53175473 0.16763896 0.32600603 0.4580118 0.23394407 0.13626474
-0.35826838 0.02268547 0.43395793 -0.6521487 -0.6086755 0.09631278 -0.7260226 0.08221098
0.5460861 -0.035398006 -0.51211834 -0.51291066 -0.046059646 0.66948336 -0.35750377 0.32977852
-0.041090075 0.14388272 0.37555084 0.08106244 0.08704188 0.8390962 -0.0344669 -0.1383196
0.0053146156 -0.7263267 -0.2160805 -0.1189497 -0.06521621 0.2731379 0.08426315 0.4381099
-0.15200901 0.47641188 -0.09611764 0.8609563

hid.3.bias f4 [10]
00000000: ce72 913d 5c7d 22bd 1a8c 11bd cd00 ad3b
00000010: 2833 ae3d fcc9 afbc 6ab9 6bbc b3c8 ccbd
00000020: 48c5 e2bd 9e4a 0ab7
0.071019754 -0.039670333 -0.035534002 0.0052796365 0.08505851 -0.021458618 -0.014387468 -0.09999218
-0.11072785 -8.242814e-06

hid.4.weight f4 [10, 10]
00000000: 2fb6 f7be af8d 9a3e 2e56 73be 9368 d0be
00000010: 8724 30bf 0483 d13e 9776 c1be 6cd1 ad3e
00000020: 54b8 e83c d7f7 c23e bf59 00be 79b5 26bc
00000030: 9529 bcbe b729 3c3f d429 bdbc f434 123f
00000040: 9cb5 613f cac4 4bbe d135 04be fada 433e
00000050: 165a f23e 5d9b b2be 849b 0ebf 8503 38bf
00000060: 02db c5be 4781 4b3a d1f3 893c 9ba4 02bf
00000070: 2d42 80bc c013 383e a527 973e 5f4d 4d3e
00000080: 7190 f43e 5893 06be 158e a6be 4f07 c13e
00000090: a4b6 fe3e ab27 2d3d 4029 a63e 1809 713e
000000a0: 7b09 34be 08b2 48be bda9 503f bbe0 4ebe
000000b0: 9708 523e 5d11 66bf f5e9 ed3e 590a 3ebe
000000c0: 8ae9 e13d 6137 97be 0961 303e b2f8 ba3e
000000d0: 6d19 cc3b df92 10bd c6fc 80bd 727a 853d
000000e0: 7dbc 8d3d 60f3 293d 1df1 2e3f aff2 a0be
000000f0: aac1 97bd 1aec 073e 96fe 563e b4be 1a3f
00000100: cb06 c1bc 50d9 3c3d ba50 3bbe db3b b6be
00000110: f147 0c3e 1858 3a3e be8c da3c a937 9abe
00000120: d7e2 993e 56a1 84be 760c adbe 8e4c 153f
00000130: 7bba 5f3d 328c fa3e 2b08 90bb 404b 64bd
00000140: 1dd1 0f3f ce95 6bbe 4df3 10bf bf47 a1be
00000150: 7d4b 0339 26d1 5e3e 59a7 cabc f6df dbbe
00000160: e714 40bf 87de efbd 71b7 013f 42bf 03bf
00000170: 899a 913e 13a2 163f a16d a9be 4f30 d83e
00000180: 2bfc 9b3e b9d8 163e 7514 013e 44b2 c2be
-0.48381183 0.3018622 -0.23763344 -0.40704784 -0.68805736 0.4092027 -0.3778579 0.3394884
0.028408207 0.38079712 -0.12534235 -0.010175102 -0.36750475 0.7350115 -0.023091234 0.5711205
0.8816774 -0.19899288 -0.12911154 0.19126502 0.47334355 -0.34884158 -0.5570605 -0.7188037
-0.38643652 0.0007763099 0.016839894 -0.5103242 -0.015656555 0.17976284 0.29522434 0.20049046
0.4776645 -0.13142145 -0.32530275 0.3770089 0.4974872 0.04227416 0.32453346 0.23538625
-0.17581742 -0.19599164 0.81509 -0.20202915 0.2051109 -0.89870244 0.46467558 -0.18558635
0.11030872 -0.29534438 0.17224516 0.36517864 0.006228617 -0.035296317 -0.06298213 0.06517495
0.06920717 0.041491866 0.6833666 -0.31435153 -0.07409985 0.1327366 0.20995554 0.6044724
-0.02356281 0.046105683 -0.18292513 -0.3559254 0.13699318 0.18197668 0.02667844 -0.3012059
0.30055878 -0.2590434 -0.3379857 0.5831994 0.0546212 0.48935086 -0.004395505 -0.055735826
0.56178457 -0.23006365 -0.5662125 -0.3150005 0.00012521255 0.21759471 -0.024738 -0.42944306
-0.75031894 -0.117123656 0.50670534 -0.5146371 0.28438213 0.58841056 -0.33091453 0.42224357
0.30465826 0.1473111 0.1260546 -0.3802663

hid.4.bias f4 [10]
00000000: f4c5 e7bd 62ee 703c daa1 9a3d 6701 00be
00000010: 2fd0 5c3d 1908 8cbc 1583 823b 0058 d1b9
00000020: 3bac d73d 8db6 8cbc
-0.113170534 0.014705272 0.07550402 -0.12500535 0.053909477 -0.017093705 0.0039829114 -0.00039929152
0.10530897 -0.01717689

hid.5.weight f4 [10, 10]
00000000: 7c87 b93e 2806 5fbe 7322 b83e cc06 da3e
00000010: 725b 75be e60d 29be e911 27bd 213e 36be
00000020: 4d03 b5be db45 b9be 9921 25be a7f5 87be
00000030: 5971 61bd c97d 9fbf dd08 923d b0b7 16bf
00000040: 8193 7c3c ed93 12bf 9bfc 8cbc 91e8 963e
00000050: 0ed8 083e 6114 1f3f 2fb2 403f ab14 23be
00000060: b0ba 133f 41d4 a33e 04f5 67be 67a5 23bf
00000070: 3636 c73e 2a99 883e 7133 ce3e 0ba2 bfbe
00000080: 0a08 80be b3d0 273f 081c 8a3e e99b 993e
00000090: 1b6d 9d3e b28e b2be 9d20 2fbe 3960 403e
000000a0: 309d 143f 9fe0 e8be ceb3 88be e819 d5be
000000b0: 40c0 a3be 2597 ca3d a012 003d 7287 cdbe
000000c0: 4575 bc3d 0d51 8b3e 1356 11bf 85b2 c1be
000000d0: 65f0 293e 7f00 2cbd 1943 b93e 38ce 32be
000000e0: 294f a63d 0c04 fe3e 30d9 c73e bb73 a53d
000000f0: 8041 ec3e 9873 243e a23f 37bf bed5 9b3e
00000100: 386e 023e 6444 793e 0d7b c6be 8a2d aebe
00000110: bf0b 2abe b8ee b2bd 93a3 d93e e867 c3be
00000120: 24ce 5b3d 0d92 033f 921b 12be abbf 9fbe
00000130: fee2 0dbd badc dbbd 575a b73b 7cd3 153e
00000140: 0809 173f 0af7 81be a567 043f 442e d6be
00000150: 54d0 abbb ceaf 90be fb67 8fbe 044c d2be
00000160: 4bc7 de3e 2a97 093e bf43 ccbc bbc6 d93d
00000170: 9b41 d43d a8fa babe 582d 153d 1fef cf3c
00000180: 7845 eabe 177a ec3e caab 8c3d 6b39 18be
0.3623618 -0.21779692 0.35963783 0.4258331 -0.23960665 -0.16509208 -0.040788565 -0.17797138
-0.3535408 -0.36186108 -0.16126098 -0.26554605 -0.055039737 -1.2460262 0.07130597 -0.58874035
0.015416027 -0.57256967 -0.017210295 0.2947431 0.13363668 0.6214047 0.75271887 -0.15925853
0.5770674 0.31997874 -0.2265206 -0.6392426 0.38908547 0.26679355 0.40273622 -0.37428316
-0.25006133 0.65552825 0.2697451 0.30001763 0.30747303 -0.34874493 -0.17102285 0.18786706
0.5805235 -0.45483872 -0.2669968 -0.41621327 -0.31982613 0.0989211 0.031267762 -0.401424
0.09202055 0.27210274 -0.56771964 -0.37831512 0.1659561 -0.04199266 0.36184004 -0.17461479
0.08120567 0.49612463 0.39032888 0.080787145 0.46143723 0.1605972 -0.7158147 0.3043651
0.12737358 0.24342495 -0.38765755 -0.3401912 -0.16606043 -0.08736938 0.4250761 -0.38165212
0.053663388 0.5139473 -0.1426833 -0.3120092 -0.034640305 -0.107354596 0.005595486 0.14631456
0.58998156 -0.25383788 0.5172065 -0.41832173 -0.0052433405 -0.28259128 -0.28009018 -0.4107362
0.43511423 0.13436571 -0.024934648 0.10633608 0.10364076 -0.3651936 0.036420196 0.025382577
-0.45756125 0.46186897 0.06868704 -0.14865653

hid.5.bias f4 [10]
00000000: 6c3f c1bc 0d79 673d 962d ab3d 66df 8cbb
00000010: 81b4 cabc 9f61 be3d 07aa 21bd 0b5f aebd
00000020: 0f6e ed3c 6d02 bd3a
-0.023589812 0.056511927 0.08358304 -0.004299092 -0.024744274 0.092959635 -0.03946879 -0.08514222
0.028983144 0.0014420279

hid.6.weight f4 [10, 10]
00000000: 5b0c fc3e 8bd4 ab3e 1a0c 53be dca2 4b3e
00000010: fb90 073f 93c7 263f 4d73 0abd 9ada f4be
00000020: 2bbd 853d b533 47bd 8a2d 16be 8f4c da3e
00000030: 1a84 913e 2068 9cbc 871c 383f da08 05bf
00000040: a451 f6bc 330a f83c 3b1e 45bd a540 13bd
00000050: 84d0 de3e ad60 febe f604 4c3f eeee 03bf
00000060: bbd5 833e 41fd b33c 76b0 143f d9d7 213e
00000070: 11b8 09bd 3dc2 8c3f ea34 363d 5ead a43d
00000080: 0ef5 eebd 0778 9a3e 4c76 17be 6c86 113f
00000090: 207b 0c3e 8f1a 2d3d 1d71 873f dfc3 123e
000000a0: 146b 633c 55ba 203e 6d7a 57be 483e eabe
000000b0: 2473 70be a4b7 903e 65c4 573e f752 2c3f
000000c0: 791a d43d 9890 11bf 3fef 4cbe 1026 c73e
000000d0: c0f7 523f 09ca c8bd ab18 18be ec5c a23e
000000e0: 65f9 acbd 5ccd 91be 7675 1c3e dfdc 7ebe
000000f0: c2fd 943e 2f51 033f 17df 3bbd 5ee0 8cbe
00000100: 5bf3 f1bd b90c 723e a742 b4bc 335d 52bd
00000110: 3e24 73be faac 49be b21d df3e 42bf e5be
00000120: 6ea7 96be 3a80 563c ba74 9bbd 2503 b03d
00000130: 6f83 063f 1bac 083e 1624 a03d f5af 703e
00000140: dba8 96bd bad0 593d f6a9 923a ee26 0a3e
00000150: a823 3fbd 815c 343e a3c4 a1be b94c 24bf
00000160: e10a ccbe 7fd2 013f 61ab eb3e 0bc2 3fbe
00000170: b258 e63e 4b83 ec3e d5cc 133e 129b 1cbe
00000180: 6ccf 8a3d 30e9 97be 247d 48be c969 1fbe
0.49228176 0.33560595 -0.20610085 0.19886345 0.529556 0.65148276 -0.033801366 -0.4782303
0.065302216 -0.048633296 -0.1466581 0.42636535 0.28421098 -0.01909262 0.7191853 -0.5196663
-0.030068226 0.0302783 -0.048124533 -0.03595032 0.4351846 -0.49683133 0.7969507 -0.5153645
0.25749 0.021971347 0.5808176 0.15804996 -0.033622805 1.0996777 0.044484057 0.0804088
-0.11667834 0.301697 -0.1479122 0.56845737 0.13718843 0.042261656 1.0581394 0.14332531
0.01388051 0.1569608 -0.21042795 -0.45750642 -0.23481423 0.28265107 0.21071012 0.67314094
0.10356612 -0.5686126 -0.2001314 0.38896227 0.82409286 -0.0980416 -0.1485316 0.3171152
-0.08446006 -0.2847699 0.15279183 -0.24888943 0.29099852 0.5129575 -0.045867052 -0.2751493
-0.118139945 0.23637666 -0.022004439 -0.051358413 -0.23744294 -0.19694892 0.43577343 -0.4487248
-0.29424614 0.013092095 -0.07590623 0.0859435 0.525443 0.13346903 0.07819383 0.23504622
-0.073564254 0.053177573 0.0011189568 0.13491413 -0.046664864 0.17613412 -0.31595334 -0.6417957
-0.3985205 0.50711817 0.4602919 -0.18726365 0.44989544 0.4619392 0.14433606 -0.1529353
0.06777844 -0.29670095 -0.19578987 -0.15567698

hid.6.bias f4 [10]
00000000: 44b1 4e3c e310 22bc c275 89bb f024 693d
00000010: ad88 9ebc 5fbc 263e 90af 853c efc1 9fbc
00000020: c921 533d 508b 2ebd
0.012615506 -0.009891721 -0.004194946 0.056919992 -0.019352281 0.16282795 0.016319066 -0.019501654
0.051545892 -0.042613328

hid.7.weight f4 [10, 10]
00000000: 5495 02bf 641f 993d 91d2 f0bc f5a2 0bbf
00000010: 0ce0 08bd cc18 06bf ccc8 d83e a685 5bbd
00000020: 218b d1be 5010 f43e c849 c93b d596 c73c
00000030: 4afb 9fbe 3bf5 5cbe e8b7 273d b6b2 8bbe
00000040: f54f 63be 76d9 e2bc 29f5 593f cf3b e23e
00000050: e6d0 c43e 6a75 e63a f497 263d 5741 29bf
00000060: 2d7f 9abe 41e8 4f3e dd4d b9be aa43 803e
00000070: 6d55 d5be 3d73 d2be 4e38 cbbd b8eb febd
00000080: 6873 ef3d fa25 89be 8e96 dd3d 2bba 27be
00000090: 7071 d7bc 1555 0d3e 8ab9 493e cfcc e53d
000000a0: 6c0a 40be 910c b53e ae8c 3c3e faa1 a7be
000000b0: f029 943e 5cb2 10be 599a 3ebf 783b 1abd
000000c0: be3f 8a3e 4252 133d 976b b8be bc85 b33e
000000d0: 78e7 773e 95f3 e1be 4b2b 4c3d 6872 523e
000000e0: 5cf6 a83e f71b d6bb 9ac1 923e 3de9 28bd
000000f0: 8c3c e93e a651 323c 0a7c f93d 9d96 1dbf
00000100: 8de1 803d f9f5 023e 8643 0bbf 1aba 1f3e
00000110: f1f8 1cbf 1ec4 d43e 8706 c4be 9bcb bc3e
00000120: c588 9f3e 72dd 0cbd bd33 61bd 9d88 203e
00000130: e58b cabe 45f0 b83e 4fc1 3d3e 4be7 bc3e
00000140: 5ba2 57bc 3f6f f4be cccb 643d 4ecb 9b3e
00000150: 2ed4 9dbe 0c0e 5a3f f3ce fb3c 33dd eebd
00000160: 29fc 833e 8162 0abe 1700 a9bd 1f55 333f
00000170: 471c f63c 9499 38be 7687 933d e6d8 663e
00000180: 2e50 273e 3509 babe 9d0a 79be e136 c13e
-0.51009107 0.074766904 -0.02939728 -0.5454553 -0.033416793 -0.5238159 0.42340696 -0.053594254
-0.4092646 0.47668695 0.0061428286 0.024363915 -0.31246406 -0.21577923 0.04094687 -0.27284783
-0.2219847 -0.027691584 0.8513971 0.44186255 0.38440627 0.00175826 0.040672258 -0.66115326
-0.30175152 0.20303442 -0.36192217 0.25051624 -0.41666737 -0.41103545 -0.09922849 -0.124473035
0.11691934 -0.26786786 0.10819732 -0.16379611 -0.026299208 0.13801987 0.19699684 0.11220705
-0.18753976 0.3536115 0.1841304 -0.32740766 0.28938246 -0.14130539 -0.74454266 -0.03765437
0.27001756 0.03596712 -0.36019585 0.3506297 0.24209392 -0.4413115 0.049845975 0.20551455
0.33000457 -0.0065340954 0.2866333 -0.04123806 0.45554006 0.010883724 0.12181862 -0.6155794
0.062930204 0.12789144 -0.5439991 0.15598336 -0.61317354 0.41555876 -0.3828623 0.3687409
0.31159034 -0.034390874 -0.054980982 0.15677114 -0.39559856 0.3612081 0.18530773 0.36895213
-0.013161267 -0.47741124 0.05585842 0.30428547 -0.30825943 0.85177684 0.03073833 -0.11663284
0.2577832 -0.13514139 -0.0825197 0.7005176 0.03004278 -0.18027335 0.072035715 0.22543678
0.1633918 -0.3633515 -0.24320455 0.37737182

hid.7.bias f4 [10]
00000000: 22d2 c5bd fd36 8cbc 5ef3 5cbc ab2e 2e3d
00000010: 0c41 abbc 7a8c 223d 8675 fdbc 80d7 603b
00000020: 2388 bd3d 7acb 6a3d
-0.0965922 -0.017116064 -0.013485758 0.042524975 -0.02090504 0.03968475 -0.030939829 0.0034308136
0.09254482 0.057322957

hid.8.weight f4 [10, 10]
00000000: c591 953e 9fc2 b5be 9e64 d73d 59cf 6ebe
00000010: cbf8 18bf 2ed9 d23e 1853 a93e 809f 73bd
00000020: 8ce7 95be 9242 853e f97b c43e e050 7b3e
00000030: 5c2a e0be bc34 a3be 4d18 b73e a5d1 1d3d
00000040: eaba d23e 3075 293e e8d0 d5bd d2f4 7cbe
00000050: 1590 033e fef8 5a3d 4c43 2ebe e4ec 16bf
00000060: 2c61 17bf 9861 93bd f616 04bf f39b d3be
00000070: fdce 98be 20af 823d fb43 07bf 0ffb aebe
00000080: b7bc 493e 336a 07bd 0dc4 10be 6a86 783e
00000090: 5761 41be 2312 6a3f 7345 023f d1c7 d33e
000000a0: e3a2 333f 5ecd 7d3e 97db 533e 36f6 e1be
000000b0: 19a7 6f3e c6bd 15bf a8b4 5f3e 1510 943d
000000c0: 967d 85bf c59e 23bf 25b2 ccbd fe8e 02be
000000d0: 7431 aa3e e6ad 4fbe b178 e03e aeed ef3e
000000e0: 24ea 3e3e ba06 0f3e 656c 47bd 36d2 0e3e
000000f0: c7d6 70bf 8685 a03c f213 fbbd 3b89 44be
00000100: e928 de3e 59a5 973d 0252 603d 7506 89be
00000110: 0ea4 27be baae 7b3e be94 2d3f 8db5 72bc
00000120: 3406 ff3d 737d 0cbf 160f d9be a825 b23e
00000130: 43d9 2a3f 0e85 113d 64cb 1bbf e0f8 d43e
00000140: b7f0 1bbe 84ad 86be a98f 90be bfd8 59be
00000150: 7ed8 b1bd f0c8 a4be 374a 873e ece4 bfbe
00000160: 8adc 493e 73d4 3cbe 4973 1a3e 8e99 11bf
00000170: 70cc 313e 7a91 b33e 6a8d 8c3e d414 873a
00000180: 4c61 743e 8302 88bc f90b 693d e151 92be
0.29212776 -0.35500047 0.10517238 -0.23321284 -0.5975463 0.4118132 0.33071208 -0.059478283
-0.2927822 0.26027352 0.38375834 0.2454257 -0.43782318 -0.3187617 0.35760728 0.03853001
0.4115823 0.1654861 -0.10440236 -0.24702767 0.12847932 0.053460114 -0.17017859 -0.58955216
-0.5913265 -0.07196349 -0.51597536 -0.41329917 -0.2984542 0.06381059 -0.52838105 -0.34175918
0.19700895 -0.033060264 -0.14137287 0.24270025 -0.18884788 0.91433924 0.5088722 0.41363385
0.7017042 0.24785373 0.20689236 -0.44133157 0.23403586 -0.58492696 0.21846259 0.0722963
-1.0428951 -0.6391414 -0.09994916 -0.1274986 0.33240855 -0.2028118 0.4384208 0.46861023
0.18644005 0.1396741 -0.048687357 0.13947377 -0.94077724 0.019594919 -0.12259664 -0.19192974
0.43390587 0.074045844 0.05476571 -0.2676274 -0.16371176 0.24578372 0.6780509 -0.014813793
0.12452355 -0.5487892 -0.42394322 0.34794354 0.66737765 0.03552728 -0.60857224 0.41596127
-0.15228544 -0.26304257 -0.28234604 -0.21274088 -0.08683871 -0.32184553 0.2642381 -0.3747934
0.19713035 -0.18440418 0.1508304 -0.5687493 0.17363143 0.35071927 0.2745164 0.001030589
0.23865241 -0.01660276 0.056896184 -0.28578094

hid.8.bias f4 [10]
00000000: 5098 ee3b d4ed 883b f921 bdbb 0a43 803d
00000010: 6e9c 8abd c86d f2bc cfbe 753c 8d41 77bc
00000020: b65a 34bc 9832 e3bb
0.0072813407 0.004178742 -0.005771872 0.06262787 -0.06768118 -0.029593363 0.014999106 -0.015091312
-0.011007955 -0.0069335215

hid.9.weight f4 [10, 10]
00000000: 5130 c2be 5a1a febe cbce 51bf a718 5a3d
00000010: f204 913d 57a0 18bd fa28 1abf 2a91 8dbe
00000020: 6657 c93e 8449 3dbd 4a91 4e3f ed05 1ebf
00000030: 65f3 5b3e 7ee0 ec3e 8244 f93e 6298 943e
00000040: 8056 2abe 3586 4dbe fa17 bebd da88 b93e
00000050: b97f 9d3e a1a8 93bd 3ccb 20bf d5d9 3cbe
00000060: 25f8 103f 93a9 fb3d 3da7 c33d 7fd9 5abe
00000070: bf7b 10be cd0e b43e 375d 513e a9c4 1c3d
00000080: b3e9 15bd a03b 72bf 6265 103f ec94 153e
00000090: 3cf9 4c3d cc70 7c3e 6580 7cbd 26d6 193d
000000a0: d1e6 fbbd f81f 573f bbbf 523f 5da6 9bbe
000000b0: 754a 683f 9130 ec3d e474 653d 4069 333f
000000c0: 43f7 993d e52a aa3e a0e0 10bf 424e 263d
000000d0: 5769 953d 20a4 acbe 260b 8d3e 916c 9ebd
000000e0: a338 8bbe 92ff 8a3e 0b3a a73e ef56 cabd
000000f0: 2a6c eebe da4d d2be 7736 9bbe 2bfd 2abf
00000100: 229d 9b3c 79ed 443e d764 423d 92db 953e
00000110: 2e86 a1be 9f18 88be 3deb 083f 4a3f f23e
00000120: c190 aa3e a86f 58bd 2a9b 6b3d 8d2f 943d
00000130: 5d37 f5be 6271 94be f7d4 97bd 81bc 243d
00000140: 0ff2 673e 8dab 293f 9be4 123f c949 053e
00000150: 85d4 19be c7dd a2be 86a5 483e c508 8f3e
00000160: 80a2 7abe 8571 2a3e e20d 44be e8ce 2bbd
00000170: e79c 3fbd e779 8cbb bb6a 373e 2e81 1a3d
00000180: c993 87bf 3b4b a83e a79a d33e 96c0 13be
-0.37927487 -0.4962948 -0.81956166 0.053246167 0.07081021 -0.037262287 -0.60218775 -0.27649814
0.39324492 -0.046212688 0.80690444 -0.6172779 0.21479566 0.46265024 0.4868508 0.2902251
-0.1663456 -0.20070727 -0.09281917 0.36237222 0.30761507 -0.07209898 -0.6281011 -0.18442471
0.5662864 0.12288203 0.095533825 -0.2137203 -0.14109705 0.35167542 0.20445715 0.038273487
-0.036599826 -0.9462223 0.564047 0.1460759 0.050042376 0.24652404 -0.061645884 0.037557743
-0.12299884 0.84033155 0.8232381 -0.30400363 0.9073861 0.11532701 0.05601968 0.70082474
0.075178646 0.3323585 -0.5659275 0.040601976 0.072954826 -0.33718967 0.27547568 -0.07735551
-0.27191648 0.2714811 0.3266147 -0.098798625 -0.46566898 -0.4107502 -0.3031499 -0.66792554
0.018995825 0.19231214 0.04745945 0.2926908 -0.31547683 -0.26581284 0.53483945 0.4731391
0.33313563 -0.05284086 0.057521023 0.07235632 -0.478938 -0.28992754 -0.07413667 0.040218834
0.22650932 0.6627739 0.57380074 0.13016428 -0.15022476 -0.31809828 0.19594392 0.27936378
-0.24476051 0.16644867 -0.19145921 -0.041945368 -0.046780493 -0.004286993 0.17911808 0.03772085
-1.0591975 0.32869896 0.41328928 -0.14428934

hid.9.bias f4 [10]
00000000: 25e9 75bb 6ba8 9bbc 0a43 59bc 2573 37bd
00000010: e327 abbc 32df 98bc 4843 16bd db0e 153c
00000020: 1191 f13c b8fa aabc
-0.0037522998 -0.019001206 -0.013260612 -0.044787545 -0.020893043 -0.018661115 -0.03668526 0.00909778
0.029488118 -0.020871505

hid.10.weight f4 [10, 10]
00000000: 7305 a23e 9707 8cbd faca 163f 9946 cc3e
00000010: 9fee 08be 2d92 0bbd 0208 033e 826f 3a3e
00000020: 259d d53c 80e9 0a3e 71e4 0b3f a521 9e3e
00000030: a973 893e 6b2f 3dbe 4559 d23d a174 d5be
00000040: 4345 da3e 67f7 6b3e 656f bcbe 4206 b63e
00000050: c97e 0abe a8a5 133e 6727 c73e e591 913e
00000060: b293 883e 3d84 8cbe 7281 ba3e f2fb 903e
00000070: 5b5c 143e 7d74 67bd 811d 9b3e a090 80bd
00000080: 680f 163e 1fe3 12be 5990 6bbe a4a1 a73e
00000090: 815c 1c3f 057e 153e 5a53 fc3c c158 fcbe
000000a0: 0744 f0be 481b e43c 6c93 6f3e 7234 c33e
000000b0: 02a2 ca3d c9d9 b43e cbb4 323f 59a3 83be
000000c0: f624 08bf a2a1 103e 2405 e7bd 68c9 9b3d
000000d0: e7ca 483f c084 40bf 5b03 15be a18a 22bf
000000e0: 3bd0 b63e 0d0c a93e d5cc acbe 5d4d babe
000000f0: 729d bfbd 7e94 eebc a689 acbd 5f31 b0bd
00000100: f704 233f ee52 90bd 9435 92bc 5b61 b73e
00000110: 93b8 c1be 1201 773e 300d 07bf aab3 01be
00000120: acd3 f63e 7297 783e 3893 ad3d 7084 ce3e
00000130: 78de 57be 0432 f1be 4736 9f3e 0477 97be
00000140: c506 fa3e 16ad d33e ac68 9ebd 63a2 92be
00000150: ea87 23be ae50 05be 52ef 233f 672c 913d
00000160: ff43 d8bd 0c4a 98be 2005 0e3e d209 41bf
00000170: f751 413b 0706 b5be 0328 a03d aa87 fb3d
00000180: a107 3e3e e00d 043e 904b b93d 0bc3 0ebf
0.31644782 -0.06837385 0.5890347 0.39897612 -0.13372277 -0.03407495 0.12796023 0.182066
0.026075909 0.13565636 0.5464545 0.30885044 0.26846054 -0.1847512 0.10270933 -0.41690543
0.42630967 0.23043595 -0.36803737 0.3555165 -0.13524927 0.14418662 0.3889725 0.2843162
0.26675183 -0.2744464 0.36426884 0.2831722 0.14488356 -0.056507576 0.30295947 -0.06277585
0.14654315 -0.14344452 -0.23004283 0.3274051 0.6107865 0.14598854 0.030801464 -0.49286464
-0.469269 0.02784504 0.2339608 0.3812595 0.09894182 0.35322407 0.6980712 -0.25710562
-0.531814 0.14124158 -0.11280277 0.076067746 0.78434604 -0.7520256 -0.14552061 -0.6349278
0.35705742 0.33017007 -0.33750024 -0.36387148 -0.09356202 -0.029123541 -0.08424692 -0.08603167
0.6367945 -0.070470676 -0.017847814 0.35816464 -0.3783613 0.24121502 -0.527545 -0.12666193
0.48208368 0.24276522 0.084753454 0.40335417 -0.21080959 -0.4710847 0.31096098 -0.2958299
0.4883329 0.41342992 -0.07734808 -0.28639516 -0.15969816 -0.13019058 0.6403705 0.07088547
-0.10559844 -0.29743993 0.13869143 -0.7540561 0.0029498318 -0.3535616 0.07820132 0.12281735
0.18557598 0.12895918 0.090476155 -0.5576636

hid.10.bias f4 [10]
00000000: ec4a 3dbc 8e71 30bd a027 0fbc 7efc 1abc
00000010: 1648 3cbd 17a5 0a3d bfed aebc 45c9 a5bc
00000020: 0ccb 69bc 2431 5c3c
-0.011553507 -0.043077044 -0.008737475 -0.009459613 -0.045967184 0.03384885 -0.0213536 -0.020237574
-0.014269602 0.01343945

hid.11.weight f4 [10, 10]
00000000: 9326 f6be 537b b4be b286 053f f07f 1f3f
00000010: d9a0 debc d2ed ee3e 46f4 11be ae31 b0be
00000020: db0b 1d3f 2140 f8be dac9 d6bc 0b00 8fbe
00000030: 7830 5c3e caff 9cbe ec01 623e 7af2 233e
00000040: 8d48 623e ef03 1cbe fde4 46be b458 753e
00000050: 027a 30bd 61c9 013f 8a57 c83e dccc 99be
00000060: 160b 593e 034b ddbd 0a5d 8f3e ee7b 993e
00000070: 504d 9cbd 58b7 633e 8726 3c3e bbbb c53e
00000080: 5d9f 653f ee30 fcbd e5d6 323e 6f71 ea3e
00000090: 3f46 533f bd0f 8bbe 4951 903e 8903 febd
000000a0: c6fe a43e a113 a33e 8eb7 8bbe 1806 ef3c
000000b0: 1820 383f d17a 79bf c217 193e 011a d83e
000000c0: 09c8 ef3d 0e6c e8bd 2894 ba3e c1e2 fa3e
000000d0: 6358 9a3e bece 6abe c429 07be 7a4b 863e
000000e0: 1a0b bebc 4e1d 1bbd d34f 813c b68a 293d
000000f0: 6c0b 97bd 1caa 22be 8b64 863e e5e0 cdbd
00000100: b663 d4bd 36bc ed3e 0349 2ebd a011 f8bd
00000110: bf86 d7bb 57f4 ddbe c4c1 e43e daf0 d93d
00000120: 926f cebe 3cf5 55bc 82ea 8abd 5aac 8d3c
00000130: 2670 29bb 8f68 95be 3ac4 d4be 8ce7 4dbe
00000140: 124f bbbd 8e3c fdbe 0fa1 94be 206d e1be
00000150: e361 1cbf 9039 933e e1fa f6be afd7 58bc
00000160: bb3b babe 0eb4 203e 6503 80be bfd5 61be
00000170: 3ce1 f43e 470e 1ebe 2ed1 b23e e58f 46be
00000180: e890 e93d 26f5 273e 872d 82be 637e f13e
-0.48076305 -0.3525034 0.52158654 0.6230459 -0.027176308 0.46665817 -0.14253339 -0.34412903
0.61346215 -0.48486426 -0.026219297 -0.2792972 0.21502864 -0.30663902 0.22071046 0.16010466
0.22097988 -0.15235876 -0.1942329 0.23959619 -0.043085106 0.50697905 0.39129287 -0.30039108
0.21195635 -0.10805323 0.2800067 0.29977363 -0.07631934 0.22237909 0.18374072 0.3861979
0.89696294 -0.1231402 0.17464788 0.45789668 0.8252906 -0.27160445 0.28187016 -0.12403018
0.32225627 0.31850913 -0.2728848 0.02917771 0.7192397 -0.9745303 0.14950469 0.4220734
0.117080756 -0.11348735 0.3644116 0.49001125 0.3014556 -0.22930428 -0.13199526 0.2622946
-0.023198653 -0.037869744 0.015785133 0.04139205 -0.073752254 -0.15885204 0.26248583 -0.10052661
-0.10370581 0.46432656 -0.0425501 -0.12112737 -0.0065773423 -0.4335048 0.4467908 0.10641642
-0.40319496 -0.013058957 -0.0678301 0.017294098 -0.00258542 -0.29181334 -0.4155596 -0.2010786
-0.09145941 -0.49460262 -0.29029128 -0.44028568 -0.61086863 0.28754854 -0.4823828 -0.013235017
-0.36373696 0.15693685 -0.2500259 -0.22054194 0.4782809 -0.15435134 0.34925216 -0.19390829
0.11404592 0.1640211 -0.2542536 0.47166738

hid.11.bias f4 [10]
00000000: c9a3 243b 07f4 1e3c 65ab b2bc 8ad8 8fbb
00000010: e7bd f9bc 5583 57bb 852c 623b ea87 ba3b
00000020: d24e fa3c e68d 1b3c
0.0025122038 0.009701735 -0.021810243 -0.004389827 -0.03048606 -0.0032884676 0.00345114 0.0056924718
0.030555163 0.00949428

out.weight f4 [1, 10]
00000000: cf3a 3ebe 1d3e 40bd d513 f73e 457d 8d3e
00000010: 9187 133f 648c 5c3e 5b16 42be a26a 6ebe
00000020: 8562 f2be 7ce3 933d
-0.18577121 -0.046934236 0.48257318 0.27634636 0.5762873 0.2153793 -0.1895384 -0.23282865
-0.4734079 0.072211236
